gym_pybullet_drones/examples/models/actor_gnn_4drones.pkl (torch, 23968 bytes, 14 tensors)

self_encoder_1.weight f4 [32, 8]
0.1592524 -0.28055122 0.63339955 -0.23841548 -0.29344198 0.109847866 -0.035840698 0.05378976
-0.29706636 0.118761525 -0.41807762 -0.50696325 -0.089124314 0.11587138 -0.035802145 0.1301888
0.25322136 -0.25302958 0.13195007 -0.3023616 0.03875502 0.15830466 0.1551415 -0.21843909
0.15365246 0.11233818 -0.15788713 0.46665987 -0.07473455 0.12861332 0.056553017 -0.009850905
0.14335537 0.10895582 0.022530997 0.24577066 0.3102732 -0.24885325 0.25377712 -0.040131252
-0.37401918 0.3749852 -0.19562738 0.44791695 -0.055590335 -0.2360905 -0.23037606 0.32347676
0.3143706 -0.12573642 0.44441935 0.5381166 0.094024844 -0.12328011 0.037875164 -0.13800056
0.3088506 -0.15735584 -0.19960853 0.27205065 0.13243346 -0.16386916 0.13435586 -0.36231422
-0.19569993 0.29468966 -0.580046 0.52082187 0.16541559 -0.28772607 0.22758718 -0.0034148025
-0.06264996 0.17686024 -0.047430478 0.68801224 0.006938399 -0.19896013 -0.062945455 0.067165785
-0.022762522 -0.23484118 -0.42862067 -0.37592217 0.20532024 0.034550425 0.1182038 0.081119545
-0.17368954 -0.1287221 -0.0262246 -0.2996022 -0.37325245 0.3000251 -0.30273306 0.048565026
-0.36116722 -0.13130562 -0.5596257 0.39211836 -0.23691817 -0.2350837 -0.24594139 -0.030745327
0.059409067 0.026512522 0.29209653 0.19459969 -0.28333712 -0.31028488 0.1361032 -0.10570695
-0.18806456 -0.21899892 0.072352245 0.08829391 0.26408333 0.18934022 0.009513597 0.07087569
-0.13264489 -0.098173276 0.13641173 -0.4026497 0.06465095 -0.112207405 -0.04999395 0.007599061
0.030187994 0.31683972 0.5763168 0.50155765 -0.27677363 -0.04515908 -0.13998245 -0.10441163
0.12092638 -0.18031979 0.36146632 -0.3048597 -0.10156376 0.17561737 -0.14853078 0.001577137
0.27961957 -0.037537534 0.4516463 0.16975911 -0.25926432 0.21679412 0.17500734 0.0720273
0.04841563 -0.13535106 0.035203747 -0.52588147 -0.0052459785 0.15123048 0.046902373 -0.05112391
0.13483109 0.301783 0.5032927 0.010036895 -0.38307595 -0.24924956 -0.03729352 0.18322757
-0.14518434 0.24871464 -0.5088565 0.19905554 0.260433 -0.098720714 0.046060145 -0.05769657
0.11728083 -0.17937209 0.34088486 -0.35832506 -0.098505646 0.1756505 -0.116258405 0.0016580735
-0.07289588 -0.033140957 -0.3607186 -0.23933862 0.35109234 0.38338658 -0.1695468 0.12872194
-0.15721487 -0.34847412 -0.5831175 -0.011628172 0.44382927 0.29144192 0.042731963 -0.21296442
-0.27438092 0.038367428 -0.44900432 -0.16265361 0.25361001 -0.21132429 -0.16978528 -0.0676226
0.22326681 0.080670394 0.34433278 -0.2426743 0.14646226 0.14437 0.15859805 0.02748827
-0.1730423 0.30542228 -0.6967892 0.2596777 0.31845334 -0.11813381 0.036675755 -0.058366597
-0.10554919 0.22023863 0.29719582 0.42217004 0.08141951 -0.14404994 0.15025614 0.080616884
-0.02805781 -0.29738197 -0.5430615 -0.45981234 0.26128417 0.042588282 0.07468442 0.082774885
0.065154985 -0.18354292 0.06245914 -0.71309215 -0.011287967 0.20356838 0.0653171 -0.058958706
0.38067278 0.13765442 0.5884165 -0.40841305 0.24962905 0.24523818 0.2434328 0.015895065
00000000: 1013 233e 69a4 8fbe 7926 223f 3023 74be
00000010: 073e 96be ebf7 e03d b2cd 12bd a752 5c3d
00000020: 1519 98be 3e39 f33d 450e d6be 58c8 01bf
00000030: cf86 b6bd f94d ed3d 45a5 12bd 3650 053e
00000040: 3ba6 813e 188d 81be eb1d 073e 24cf 9abe
00000050: 95bd 1e3d 9e1a 223e 6add 1e3e 7fae 5fbe
00000060: 1257 1d3e 8f11 e63d 2aad 21be 0bee ee3e
00000070: 6e0e 99bd 36b3 033e 23a4 673d b165 21bc
00000080: c0cb 123e 3b24 df3d ed92 b83c 4eab 7b3e
00000090: 21dc 9e3e 63d3 7ebe 13ef 813e ab60 24bd
000000a0: 717f bfbe 0ffe bf3e 8b52 48be 5f55 e53e
000000b0: b1b2 63bd b5c1 71be b4e7 6bbe bf9e a53e
000000c0: 2ff5 a03e 0cc1 00be ef8a e33e 02c2 093f
000000d0: 1990 c03d 487a fcbd fd22 1b3d 0550 0dbe
000000e0: aa21 9e3e e421 21be 2e66 4cbe 394a 8b3e
000000f0: a39c 073e 51cd 27be 9594 093e 4081 b9be
00000100: 9065 48be 90e1 963e e57d 14bf 9554 053f
00000110: b462 293e d550 93be 9d0c 693e e1ca 5fbb
00000120: 9f4e 80bd da1a 353e 7646 42bd 9221 303f
00000130: 825b e33b 34bc 4bbe 8ce9 80bd 378e 893d
00000140: 7878 babc 357a 70be 2b74 dbbe df78 c0be
00000150: 783f 523e bf84 0d3d d514 f23d 0122 a63d
00000160: acdb 31be bacf 03be f9d4 d6bc 7665 99be
00000170: f21a bfbe e49c 993e d4ff 9abe 1fec 463d
00000180: e9ea b8be fb74 06be a143 0fbf bdc3 c83e
00000190: ad9a 72be c8b9 70be 0fd8 7bbe a0dd fbbc
000001a0: ec56 733d ca30 d93c ad8d 953e 2445 473e
000001b0: 9011 91be a9dd 9ebe a35e 0b3e e37c d8bd
000001c0: ff93 40be 4141 60be 6a2d 943d 70d3 b43d
000001d0: ee35 873e 67e2 413e ebde 1b3c 4627 913d
000001e0: 10d4 07be 120f c9bd 84af 0b3e 1a28 cebe
000001f0: b867 843d ffcc e5bd 75c6 4cbd 8b01 f93b
00000200: d04c f73c d138 a23e 7f89 133f 1566 003f
00000210: 46b5 8dbe baf8 38bd 8f57 0fbe c4d5 d5bd
00000220: 40a8 f73d c0a5 38be 1d12 b93e 9216 9cbe
00000230: a900 d0bd 0ad5 333e 7418 18be f0b7 ce3a
00000240: 4c2a 8f3e f5c0 19bd 2f3e e73e 55d5 2d3e
00000250: 4bbe 84be 47ff 5d3e 2035 333e 0d83 933d
00000260: 784f 463d 7899 0abe ce31 103d 2ba0 06bf
00000270: 75e6 abbb 2adc 1a3e b41c 403d 4e67 51bd
00000280: 2911 0a3e 4d83 9a3e cad7 003f ca71 243c
00000290: 8822 c4be 473b 7fbe 17c1 18bd 02a0 3b3e
000002a0: 34ab 14be 0daf 7e3e 6b44 02bf 37d5 4b3e
000002b0: 7957 853e 162e cabd 90a9 3c3d 3d53 6cbd
000002c0: ef30 f03d 51ad 37be 7688 ae3e 6276 b7be
000002d0: 54bd c9bd badd 333e e318 eebd b753 d93a
000002e0: 6f4a 95bd d0be 07bd 1cb0 b8be 2f15 75be
000002f0: 60c2 b33e 3f4b c43e ad9d 2dbe afcf 033e
00000300: effc 20be 336b b2be 3047 15bf 1784 3ebc
00000310: 973d e33e e037 953e b607 2f3d 5813 5abe
00000320: a87b 8cbe 2a27 1d3d e5e3 e5be ab8e 26be
00000330: 2cd9 813e 6565 58be 31dc 2dbe b87d 8abd
00000340: 0ea0 643e 8536 a53d 634c b03e 9d7f 78be
00000350: 34fa 153e bbd5 133e 8767 223e 152f e13c
00000360: 0032 31be 4f60 9c3e c760 32bf 7af4 843e
00000370: 510c a33e 24f0 f1bd 5139 163d d011 6fbd
00000380: 2c2a d8bd 3c86 613e 0d2a 983e ac26 d83e
00000390: 46bf a63d d481 13be bfdc 193e 771a a53d
000003a0: 7ed9 e5bc 7342 98be 1406 0bbf 866c ebbe
000003b0: 0ac7 853e 0d71 2e3d 25f4 983d e185 a93d
000003c0: fa6f 853d adf2 3bbe 28d5 7f3d 358d 36bf
000003d0: 2af1 38bc 3b74 503e f9c4 853d af7e 71bd
000003e0: 8be7 c23e 48f5 0c3e 77a2 163f 841b d1be
000003f0: c29e 7f3e b81f 7b3e 7346 793e 5e36 823c

self_encoder_1.bias f4 [32]
-0.07395116 -0.06207176 -0.0782723 -0.19728637 0.095331796 0.15299301 0.06915584 0.018353602
0.09791331 -0.1018968 -0.008551057 -0.09905059 0.055240408 -0.030954616 0.45159233 0.1739919
0.022385018 -0.12192628 0.0108999405 0.03356364 -0.006237032 -0.23967114 0.06562013 0.040234238
0.007398792 0.06945655 -0.095883064 0.13548587 0.33199167 -0.0467045 0.17741579 0.07783017
00000000: b573 97bd f53e 7ebd 3a4d a0bd 7005 4abe
00000010: 513d c33d 33aa 1c3e 94a1 8d3d 4b5a 963c
00000020: c686 c83d 45af d0bd bc19 0cbc 09db cabd
00000030: c443 623d 8994 fdbc 1c37 e73e ef2a 323e
00000040: c960 b73c 7cb4 f9bd aa95 323c 077a 093d
00000050: 0460 ccbb 5a6c 75be d963 863d a8cc 243d
00000060: 9171 f23b 3c3f 8e3d 575e c4bd cfbc 0a3e
00000070: d0fa a93e 384d 3fbd 7cac 353e 6d65 9f3d

self_encoder_2.weight f4 [16, 32]
-0.18849345 -0.16879788 -0.18624727 0.2291068 -0.058876175 0.18008734 0.23705722 -0.035249714
-0.02481275 0.2290389 -0.19740504 -0.032939855 -0.12620582 0.14996302 0.07231584 -0.21190518
0.21580955 -0.014326673 -0.14708504 -0.30496055 0.11652781 -0.112482026 0.040081654 0.117725715
-0.040144514 -0.055233367 -0.042718317 0.0719217 -0.14109133 -0.040286317 0.078317136 -0.055567242
0.2506085 0.12720184 0.19360848 -0.13713026 -0.08441703 -0.08985887 -0.08359105 -0.084396094
0.042184304 -0.1676347 0.1002215 0.19098195 -0.10076933 -0.08578187 0.121051356 0.058939166
0.11125708 -0.066380724 -0.0051833536 0.06623766 -0.09794395 0.07944474 0.06598371 -0.069493294
0.11264557 -0.101485014 0.21444926 0.1026568 0.031757556 -0.03843391 0.23722641 0.1484078
-0.24454549 -0.05699114 -0.077097766 0.061429482 0.09707449 0.112387516 0.18324544 0.042349104
0.012243081 0.34152833 0.061561357 -0.18525138 0.24329832 0.0169511 0.020633005 -0.032263372
0.14660746 -0.21495152 0.060002908 -0.20180456 -0.060475916 0.2447362 -0.1041812 0.076677606
0.045704637 -0.03627321 -0.19416507 0.27839112 -0.021371849 -0.070434324 -0.17073856 -0.17169279
0.22686931 0.17946813 0.073438376 0.03771531 0.034891583 0.1573221 0.16420178 0.27799383
0.124611765 0.13035484 0.2895141 0.13762908 0.08591351 0.07392197 0.24698818 0.10007689
0.050206117 0.21014568 0.119799286 0.12529884 0.010774911 0.13121144 0.08500504 0.21801965
-0.0005819287 0.2822956 0.12944019 0.15132727 0.20111059 -0.03589308 -0.012151342 0.1164729
-0.19620372 0.26027933 0.11855926 0.199516 0.12947126 0.019118024 -0.21526776 -0.0681462
0.20344727 -0.09831491 0.21810378 0.1191289 0.20349573 0.061454926 -0.02833943 -0.06307556
-0.14196941 -0.0029075271 0.0067128404 0.06779064 -0.19073366 -0.14070173 -0.04191749 0.19162083
0.14043443 0.095152415 -0.2425208 0.008830101 -0.1581416 -0.007868823 -0.10833114 -0.12266511
0.27666488 -0.23629326 -0.14554955 0.11882779 0.12605946 0.13210846 0.24026352 -0.16169997
0.04180626 0.20031333 -0.21192634 0.069995716 0.09647523 0.10602554 -0.11791604 -0.08901733
0.12141066 0.02509589 0.16992947 -0.23495772 -0.09723676 -0.022702627 -0.036188457 -0.21547773
-0.16827823 0.11914905 0.0921533 -0.1988178 0.11090656 -0.091067456 -0.0084075965 0.06899814
-0.23809779 -0.14166892 -0.18453304 -0.017833836 0.13650598 -0.047056198 0.13855097 -0.014276068
0.07271999 0.12496416 0.094520085 -0.04457765 0.121201366 -0.12862043 -0.014689328 -0.042745065
0.057898674 -0.056045692 -0.00478633 -0.14083485 -0.18392758 0.008612389 -0.042236242 -0.103771545
-0.077376515 0.099287525 -0.041230034 0.25185543 0.16713959 -0.20358655 0.055269863 -0.0358046
0.105882205 -0.08131283 -0.048113603 -0.031973075 0.18802424 0.20014723 0.13871771 0.11656335
0.2116323 -0.08179181 -0.08107914 0.04450645 0.1729983 0.12348831 0.07357493 -0.03640515
0.2340697 0.19895332 0.033878904 0.03370524 0.18768086 0.19725674 0.1479123 0.2167973
0.11320524 0.18111329 0.04653245 -0.040510457 -0.0069828853 0.14360958 -0.004780013 0.20248275
00000000: 6d04 41be 5ad9 2cbe 9bb7 3ebe f99a 6a3e
00000010: 2528 71bd d168 383e 21bf 723e 0162 10bd
00000020: 1c44 cbbc 2c89 6a3e 8c24 4abe f1eb 06bd
00000030: 193c 01be e88f 193e 541a 943d acfd 58be
00000040: 2efd 5c3e 6cba 6abc 769d 16be ca23 9cbe
00000050: 22a6 ee3d fa5c e6bd a92c 243d 2e1a f13d
00000060: 936e 24bd 623c 62bd 67f9 2ebd af4b 933d
00000070: 3f7a 10be 4403 25bd bc64 a03d 7a9a 63bd
00000080: c24f 803e 3341 023e 4d41 463e e06b 0cbe
00000090: d6e2 acbd ed07 b8bd c931 abbd dcd7 acbd
000000a0: 73c9 2c3d 6ea8 2bbe ee40 cd3d c690 433e
000000b0: 2760 cebd 68ae afbd c6e9 f73d 326a 713d
000000c0: c1da e33d 9ef2 87bd 1fd9 a9bb 9ca7 873d
000000d0: d696 c8bd edb3 a23d 7822 873d 8052 8ebd
000000e0: b8b2 e63d 60d7 cfbd 9698 5b3e ba3d d23d
000000f0: 3614 023d e06c 1dbd 7beb 723e 37f8 173e
00000100: 226a 7abe 8b6f 69bd 6fe5 9dbd 7b9d 7b3d
00000110: fdce c63d 6d2b e63d b1a4 3b3e 4176 2d3d
00000120: 3497 483c cddc ae3e c327 7c3d 8ab2 3dbe
00000130: 3223 793e 09dd 8a3c 8c06 a93c 9926 04bd
00000140: 4420 163e 401c 5cbe 9cc5 753d dba5 4ebe
00000150: 98b5 77bd 209c 7a3e f45c d5bd 2609 9d3d
00000160: c934 3b3d 3893 14bd 35d3 46be 4889 8e3e
00000170: 0414 afbc df3f 90bd 17d6 2ebe 3cd0 2fbe
00000180: 6e50 683e 7ec6 373e dc66 963d 5e7b 1a3d
00000190: 7aea 0e3d 0b19 213e 8324 283e 3555 8e3e
000001a0: 7434 ff3d bd7b 053e 313b 943e a3ee 0c3e
000001b0: 6cf3 af3d 6764 973d 78ea 7c3e 1df5 cc3d
000001c0: eea4 4d3d 6e30 573e 5459 f53d 574e 003e
000001d0: 4189 303c 4b5c 063e 1f17 ae3d 8b40 5f3e
000001e0: 938c 18ba 0d89 903e f88b 043e 89f5 1a3e
000001f0: efef 4d3e 9f04 13bd 6c16 47bc 5889 ee3d
00000200: a1e9 48be 5543 853e 33cf f23d ec4d 4c3e
00000210: 1d94 043e 679d 9c3c 276f 5cbe 3c90 8bbd
00000220: 7b54 503e 5459 c9bd 9956 5f3e daf9 f33d
00000230: 2f61 503e 29b8 7b3d 1828 e8bc c22d 81bd
00000240: 6e60 11be 368c 3ebb 63f7 db3b d2d5 8a3d
00000250: af4f 43be 1d14 10be adb1 2bbd 4038 443e
00000260: 0bce 0f3e 45df c23d 5f57 78be 21ac 103c
00000270: dfef 21be 3cec 00bc b7dc ddbd d837 fbbd
00000280: 05a7 8d3e dcf6 71be f10a 15be fc5b f33d
00000290: bb15 013e 7147 073e a407 763e ad94 25be
000002a0: 0a3d 2b3d f01e 4d3e 3803 59be ea59 8f3d
000002b0: ce94 c53d eb23 d93d f77d f1bd b84e b6bd
000002c0: 27a6 f83d e595 cd3c fe01 2e3e c298 70be
000002d0: 1124 c7bd dcfa b9bc 593a 14bd 32a6 5cbe
000002e0: 2151 2cbe 6b04 f43d dfba bc3d e596 4bbe
000002f0: fb22 e33d 9381 babd 04c0 09bc e64e 8d3d
00000300: e8cf 73be a811 11be 3bf6 3cbe 4418 92bc
00000310: 39c8 0b3e 00be 40bd 4ee0 0d3e 2be6 69bc
00000320: 38ee 943d 36ed ff3d bf93 c13d 0e97 36bd
00000330: 6c38 f83d 13b5 03be 82ab 70bc 7315 2fbd
00000340: 2927 6d3d 2b90 65bd a5d6 9cbb 0337 10be
00000350: 8357 3cbe fa1a 0d3c e9ff 2cbd 2d86 d4bd
00000360: 9477 9ebd 4257 cb3d d3e0 28bd 32f3 803e
00000370: a426 2b3e fe78 50be a762 623d d8a7 12bd
00000380: c5d8 d83d 5787 a6bd c512 45bd 33f6 02bd
00000390: 6d89 403e 65f3 4c3e 040c 0e3e c4b8 ee3d
000003a0: 23b6 583e 7782 a7bd d20c a6bd 654c 363d
000003b0: 7726 313e 70e7 fc3d 74ae 963d 911d 15bd
000003c0: f8af 6f3e 6bba 4b3e 9bc4 0a3d 810e 0a3d
000003d0: 692f 403e acfd 493e 5276 173e 1d00 5e3e
000003e0: 26d8 e73d c375 393e cf98 3e3d 4bee 25bd
000003f0: b0d0 e4bb 640e 133e a8a1 9cbb a357 4f3e

self_encoder_2.bias f4 [16]
-0.0058909906 0.07487927 -0.14510411 0.037699036 0.13204245 0.11486734 0.044871446 0.120189466
0.10863483 0.025941504 0.092453875 0.0928472 0.09761113 -0.21274287 0.019398518 0.06525184
00000000: 3609 c1bb 4d5a 993d 2c96 14be 4e6a 1a3d
00000010: 2336 073e 913f eb3d 1fcb 373d e525 f63d
00000020: f07b de3d 4783 d43c 7558 bd3d ac26 be3d
00000030: 58e8 c73d 44d9 59be a4e9 9e3c c2a2 853d

neighbor_encoder_1.weight f4 [32, 4]
-0.05940706 -0.104281716 -0.4445119 0.4907111 -0.047830984 -0.14211705 -0.3396732 0.4219048
0.29656675 0.37238014 -0.06404884 0.25825226 0.09452212 -0.21121112 0.08253382 0.24236088
0.029882127 0.46513808 -0.5017324 0.27325186 0.19452634 -0.5450612 -0.37902284 -0.48588526
-0.014642321 0.041085005 0.37716424 -0.41819057 0.22359975 -0.23077716 0.5436048 0.1560682
-0.13914908 -0.027424455 0.26541328 -0.43705603 -0.33525082 0.50105727 0.4152777 0.33571485
0.4801707 0.3259767 0.12065125 -0.06082913 0.41717887 0.049958866 -0.08117505 -0.097348474
-0.21766557 -0.3027834 0.0013490064 -0.10354524 -0.36441997 0.3456852 -0.5450136 -0.13708287
-0.26774395 0.23764934 -0.4656836 -0.090260856 0.0033283478 -0.2090732 -0.13071506 -0.3881563
-0.14094473 -0.031005057 -0.508296 -0.11611492 -0.32331362 -0.25945768 0.15322791 -0.21880923
0.28477064 -0.21360438 0.27647984 0.124386236 0.026295545 0.14865077 0.16112795 0.16069587
-0.1278591 -0.15336263 0.20516971 -0.51903945 0.5591043 0.38710544 -0.11897033 0.153872
-0.42397243 -0.28136286 0.20589891 -0.21369362 -0.11806289 -0.03983051 -0.4538798 -0.11017482
0.37499714 0.3673708 -0.12026914 0.28800094 0.17582762 -0.39352527 0.16146919 0.4452903
0.089493245 0.33991233 0.29612738 -0.5159098 -0.23062378 0.4203292 0.060582776 -0.35980928
0.13593975 -0.45167527 -0.07614298 -0.26526448 0.42858514 -0.14663103 0.38159245 0.23193538
0.18924606 -0.5438929 0.29218462 -0.38746366 -0.29059586 -0.34871346 0.38588664 -0.13147154
00000000: d154 73bd a791 d5bd 1097 e3be 7c3e fb3e
00000010: 6cea 43bd 2287 11be a5e9 adbe e803 d83e
00000020: 99d7 973e 9ca8 be3e 0a2c 83bd a439 843e
00000030: d094 c13d ba47 58be 7e07 a93d 732d 783e
00000040: 5dcb f43c 9426 ee3e 8971 00bf abe7 8b3e
00000050: ea31 473e 2189 0bbf 480f c2be f4c5 f8be
00000060: 58e6 6fbc c048 283d ac1b c13e 131d d6be
00000070: 55f7 643e d950 6cbe af29 0b3f 58d0 1f3e
00000080: 197d 0ebe 40a9 e0bc 40e4 873e cfc5 dfbe
00000090: ffa5 abbe 4a45 003f 479f d43e d1e2 ab3e
000000a0: efd8 f53e 6be6 a63e 0118 f73d f727 79bd
000000b0: 7898 d53e aba1 4c3d 1b3f a6bd a35e c7bd
000000c0: b9e3 5ebe 6d06 9bbe 25d1 b03a 870f d4bd
000000d0: 4195 babe a7fd b03e 0386 0bbf 745f 0cbe
000000e0: bc15 89be 595a 733e 156e eebe afda b8bd
000000f0: 6920 5a3b 4917 56be 2bda 05be 6cbc c6be
00000100: d153 10be 51fe fdbc b01f 02bf a9cd edbd
00000110: 5d89 a5be a3d7 84be c7e7 1c3e 870f 60be
00000120: 75cd 913e 1bbb 5abe c48e 8d3e 36be fe3d
00000130: c169 d73c e837 183e bafe 243e 758d 243e
00000140: 7fed 02be 180b 1dbe 0218 523e c5df 04bf
00000150: 7621 0f3f af32 c63e b7a6 f3bd 9f90 1d3e
00000160: ea12 d9be cb0e 90be 2ad7 523e 80d2 5abe
00000170: f5ca f1bd 5125 23bd ef62 e8be 56a3 e1bd
00000180: a0ff bf3e 0718 bc3e ab4f f6bd dc74 933e
00000190: 280c 343e 257c c9be 2e58 253e 17fd e33e
000001a0: 3c48 b73d fd08 ae3e 029e 973e aa12 04bf
000001b0: a428 6cbe 6435 d73e a525 783d ec38 b8be
000001c0: ca33 0b3e fb41 e7be daf0 9bbd bfd0 87be
000001d0: 836f db3e 7226 16be 1660 c33e 7880 6d3e
000001e0: b8c9 413e 913c 0bbf 3999 953e a361 c6be
000001f0: fbc8 94be 928a b2be ef92 c53e 7aa0 06be

neighbor_encoder_1.bias f4 [32]
0.06666064 -0.06896234 0.37516525 0.038670525 0.7599741 0.5461515 -0.22210325 0.3551997
0.24044475 0.60732836 -0.22596246 0.25895622 -0.14650257 -0.037210926 -0.16582873 0.29431036
0.0053557353 0.16535413 0.062047817 0.05063065 -0.1685022 0.6242927 0.5332491 0.3533506
0.46756124 -0.19243112 0.13103063 -0.22866912 -0.35980734 -0.018538583 0.16867763 -0.3188846
00000000: 6085 883d 213c 8dbd a915 c03e fc64 1e3d
00000010: aa8d 423f 96d0 0b3f 096f 63be bcdc b53e
00000020: 2637 763e df79 1b3f b462 67be e995 843e
00000030: c504 16be 7c6a 18bd 02cf 29be d9af 963e
00000040: 2a7f af3b 9852 293e da25 7e3d 1662 4f3d
00000050: d78b 2cbe a5d1 1f3f 0383 083f 5fea b43e
00000060: 3064 ef3e aa0c 45be e52c 063e 3d28 6abe
00000070: ab38 b8be 3ade 97bc d4b9 2c3e d844 a3be

neighbor_encoder_2.weight f4 [16, 32]
-0.00023552416 -0.19131935 -0.13251603 -0.11020693 -0.16095796 0.06572471 -0.0003038701 -0.06530703
-0.13444176 -0.0926066 -0.016693508 -0.15876128 -0.1005099 -0.19371311 -0.11011735 0.0045727687
-0.09115449 -0.11236401 -0.068901815 -0.07545403 -0.20261694 -0.06514536 -0.11412356 0.0064400695
-0.14817832 -0.06501802 -0.0028144352 0.008560243 -0.038407397 -0.010966653 0.07099489 -0.06753903
-0.12546347 -0.13588923 0.063969 -0.14140509 -0.18040046 -0.019931605 0.054397643 -0.21138975
0.01165333 -0.1779855 0.09384297 -0.14539899 0.01690246 -0.0341535 -0.21876653 -0.0821895
-0.24925391 -0.16655196 -0.17722435 -0.17926808 0.016818054 -0.2671078 -0.14906651 -0.25299415
-0.12649761 0.060836475 -0.09417147 -0.15311137 -0.18047985 -0.2230371 -0.07484358 -0.14469695
-0.15028802 0.0009216333 -0.021831838 0.033819687 -0.19587599 0.07228576 0.06302396 0.0704334
-0.17198735 0.049187478 0.04165971 -0.068231724 -0.12307448 -0.025206404 -0.0630852 -0.2150222
-0.03998069 -0.14015764 -0.11719106 0.019195665 -0.06369777 -0.23333271 -0.059537046 -0.22737107
0.060183126 -0.07486717 -0.056398485 -0.07672856 -0.0055487463 -0.11982538 0.031193031 -0.2083115
0.21709758 0.023533113 0.21726441 -0.04300786 -0.01732745 0.09458019 -0.039340448 0.22698176
0.10254117 0.23814005 0.21722457 -0.030210057 0.1649221 0.22068413 0.27082044 0.055414237
-0.03374105 -0.04705857 0.16457243 -0.039087914 0.02148637 0.22036706 0.12007587 0.1390102
-0.049476217 0.070175804 0.19911839 -0.03394264 0.085641496 -0.058934797 0.16028263 0.24885128
0.24682456 -0.0927795 0.2354502 0.17215562 0.1698669 0.1114527 0.03186575 -0.017672457
-0.05373533 0.1512972 0.18409018 0.03217154 0.18432534 0.039565794 -0.060784984 -0.104912646
-0.016399667 0.07618766 0.1559855 0.022296283 0.10933819 -0.0385273 0.07927373 0.13507959
-0.09860051 0.22050236 -0.09563598 0.20109947 -0.013149762 -0.021145253 0.01147113 0.040401593
0.1442786 0.03571778 -0.007713799 -0.07428131 0.12485533 -0.05148571 0.123878576 0.23447676
0.069141425 -0.0143271675 0.24287538 0.17842558 -0.11573973 0.04059362 0.13950406 0.06353821
0.17404458 0.089667894 -0.054674946 0.16918352 -0.0049949167 -0.00525409 0.17372021 -0.07024068
0.1324569 -0.013264674 0.049719043 0.0227373 0.19183192 -0.04970164 0.154162 0.023612257
0.09234882 0.018299863 0.059632793 0.1981145 -0.017823664 0.056842167 0.21885593 -0.023584906
0.07926143 0.18219438 0.16184044 -0.0402516 -0.043832194 -0.008935689 0.09351638 -0.047498956
0.13108763 -0.018393526 0.24119528 0.10239609 0.11936141 0.1241151 0.05984367 0.04448867
0.2506872 0.04944375 0.09932916 0.22601946 -0.0011499696 -0.051335726 0.09167363 0.08241859
0.035279565 -0.14910242 0.0058472333 -0.08466292 0.14700061 -0.029273948 0.14454766 -0.06885824
-0.104999356 -0.007682605 -0.10416755 -0.03717267 -0.11225505 0.06564326 -8.986184e-05 -0.12961324
0.06551949 -0.110747695 0.13854077 0.017599918 0.10601153 -0.049862787 0.11550556 -0.20548216
-0.0100316685 0.06546804 -0.06346388 -0.09943628 0.041936327 -0.18480238 -0.1477591 -0.20348515
00000000: 09f7 76b9 38e9 43be 48b2 07be 2cb4 e1bd
00000010: 2ad2 24be ad9a 863d c150 9fb9 b1bf 85bd
00000020: 1aab 09be 87a8 bdbd d3c0 88bc 5192 22be
00000030: 22d8 cdbd bb5c 46be 3585 e1bd 2ad7 953b
00000040: 35af babd 1a1f e6bd 651c 8dbd a487 9abd
00000050: d17a 4fbe ee6a 85bd 9db9 e9bd 3807 d33b
00000060: 0fbc 17be 2b28 85bd 6372 38bb 4340 0c3c
00000070: 1351 1dbd 7aad 33bc c565 913d e751 8abd
00000080: 7f79 00be 8c26 0bbe 2e02 833d 7fcc 10be
00000090: e6ba 38be 9b47 a3bc 10d0 5e3d 8e76 58be
000000a0: 9ced 3e3c d541 36be be30 c03d 79e3 14be
000000b0: 0777 8a3c 8ae4 0bbd 5504 60be f852 a8bd
000000c0: 6b3c 7fbe 998c 2abe 4d7a 35be 0d92 37be
000000d0: 04c6 893c 5bc2 88be e4a4 18be 7388 81be
000000e0: 9788 01be ab2f 793d f9dc c0bd 3ac9 1cbe
000000f0: b6cf 38be d663 64be 9747 99bd 702b 14be
00000100: 1ae5 19be c499 713a afd8 b2bc 8386 0a3d
00000110: b793 48be 8e0a 943d b512 813d 633f 903d
00000120: 741d 30be cf78 493d 5fa3 2a3d 13bd 8bbd
00000130: 790e fcbd a97d cebc d032 81bd c82e 5cbe
00000140: cbc2 23bd 7c85 0fbe de01 f0bd 3a40 9d3c
00000150: fa73 82bd c5ee 6ebe 1edd 73bd f6d3 68be
00000160: 9582 763d f553 99bd 1902 67bd dd23 9dbd
00000170: 42d2 b5bb 0267 f5bd 8788 ff3c 9c4f 55be
00000180: d44e 5e3e 84c8 c03c 907a 5e3e 0329 30bd
00000190: 4cf2 8dbc 42b3 c13d 7323 21bd e86d 683e
000001a0: 1b01 d23d fcda 733e 1e70 5e3e 157b f7bc
000001b0: 57e1 283e 05fb 613e faa8 8a3e 0afa 623d
000001c0: 0e34 0abd 7dc0 40bd ad85 283e a61a 20bd
000001d0: 2f04 b03c e7a7 613e 56ea f53d b158 0e3e
000001e0: 93a7 4abd 55b8 8f3d b1e5 4b3e 7007 0bbd
000001f0: cf64 af3d 9d65 71bd 2121 243e dfd2 7e3e
00000200: 94bf 7c3e 2e03 bebd db19 713e 9049 303e
00000210: 97f1 2d3e 5041 e43d a985 023d d4c5 90bc
00000220: 9419 5cbd a7ed 1a3e 2382 3c3e 4ec6 033d
00000230: c8bf 3c3e be0f 223d adf9 78bd 71dc d6bd
00000240: 9858 86bc 4708 9c3d aaba 1f3e b2a6 b63c
00000250: b3ec df3d cdce 1dbd 445a a23d 4e52 0a3e
00000260: 10ef c9bd 5fcb 613e ccdc c3bd 05ed 4d3e
00000270: 1972 57bc cf38 adbc 68f1 3b3c 247c 253d
00000280: c5bd 133e cf4c 123d 09c4 fcbb cd20 98bd
00000290: 27b4 ff3d aee2 52bd 0db4 fd3d ad1a 703e
000002a0: 059a 8d3d 7fbc 6abc 53b4 783e 32b5 363e
000002b0: f408 edbd 7f45 263d 27da 0e3e 5220 823d
000002c0: be38 323e cda3 b73d d6f2 5fbd 723e 2d3e
000002d0: 66ac a3bb 802a acbb b6e3 313e 58da 8fbd
000002e0: c8a2 073e 1354 59bc 32a6 4b3d 9343 ba3c
000002f0: 966f 443e f293 4bbd a5dc 1d3e 7e6e c13c
00000300: 6121 bd3d 98e9 953c 8441 743d 87de 4a3e
00000310: ef02 92bc 55d3 683d c51b 603e 2235 c1bc
00000320: d153 a23d 2a91 3a3e 80b9 253e ddde 24bd
00000330: 6389 33bd ff66 12bc 8485 bf3d 448e 42bd
00000340: d63b 063e 05ae 96bc e5fb 763e 0bb5 d13d
00000350: c173 f43d 0f30 fe3d a31e 753d c039 363d
00000360: 135a 803e 8885 4a3d 166d cb3d a571 673e
00000370: 94ba 96ba 6945 52bd 62bf bb3d 14cb a83d
00000380: 4e81 103d 4eae 18be 269a bf3b c163 adbd
00000390: 5487 163e ebcf efbc 4d04 143e 8d05 8dbd
000003a0: e709 d7bd 5dbe fbbb cc55 d5bd 5f42 18bd
000003b0: fae5 e5bd f96f 863d 3574 bcb8 55b9 04be
000003c0: 152f 863d b0cf e2bd a2dd 0d3e b42d 903c
000003d0: 931c d93d ec3c 4cbd 2e8e ec3d ea69 52be
000003e0: de5b 24bc 1c14 863d 5af9 81bd 40a5 cbbd
000003f0: 6dc5 2b3d d63c 3dbe 294e 17be 695e 50be

neighbor_encoder_2.bias f4 [16]
-0.18856096 -0.05940956 -0.24477318 0.14746757 0.21210504 -0.054183982 0.28422606 0.021081883
0.047555845 -0.04696072 -0.24178097 -0.040286724 0.105624236 0.09785191 0.08563565 0.02066996
00000000: 2016 41be 7057 73bd d2a5 7abe bd01 173e
00000010: 1032 593e 06f0 5dbd 1486 913e eab3 ac3c
00000020: ebc9 423d e259 40bd 6e95 77be b103 25bd
00000030: 8551 d83d 9566 c83d be61 af3d 0c54 a93c

linear1.weight f4 [64, 32]
-0.1525374 0.16259006 -0.27756876 -0.032904558 -0.19391248 -0.12452559 -0.10646932 0.23508705
0.082126185 0.018918695 -0.04952005 -0.039046142 0.13907553 -0.18166025 0.031227965 -0.035585113
-0.23021689 -0.030931035 0.07889289 -0.00028063462 0.042432703 -0.054920938 -0.08372417 0.14802958
-0.08069913 -0.10900028 -0.20379873 0.043099567 0.03629977 0.13056299 -0.14754477 0.17146087
0.24455403 -0.12264634 -0.11257315 0.14567453 -0.09008651 0.06785363 0.037249103 -0.045068007
-0.003815409 -0.037041493 -0.23984177 -0.10495872 -0.12800917 -0.016724097 -0.11339625 0.20173201
-0.15992437 0.052830726 -0.061366383 0.19235149 0.15964535 0.09850412 -0.09728104 -0.08754455
0.07091979 -0.029883996 -0.15417148 0.115140036 -0.1049885 0.0061788415 -0.112951376 0.02379904
0.21734272 0.10538912 0.1712306 -0.19110724 -0.048426375 0.028080123 -0.0673994 0.014751428
-0.14191246 -0.021521848 -0.060455315 0.10739631 -0.13809162 -0.15434507 0.031277526 0.18594828
-0.13786839 -0.045863595 0.1322349 0.072781324 0.113168314 0.14150684 -0.1129083 -0.0757218
0.11094311 0.07254009 -0.1178584 0.15219706 0.098208554 -0.04749573 0.010616476 -0.11237541
-0.04750135 0.119658634 0.028628904 0.16370909 -0.17167923 0.11181834 -0.11542067 0.07049027
0.039601415 -0.08878684 -0.12971964 -0.15801595 0.010396947 -0.20035784 -0.19508007 0.15722655
-0.25294265 -0.18899606 -0.13099049 0.193094 0.17421913 -0.04616867 0.023476843 -0.14911065
0.11685676 -0.13329014 -0.12198138 0.18164487 0.22079375 0.23931684 0.15843327 0.22029006
0.21877544 0.062097184 0.2045906 0.02256222 0.085130684 0.17369753 -0.20989867 0.052958634
-0.08423862 0.103030816 -0.15928797 -0.0356027 -0.122716896 -0.2410209 -0.23005594 0.06800193
-0.15793507 -0.06338685 0.00930544 0.04092761 -0.014634071 -0.0074690036 0.031447172 0.11978421
-0.0086459275 -0.032307215 -0.21738657 -0.057627305 -0.062047184 0.23545924 -0.14582574 -0.03847501
-0.02721936 -0.09705174 -0.037075374 0.0036572926 0.2496203 -0.23284034 0.10104685 -0.08857795
0.08848581 -0.029158644 0.10009776 -0.07308912 0.23232922 -0.13472822 -0.05756655 0.062113523
-0.1986094 -0.0056543904 0.09443638 0.14641036 0.03885917 0.08676427 0.068762645 -0.09921028
-0.03309641 -0.14627899 -0.21892527 -0.08740319 -0.093914814 0.2375707 -0.01367015 0.13126613
0.21539341 -0.028404346 0.21069762 0.07289359 0.06401851 0.13714734 0.13909397 -0.08251592
-0.17040516 0.11588096 -0.08131885 -0.04279856 0.020848671 0.032967366 0.115901604 0.16726531
-0.16210839 0.047592264 -0.020314036 -0.024974052 -0.12494524 0.051766727 -0.07669104 0.049870536
-0.12134878 0.090724945 -0.13083287 -0.0325111 0.0025262414 -0.0046404437 -0.037465308 0.16065723
0.22074442 -0.1668018 0.21260245 -0.010185224 0.020074269 -0.08928074 -0.00020517096 -0.049602915
-0.04145801 0.12449637 0.058130547 -0.18691756 -0.033203304 -0.25500256 0.1289434 0.19994375
-0.19246404 -0.13589828 -0.024535503 0.17652507 0.07377932 0.102623895 0.0935455 -0.0035315775
0.23150362 -0.026373029 -0.02118829 0.21108244 0.048208192 -0.023687687 -0.13609031 0.07841686
00000000: c432 1cbe 027e 263e 7e1d 8ebe eec6 06bd
00000010: fe90 46be 4607 ffbd 960c dabd a9ba 703e
00000020: c631 a83d 61fb 9a3c 89d5 4abd d9ee 1fbd
00000030: d169 0e3e 2505 3abe cad1 ff3c b2c1 11bd
00000040: fabd 6bbe 1563 fdbc 9892 a13d 2422 93b9
00000050: eacd 2d3d c7f4 60bd 9477 abbd 1195 173e
00000060: 9645 a5bd 8a3b dfbd 9db0 50be 2c89 303d
00000070: 11af 143d 4eb2 053e fa15 17be 7093 2f3e
00000080: 5f6c 7a3e 012e fbbd c08c e6bd b42b 153e
00000090: 477f b8bd d8f6 8a3d 8492 183d 3b99 38bd
000000a0: f10b 7abb d2b8 17bd 1599 75be 99f4 d6bd
000000b0: d614 03be f900 89bc 4b3c e8bd d692 4e3e
000000c0: 37c3 23be 0865 583d 515b 7bbd caf7 443e
000000d0: 127a 233e 87bc c93d 483b c7bd 8f4a b3bd
000000e0: 653e 913d 48cf f4bc 21df 1dbe 8ace eb3d
000000f0: 3604 d7bd e177 ca3b 0d53 e7bd 34f6 c23c
00000100: 178f 5e3e 40d6 d73d 1357 2f3e 9eb1 43be
00000110: bc5a 46bd 4908 e63c b208 8abd f9af 713c
00000120: 8051 11be 964e b0bc fe9f 77bd 99f2 db3d
00000130: e467 0dbe a20c 1ebe dd1c 003d 3a69 3e3e
00000140: 5f2d 0dbe 77db 3bbd 9668 073e 600e 953d
00000150: cac4 e73d 2be7 103e 773c e7bd 0814 9bbd
00000160: 2436 e33d e68f 943d bf5f f1bd 8cd9 1b3e
00000170: 9121 c93d e28a 42bd baf0 2d3c 1425 e6bd
00000180: c790 42bd 960f f53d 2a87 ea3c 5ba3 273e
00000190: aecc 2fbe 0401 e53d ac61 ecbd 345d 903d
000001a0: 1835 223d e0d5 b5bd 3ad5 04be efce 21be
000001b0: f557 2a3c 9b2a 4dbe 12c3 47be ffff 203e
000001c0: b381 81be 2f88 41be 5f22 06be 6fba 453e
000001d0: 8066 323e 5c1b 3dbd 8252 c03c 76b0 18be
000001e0: 9952 ef3d 367d 08be 60d1 f9bd 1d01 3a3e
000001f0: c217 623e 790f 753e 553c 223e b893 613e
00000200: ab06 603e 9e59 7e3d 3380 513e 68d4 b83c
00000210: ff58 ae3d c4dd 313e adef 56be 27eb 583d
00000220: 4c85 acbd d201 d33d 631c 23be 23d4 11bd
00000230: ff52 fbbd 2fce 76be c993 6bbe 9944 8b3d
00000240: bbb9 21be f7d0 81bd d875 183c b6a3 273d
00000250: bec3 6fbc 8bbe f4bb c0ce 003d 6d51 f53d
00000260: a6a7 0dbc 9254 04bd 969a 5ebe 9c0a 6cbd
00000270: 3025 7ebd 3a1c 713e 5853 15be f997 1dbd
00000280: 23fb debc 10c3 c6bd 59dc 17bd 30af 6f3b
00000290: 779c 7f3e b36d 6ebe a7f1 ce3d 5b68 b5bd
000002a0: 0c38 b53d 1cde eebc 0e00 cd3d c0af 95bd
000002b0: b6e7 6d3e 32f6 09be e7ca 6bbd c06a 7e3d
000002c0: 4360 4bbe 7748 b9bb dc67 c13d 99ec 153e
000002d0: cb2a 1f3d 77b1 b13d 6ed3 8c3d c22e cbbd
000002e0: 1a90 07bd 29ca 15be f22d 60be 7200 b3bd
000002f0: 6956 c0bd bc45 733e c4f8 5fbc a16a 063e
00000300: 1790 5c3e 3bb0 e8bc 1ec1 573e 3c49 953d
00000310: 231c 833d 5a70 0c3e a66e 0e3e 1bfe a8bd
00000320: b17e 2ebe ff52 ed3d 7f8a a6bd 8b4d 2fbd
00000330: d5ca aa3c ca08 073d d25d ed3d 9947 2b3e
00000340: beff 25be 1bf0 423d 9f69 a6bc 6296 ccbc
00000350: 4ae3 ffbd 5909 543d 3110 9dbd 0c45 4c3d
00000360: b685 f8bd 00ce b93d 0df9 05be 5c2a 05bd
00000370: 4c8f 253b dd0e 98bb 3975 19bd 5483 243e
00000380: d30a 623e 17ce 2abe 75b4 593e eddf 26bc
00000390: cb72 a43c d2d8 b6bd 2923 57b9 6d2c 4bbd
000003a0: e0cf 29bd f4f7 fe3d 4c1a 6e3d 5167 3fbe
000003b0: 3000 08bd b28f 82be bd09 043e 0ebe 4c3e
000003c0: 4b15 45be eb28 0bbe aefe c8bc fdc2 343e
000003d0: 9d19 973d 7a2c d23d c894 bf3d 0a72 67bb
000003e0: 490f 6d3e 400c d8bc 1193 adbc ff25 583e
000003f0: f475 453d ae0c c2bc 425b 0bbe 0599 a03d

linear1.bias f4 [64]
-0.028622525 0.097118825 -0.024619423 0.14270365 0.0507849 0.153965 -0.023963468 0.07270614
0.1260443 0.14227854 -0.09285934 0.13191088 0.20310484 0.11292283 0.22625038 -0.12315882
0.05576425 0.24248628 -0.049297225 -0.09112292 -0.044806227 -0.146481 -0.037350908 -0.015639758
-0.08698834 0.13999598 -0.055600077 0.074114144 0.047640312 0.17296846 0.15763526 0.08644267
0.12265807 0.054411296 0.0070585804 0.036940236 0.11379443 0.052328344 0.053689215 -0.052228924
0.08870495 0.14368038 0.24603786 0.14634621 0.0027010425 -0.0973516 -0.069362074 -0.07869732
0.03149153 -0.040442828 0.13228813 0.069100164 -0.024725007 0.0053724754 -0.016439686 0.04704022
-0.18850584 0.16074076 0.22990128 0.04664047 0.07869925 -0.0190267 -0.064290024 0.13037254
00000000: c979 eabc 3ce6 c63d acae c9bc e820 123e
00000010: d403 503d 00a9 1d3e 094f c4bc f5e6 943d
00000020: c211 013e 77b1 113e 0a2d bebd a513 073e
00000030: b7fa 4f3e 1644 e73d 2eae 673e b13a fcbd
00000040: 0e69 643d 534e 783e e3eb 49bd a79e babd
00000050: bc86 37bd 1eff 15be 44fd 18bd f31e 80bc
00000060: f126 b2bd 1b5b 0f3e e8bc 63bd 28c9 973d
00000070: 7d22 433d a51e 313e 236b 213e db08 b13d
00000080: 2734 fb3d 61de 5e3d aa4b e73b a54e 173d
00000090: 0e0d e93d 3f56 563d 39e9 5b3d ffed 55bd
000000a0: f1aa b53d f320 133e 59f1 7b3e c8db 153e
000000b0: f903 313b 4760 c7bd b40d 8ebd 0f2c a1bd
000000c0: 43fd 003d 61a7 25bd 8a76 073e 6384 8d3d
000000d0: 198c cabc 970b b03b 85ac 86bc 3fad 403d
000000e0: ad07 41be 3a99 243e 3e6b 6b3e 140a 3f3d
000000f0: 132d a13d e2dd 9bbc 7daa 83bd 6180 053e

linear2.weight f4 [16, 64]
0.02954396 -0.105850525 -0.14007398 -0.016537786 -0.1500975 0.09027916 0.024359487 0.19323155
0.038470533 -0.07237088 -0.024433099 -0.00042567804 0.15650702 0.021014638 -0.04742333 0.050610084
-0.02348973 0.028560948 0.18259445 0.16083528 0.115312465 -0.042131737 0.10695562 0.07148891
-0.04272519 0.14897247 0.021192323 -0.039165396 -0.028534437 0.14938265 0.06937908 -0.06484917
0.030320834 0.17480308 -0.016264072 0.06263613 -0.13555537 0.082230344 0.094918914 -0.05785463
0.19589327 0.030711152 0.011032522 0.02985414 0.18285868 0.13778338 -0.05737493 0.107999206
-0.001071658 0.09006476 -0.033256862 0.015313161 0.00021994452 0.16331933 -0.083147176 0.11362307
-0.022710128 0.033829074 0.055080295 0.17809083 -0.16097572 -0.111631624 0.062113494 -0.05794641
-0.10466897 -0.010562498 0.07713872 -0.12196944 0.104095265 0.06761302 -0.031519152 -0.03281185
0.001749774 -0.06082267 0.005999075 -0.11422074 0.05963987 -0.08197048 0.09615285 0.055711504
-0.042132646 -0.095914416 -0.07945588 -0.07871082 0.11246983 -0.036835212 -0.08563994 0.07535801
-0.06418944 -0.057294775 0.017516075 0.084246665 -0.08789749 -0.028774979 0.0014160651 -0.026057346
-0.12070655 -0.06738206 -0.026318118 -0.068902 0.0042854194 0.036611695 -0.064602956 0.0522935
0.1116279 0.11829998 0.058870587 0.023557642 -0.03429267 0.056441672 -0.022305928 0.08139678
0.02508317 -0.055869833 0.10607715 -0.07017234 -0.10140185 -0.12202159 -0.06746402 0.005528518
-0.021932464 -0.11153104 -0.049793806 -0.027602429 -0.036082692 -0.0038946667 0.021314058 -0.104985625
0.049934164 0.08586429 0.1186236 0.12015996 0.078667246 -0.077919744 0.061423488 0.19229896
-0.084086716 0.040563777 0.12244531 0.11289045 0.091932155 -0.01393443 0.18310529 0.0073651574
0.05476414 0.030509118 -0.045329023 -0.059941646 0.14479837 0.008680559 -0.036148872 -0.089754105
0.10909635 -0.05789391 -0.052581467 0.104831114 0.12715968 -0.11455385 0.11399376 0.024403714
0.14403598 -0.04334206 -0.06538325 0.038264945 0.055472013 -0.07144431 0.1859601 -0.024784945
-0.11204749 0.1952423 0.15501307 0.15209211 0.0676109 0.02114145 0.12008346 0.06263251
-0.12692873 0.06443897 0.117689595 -0.00337628 0.21150573 -0.19206777 0.16400997 0.10355826
0.073715135 0.02148681 0.1029791 -0.15808952 0.20712917 0.023106877 0.029697001 0.082506135
-0.004699311 0.20662493 0.03517864 0.11957611 0.15454635 0.02314505 0.0030061423 0.20225468
-0.13712233 0.036564894 0.022093583 0.025059817 -0.091667175 -0.056730714 0.16164994 -0.04402049
0.14325891 0.15711091 0.01861766 -0.10857406 -0.027072834 -0.043330338 -0.017891852 -0.15991761
0.17746976 0.027922804 -0.10599735 0.05510158 0.15004955 -0.1507458 -0.034675706 -0.026935404
-0.031140856 0.11601046 -0.079327755 0.10418443 0.1761084 -0.074945435 0.011828236 0.058597285
-0.049669478 0.17383358 0.15176494 0.15111557 0.09735666 -0.033616483 0.18236662 0.17506167
-0.005814578 0.17968188 0.16733883 -0.066500776 0.086832985 -0.19259268 0.12900758 0.0008696461
-0.10094736 0.0606911 0.14682285 -0.10872391 0.14176485 -0.0023521439 -0.043017413 -0.0010136168
00000000: 2d06 f23c 29c8 d8bd 8e6f 0fbe 407a 87bc
00000010: 29b3 19be 48e4 b83d 8c8d c73c 7ede 453e
00000020: 4793 1d3d 2f37 94bd ec27 c8bc 8a2d dfb9
00000030: 6043 203e e426 ac3c f73e 42bd 854c 4f3d
00000040: 896d c0bc a6f8 e93c 0afa 3a3e 01b2 243e
00000050: f128 ec3d 5492 2cbd 8c0b db3d c768 923d
00000060: 9c00 2fbd 3d8c 183e 869b ad3c e56b 20bd
00000070: 0dc1 e9bc c4f7 183e 9e16 8e3d a4cf 84bd
00000080: 6663 f83c 94ff 323e 3b3c 85bc 5f47 803d
00000090: 07cf 0abe 6268 a83d d964 c23d faf8 6cbd
000000a0: 3f98 483e f495 fb3c c0c1 343c ab90 f43c
000000b0: 4e3f 3b3e 1617 0d3e f901 6bbd b02e dd3d
000000c0: e076 8cba df73 b83d 5938 08bd 0de4 7a3c
000000d0: e8a0 6639 2f3d 273e 1149 aabd 36b3 e83d
000000e0: 970a babc 5b90 0a3d e09b 613d 715d 363e
000000f0: d2d6 24be 1f9f e4bd b86a 7e3d 3759 6dbd
00000100: af5c d6bd 540e 2dbc e8fa 9d3d 1dcb f9bd
00000110: e62f d53d b278 8a3d 3a1a 01bd b865 06bd
00000120: ac58 e53a 3121 79bd e393 c43b 90ec e9bd
00000130: f048 743d 24e0 a7bd c9eb c43d bf31 643d
00000140: 4893 2cbd c76e c4bd c4b9 a2bd 2333 a1bd
00000150: 9556 e63d 85e0 16bd fe63 afbd 4d55 9a3d
00000160: c175 83bd edad 6abd df7d 8f3c 8489 ac3d
00000170: 9903 b4bd 81b9 ebbc 439b b93a 3776 d5bc
00000180: ff34 f7bd 9bff 89bd 1899 d7bc 7e1c 8dbd
00000190: b46c 8c3b 25f6 153d 8e4e 84bd b631 563d
000001a0: 2b9d e43d 4347 f23d 4922 713d f5fb c03c
000001b0: 7976 0cbd 622f 673d ecba b6bc 5bb3 a63d
000001c0: 387b cd3c c4d7 64bd fa3e d93d 84b6 8fbd
000001d0: c6ab cfbd 75e6 f9bd 932a 8abd 9228 b53b
000001e0: b6ab b3bc 636a e4bd 97f4 4bbd 7d1e e2bc
000001f0: 72cb 13bd aa3d 7fbb d29a ae3c b402 d7bd
00000200: c487 4c3d 9ed9 af3d eef0 f23d 6d16 f63d
00000210: 4b1c a13d 6394 9fbd 3297 7b3d 05ea 443e
00000220: a835 acbd 3426 263d 9bc4 fa3d 1c33 e73d
00000230: ed46 bc3d 3c4d 64bc f47f 3b3e 6b57 f13b
00000240: 5d50 603d 42ee f93c edaa 39bd 5f85 75bd
00000250: 0646 143e e738 0e3c d710 14bd 00d1 b7bd
00000260: e86d df3d 2a22 6dbd aa5f 57bd b2b1 d63d
00000270: 2636 023e 359b eabd 8f75 e93d 4cea c73c
00000280: 2b7e 133e 7287 31bd a7e7 85bd b4bb 1c3d
00000290: 9f36 633d 6551 92bd 536c 3e3e cc09 cbbc
000002a0: 2879 e5bd 99ed 473e bfbb 1e3e 09be 1b3e
000002b0: 9577 8a3d d630 ad3c 51ee f53d 7945 803d
000002c0: 9bf9 01be 94f8 833d 3e07 f13d 9444 5dbb
000002d0: f594 583e 6aad 44be 3bf2 273e 5a16 d43d
000002e0: f6f7 963d 1b05 b03c b5e6 d23d 38e2 21be
000002f0: ab19 543e a24a bd3c 2047 f33c faf8 a83d
00000300: aefc 99bb 7c95 533e 7a17 103d 52e4 f43d
00000310: 6641 1e3e b09a bd3c b302 453b da1b 4f3e
00000320: cc69 0cbe 12c5 153d 9afd b43c 3f4a cd3c
00000330: 00bc bbbd 775e 68bd 9087 253e d44e 34bd
00000340: 77b2 123e afe1 203e 1084 983c 145c debd
00000350: d9c7 ddbc 277b 31bd ef91 92bc 71c1 23be
00000360: a2ba 353e 5dbe e43c 2315 d9bd 32b2 613d
00000370: 97a6 193e 1b5d 1abe 1d08 0ebd a3a7 dcbc
00000380: 1c1b ffbc e496 ed3d 9776 a2bd a55e d53d
00000390: c355 343e fe7c 99bd 38cb 413c b503 703d
000003a0: 3972 4bbd 6e01 323e 4568 1b3e 0abe 1a3e
000003b0: ee62 c73d 70b1 09bd 51be 3a3e 5e43 333e
000003c0: 3788 bebb 87fe 373e df5a 2b3e 8f31 88bd
000003d0: 7ed5 b13d 0437 45be 901a 043e f6f8 633a
000003e0: 7dbd cebd 3b97 783d bb58 163e a4aa debd
000003f0: ce2a 113e 6d26 1abb 0733 30bd 56db 84ba

linear2.bias f4 [16]
0.12978779 -0.071885996 0.16341418 0.095512435 -0.036408663 0.08199411 0.005975532 -0.020766294
-0.037957568 -0.036572233 0.06359166 -0.04086448 -0.0057181553 0.06673722 -0.036436602 -0.01949837
00000000: 17e7 043e f738 93bd 0c56 273e 069c c33d
00000010: 4021 15bd 87ec a73d 65ce c33b 131e aabc
00000020: 6579 1bbd c4cc 15bd 583c 823d 8361 27bd
00000030: 5d5f bbbb 86ad 883d 8c3e 15bd 0cbb 9fbc

linear3.weight f4 [2, 16]
0.29484844 -0.19898893 -0.1463527 -0.2587955 -0.19230022 0.3016048 0.01815689 -0.25626525
0.26756608 -0.20572415 -0.29747704 0.24871556 -0.2285636 -0.21078521 -0.24469885 0.12445162
0.13293755 0.19297625 -0.361944 -0.35177425 0.29678658 -0.05762796 0.3325844 0.22789048
0.17867911 -0.16654831 0.044311006 -0.039002202 -0.03632383 0.13521817 -0.08508487 0.3100551
00000000: 60f6 963e c1c3 4bbe 7bdd 15be d880 84be
00000010: 59ea 44be f26b 9a3e c2bd 943c 3335 83be
00000020: 6cfe 883e 5aa9 52be e94e 98be 4baf 7e3e
00000030: 940c 6abe 14d8 57be 5692 7abe 7ee0 fe3d
00000040: c820 083e 919b 453e b950 b9be c11b b4be
00000050: 69f4 973e 4c0b 6cbd 8148 aa3e 1f5c 693e
00000060: a8f7 363e a48b 2abe 757f 353d c6c0 1fbd
00000070: 4cc8 14bd a276 0a3e fa40 aebd 8bbf 9e3e

linear3.bias f4 [2]
-0.05171041 -0.022959659
00000000: 4bce 53bd e515 bcbc
