gym_pybullet_drones/examples/models/actor_gnn_32drones.pkl (torch, 23986 bytes, 14 tensors)

self_encoder_1.weight f4 [32, 8]
0	0x3e22cbd7	0.15898071
1	0xbe8f53d6	-0.2799365
2	0x3f221298	0.6330962
3	0xbe73c81b	-0.23806803
4	0xbe968fec	-0.2940668
5	0x3de21403	0.11038973
6	0xbd0e5ab2	-0.034754463
7	0x3d641046	0.055679582
8	0xbe979d9d	-0.29612437
9	0x3df36161	0.11883808
10	0xbed5e488	-0.41775918
11	0xbf01c0a7	-0.5068459
12	0xbdb5c06e	-0.08874594
13	0x3dee00d2	0.1162125
14	0xbd0e4e37	-0.03474256
15	0x3e050ffd	0.1299438
16	0x3e808ad4	0.25105917
17	0xbe8104c5	-0.2519895
18	0x3e0765f6	0.13222489
19	0xbe9ac401	-0.30227664
20	0x3d15571e	0.036460035
21	0x3e23675e	0.159574
22	0x3e2037f7	0.15646349
23	0xbe5e4a6c	-0.21708077
24	0x3e1e7212	0.15473202
25	0x3de83d14	0.11339775
26	0xbe21da51	-0.15805937
27	0x3eef24c1	0.46707729
28	0xbd96f082	-0.07370092
29	0x3e04afce	0.12957689
30	0x3d62f640	0.055410624
31	0xbc2bf988	-0.010496505
32	0x3e1442b2	0.14478567
33	0x3ddc0696	0.10743444
34	0x3cb5abfe	0.022176739
35	0x3e7bdd70	0.2459619
36	0x3ea004a4	0.3125354
37	0xbe804e38	-0.25059676
38	0x3e8105bc	0.25199687
39	0xbd29c889	-0.04145101
40	0xbebfd6c6	-0.37468547
41	0x3ec00865	0.37506405
42	0xbe48b3a2	-0.19599774
43	0x3ee57748	0.44817567
44	0xbd62cda0	-0.05537188
45	0xbe71c915	-0.23611863
46	0xbe6d7f33	-0.23193054
47	0x3ea52fae	0.3226294
48	0x3ea13624	0.3148662
49	0xbe0140ab	-0.12622325
50	0x3ee378e9	0.44428185
51	0x3f09d059	0.5383354
52	0x3dc17919	0.09446926
53	0xbdfd9d14	-0.12383476
54	0x3d15cf7e	0.036574833
55	0xbe0e029a	-0.1386818
56	0x3e9ddb35	0.30831304
57	0xbe20ec04	-0.15715033
58	0xbe4c5ec7	-0.1995803
59	0x3e8b0050	0.27148676
60	0x3e06d77f	0.13168143
61	0xbe275311	-0.16340281
62	0x3e0b17cb	0.13583295
63	0xbeb9552c	-0.36197793
64	0xbe47e61c	-0.19521374
65	0x3e96b153	0.29432163
66	0xbf14b5a0	-0.5808964
67	0x3f057961	0.52138335
68	0x3e2a76f1	0.16646935
69	0xbe938c18	-0.2881782
70	0x3e684cae	0.22685501
71	0xbb93427c	-0.0044940095
72	0xbd7f9128	-0.06239429
73	0x3e350135	0.17676242
74	0xbd441932	-0.04787559
75	0x3f307307	0.6892552
76	0x3c021be2	0.007941218
77	0xbe4bf1b5	-0.19916423
78	0xbd847719	-0.064680286
79	0x3d86fe2b	0.065914474
80	0xbcb36a51	-0.021901282
81	0xbe7134e9	-0.2355534
82	0xbedb7442	-0.42862135
83	0xbec0783a	-0.37591726
84	0x3e532d8a	0.2062284
85	0x3d0a5dd1	0.033780877
86	0x3df37585	0.118876494
87	0x3da49d09	0.080377646
88	0xbe317c88	-0.17332661
89	0xbe0499fd	-0.12949367
90	0xbcd47b30	-0.025937647
91	0xbe99578b	-0.29949602
92	0xbebf125c	-0.37318695
93	0x3e99535d	0.29946414
94	0xbe9a6f86	-0.3016321
95	0x3d4ae7a0	0.0495373
96	0xbeb9097d	-0.3614005
97	0xbe067a0e	-0.13132498
98	0xbf0f653b	-0.5601384
99	0x3ec8e35f	0.3923597
100	0xbe72151c	-0.23640865
101	0xbe70c6a3	-0.23513274
102	0xbe7d910d	-0.24762364
103	0xbd03e8e0	-0.03220451
104	0x3d705e78	0.058683842
105	0x3cdf886e	0.027286734
106	0x3e958154	0.29200232
107	0x3e47207f	0.1944599
108	0xbe91969c	-0.28435218
109	0xbe9e79c2	-0.3095227
110	0x3e0c5a52	0.1370633
111	0xbdd43824	-0.103622705
112	0xbe40ed5b	-0.18840544
113	0xbe5f953e	-0.21834275
114	0x3d93d521	0.072183855
115	0x3db49b50	0.08818686
116	0x3e86e685	0.26347747
117	0x3e42f1cd	0.19037552
118	0x3c38a46e	0.011269672
119	0x3d90aac8	0.07063824
120	0xbe08481e	-0.1330876
121	0xbdc69f7c	-0.09698388
122	0x3e0c247a	0.1368579
123	0xbece2414	-0.402619
124	0x3d81e1c9	0.06341893
125	0xbde32d18	-0.11092585
126	0xbd45ea75	-0.0483193
127	0x3c17c7f6	0.009263983
128	0x3cf514f5	0.02991722
129	0x3ea20373	0.31643257
130	0x3f138cf5	0.5763696
131	0x3f0071bc	0.50173545
132	0xbe8ddc41	-0.27707103
133	0xbd3aa29b	-0.04556523
134	0xbe0f5ecf	-0.1400101
135	0xbdd49169	-0.10379297
136	0x3df58def	0.11989962
137	0xbe37dcbb	-0.17955296
138	0x3eb8b899	0.36078337
139	0xbe9ba9a4	-0.30402863
140	0xbdd2538e	-0.10269843
141	0x3e34b846	0.1764842
142	0xbe16bd82	-0.14720729
143	0x3b3ff1fc	0.002928852
144	0x3e8ea7c2	0.27862364
145	0xbd1c9617	-0.038229074
146	0x3ee70949	0.45124272
147	0x3e2d666f	0.16933607
148	0xbe853962	-0.26020342
149	0x3e5d5256	0.2161344
150	0x3e33ffdc	0.17578071
151	0x3d9362ba	0.07196565
152	0x3d41a95c	0.047280654
153	0xbe0a2495	-0.13490517
154	0x3d1126f9	0.035437558
155	0xbf0655a5	-0.52474433
156	0xbbd85bb3	-0.0066027283
157	0x3e1b7dd8	0.15184724
158	0x3d45e0a8	0.048309952
159	0xbd4d153a	-0.05006907
160	0x3e0a13ea	0.13484159
161	0x3e9a2dd6	0.30113095
162	0x3f00d3cc	0.50323176
163	0x3c264afc	0.010149714
164	0xbec42cc5	-0.38315406
165	0xbe7fd3ca	-0.24983135
166	0xbd156c89	-0.03648046
167	0x3e3c9c6e	0.18419048
168	0xbe13e196	-0.14441523
169	0x3e7edea8	0.24889624
170	0xbf0268d6	-0.50941217
171	0x3e4c64cf	0.1996033
172	0x3e85d13a	0.2613619
173	0xbdca7918	-0.09886378
174	0x3d3bafc9	0.04582194
175	0xbd6ca1eb	-0.057771605
176	0x3deddfd0	0.116149545
177	0xbe373e46	-0.17894849
178	0x3eae4de3	0.34043798
179	0xbeb70aa7	-0.35750315
180	0xbdccc44e	-0.0999838
181	0x3e346dec	0.17620057
182	0xbdeb5a83	-0.11491873
183	0x3b60371d	0.0034212538
184	0xbd9428ab	-0.07234319
185	0xbd08a27f	-0.033358093
186	0xbeb8d58e	-0.3610043
187	0xbe752781	-0.23940851
188	0x3eb41476	0.3517186
189	0x3ec406d0	0.38286448
190	0xbe2cfb6a	-0.16892782
191	0x3e03f87c	0.12887758
192	0xbe1f9935	-0.15585788
193	0xbeb33dc2	-0.35008055
194	0xbf1559e8	-0.5834031
195	0xbc3dbfcf	-0.011581375
196	0x3ee4056c	0.44535387
197	0x3e944d89	0.28965405
198	0x3d2f38ac	0.042778656
199	0xbe5aece5	-0.2137943
200	0xbe8c4e32	-0.27403408
201	0x3d1962c4	0.037447706
202	0xbee61ba5	-0.44942966
203	0xbe26ad06	-0.1627694
204	0x3e822bf7	0.25424168
205	0xbe59520a	-0.21222702
206	0xbe2dcd8e	-0.16972944
207	0xbd8d2ee0	-0.06893706
208	0x3e62dbdc	0.22154182
209	0x3da68008	0.08129889
210	0x3eb04d1c	0.3443383
211	0xbe786396	-0.24256739
212	0x3e142575	0.14467414
213	0x3e14ebef	0.14543127
214	0x3e228218	0.1586994
215	0x3ce4d035	0.027931312
216	0xbe300962	-0.1719108
217	0x3e9c2317	0.3049552
218	0xbf328c3c	-0.6974523
219	0x3e8528ff	0.2600784
220	0x3ea3bd95	0.31980577
221	0xbdf3ea16	-0.11909883
222	0x3d144975	0.036202867
223	0xbd703a74	-0.058649495
224	0xbdda2f83	-0.106535934
225	0x3e625679	0.22103299
226	0x3e97e56a	0.29667217
227	0x3ed7c3a3	0.42141446
228	0x3da3bda5	0.07995156
229	0xbe124be1	-0.14286758
230	0x3e1b47b6	0.15164074
231	0x3da48ce2	0.08034684
232	0xbcdf272c	-0.027240358
233	0xbe98a254	-0.29811347
234	0xbf0b04dd	-0.54304296
235	0xbeeb726d	-0.45985737
236	0x3e863a45	0.2621633
237	0x3d2b4755	0.041816074
238	0x3d9a5198	0.07535094
239	0x3da7f68e	0.082013234
240	0x3d82c245	0.0638471
241	0xbe3b14c3	-0.18269639
242	0x3d806cdb	0.062707625
243	0xbf364251	-0.7119494
244	0xbc57bf10	-0.013168111
245	0x3e5182cb	0.2046005
246	0x3d87f605	0.066387214
247	0xbd6d0e00	-0.05787468
248	0x3ec1eab0	0.37874365
249	0x3e0dfcd7	0.13865982
250	0x3f16a660	0.5884762
251	0xbed12426	-0.40847892
252	0x3e7d914c	0.24762458
253	0x3e7c9500	0.24666214
254	0x3e799083	0.24371533
255	0x3c873f49	0.016509669

self_encoder_1.bias f4 [32]
0	0xbd99567b	-0.07487198
1	0xbd819290	-0.06326783
2	0xbda51cba	-0.0806212
3	0xbe489e89	-0.19591726
4	0x3dc8395d	0.09776566
5	0x3e1df953	0.15427141
6	0x3d8e4cd3	0.06948247
7	0x3c90a847	0.017658366
8	0x3dcb830c	0.099371046
9	0xbdcd763c	-0.10032317
10	0xbbfe5944	-0.007762106
11	0xbdcc404a	-0.099732
12	0x3d676694	0.05649431
13	0xbd03c235	-0.032167632
14	0x3ee688d0	0.45026255
15	0x3e301fca	0.17199627
16	0x3cb9288b	0.02260234
17	0xbdfcd4e7	-0.123452954
18	0x3c21eccd	0.009883118
19	0x3d025c0a	0.031826057
20	0xbbd7b453	-0.0065827756
21	0xbe741bda	-0.2383875
22	0x3d82ec37	0.06392711
23	0x3d2835bb	0.041066866
24	0x3c136760	0.0089968145
25	0x3d907344	0.07053235
26	0xbdc7c468	-0.097542584
27	0x3e0c9dba	0.13732043
28	0x3ea91865	0.33026424
29	0xbd3c0681	-0.04590464
30	0x3e336adb	0.17521231
31	0x3d9b8627	0.07593947

self_encoder_2.weight f4 [16, 32]
0	0xbe40742b	-0.18794315
1	0xbe2c1c1c	-0.16807598
2	0xbe3d1dd9	-0.18468417
3	0x3e6bfbef	0.23045324
4	0xbd6b3e7b	-0.057432633
5	0x3e398587	0.18117343
6	0x3e74ab6d	0.23893519
7	0xbd0867d3	-0.03330214
8	0xbcc4b8ad	-0.024013842
9	0x3e6bc3ab	0.2302386
10	0xbe4889b8	-0.19583786
11	0xbd04c9db	-0.032419067
12	0xbe00297a	-0.12515822
13	0x3e1a56ac	0.15072125
14	0x3d978d87	0.07400041
15	0xbe577a52	-0.21042755
16	0x3e5da936	0.2164658
17	0xbc5a32de	-0.013317792
18	0xbe15b8f9	-0.14621343
19	0xbe9b96f9	-0.3038862
20	0x3def69a9	0.11690075
21	0xbde3e666	-0.111279294
22	0x3d2a1e6a	0.04153291
23	0x3df3709e	0.118867144
24	0xbd1d4c3d	-0.038402785
25	0xbd5aa5e4	-0.053380862
26	0xbd2ae6aa	-0.041723885
27	0x3d95554e	0.07291661
28	0xbe0fb164	-0.14032513
29	0xbd1e123d	-0.038591612
30	0x3da2bcb9	0.07946152
31	0xbd5fa0ef	-0.054596838
32	0x3e80175c	0.25017822
33	0x3e019fa4	0.12658554
34	0x3e445d83	0.19176297
35	0xbe0dc54d	-0.13844796
36	0xbdb0e72a	-0.08637841
37	0xbdba1d19	-0.09087581
38	0xbdafb447	-0.08579307
39	0xbdb1646c	-0.08661732
40	0x3d27b4fa	0.040944077
41	0xbe2ce0e5	-0.16882665
42	0x3dc96298	0.098332584
43	0x3e432eee	0.19060871
44	0xbdd04681	-0.101696976
45	0xbdb0fe9b	-0.08642312
46	0x3df37b12	0.11888708
47	0x3d6b4516	0.057438932
48	0x3de2a57d	0.11066721
49	0xbd8a1d53	-0.067438744
50	0xbbc6916f	-0.0060598175
51	0x3d84c5c2	0.06483032
52	0xbdc90ee8	-0.09817296
53	0x3da00684	0.07813743
54	0x3d841fd2	0.06451382
55	0xbd9116ad	-0.07084403
56	0x3de26127	0.110536866
57	0xbdd3c4a0	-0.103402376
58	0x3e5a4af1	0.2131765
59	0x3dcf6886	0.10127358
60	0x3cf9d69f	0.030497847
61	0xbd257e05	-0.040403385
62	0x3e714fdb	0.23565619
63	0x3e169f5b	0.14709227
64	0xbe7a4159	-0.2443899
65	0xbd67474a	-0.05646447
66	0xbd999dcf	-0.07500803
67	0x3d7f2daa	0.062299408
68	0x3dcb9f94	0.099425465
69	0x3de7d6cf	0.11320268
70	0x3e3e1664	0.18563229
71	0x3d372150	0.044709504
72	0x3c5d9e43	0.013526502
73	0x3eaf66da	0.34258157
74	0x3d822cd1	0.06356204
75	0xbe3d72e6	-0.18500862
76	0x3e79cc53	0.2439435
77	0x3c8de17c	0.017319433
78	0x3cbbf181	0.022942306
79	0xbcfd0dc3	-0.030890351
80	0x3e16be80	0.14721107
81	0xbe5afe4d	-0.2138607
82	0x3d78fd8c	0.060788676
83	0xbe4d0a72	-0.20023516
84	0xbd776c8a	-0.060406245
85	0x3e7bbd21	0.24583866
86	0xbdd29c71	-0.10283745
87	0x3d9fe008	0.078064024
88	0x3d44a9d3	0.04801352
89	0xbd0d53a2	-0.034503587
90	0xbe45557e	-0.19270894
91	0x3e8f65e7	0.28007433
92	0xbca4476c	-0.020053588
93	0xbd8c06b3	-0.06837215
94	0xbe2d0a3d	-0.16898437
95	0xbe2e314c	-0.17010993
96	0x3e6815f2	0.22664621
97	0x3e3726bf	0.17885874
98	0x3d91f808	0.07127386
99	0x3d16a057	0.036774006
100	0x3d04cb4f	0.032420453
101	0x3e202526	0.15639171
102	0x3e259af5	0.16172393
103	0x3e8d15a8	0.27555585
104	0x3dfc5019	0.12319965
105	0x3e0451a8	0.12921774
106	0x3e9328d0	0.28742075
107	0x3e0c9b52	0.13731125
108	0x3dae703c	0.08517501
109	0x3d967d5d	0.0734813
110	0x3e7a6ad5	0.24454816
111	0x3dc9f556	0.09861247
112	0x3d4af907	0.049553897
113	0x3e560d59	0.20903529
114	0x3df3aab2	0.11897792
115	0x3dfd439e	0.123664126
116	0x3c2e3a43	0.010634008
117	0x3e0522d3	0.13001566
118	0x3dab3489	0.0835963
119	0x3e5dbdba	0.21654406
120	0xbb43705b	-0.0029821608
121	0x3e8f9445	0.28042808
122	0x3e02f26a	0.12787786
123	0x3e192098	0.1495384
124	0x3e4c6a30	0.19962382
125	0xbd1bcedd	-0.038039077
126	0xbc65366f	-0.013990029
127	0x3deb1089	0.11477763
128	0xbe48cd16	-0.19609484
129	0x3e856d7b	0.2606009
130	0x3df63a1f	0.120228045
131	0x3e4ce9b0	0.2001102
132	0x3e0663ab	0.13123958
133	0x3ca11795	0.019664565
134	0xbe5a7935	-0.213353
135	0xbd8795aa	-0.06620343
136	0x3e514e38	0.20439994
137	0xbdc78eed	-0.09744058
138	0x3e610ace	0.21976778
139	0x3df42c68	0.11922532
140	0x3e50d9e8	0.20395625
141	0x3d7ce435	0.061741073
142	0xbcd9fb2d	-0.026609028
143	0xbd7d4da0	-0.061841607
144	0xbe10e713	-0.14150648
145	0xbaf38fde	-0.0018582304
146	0x3bf14ec1	0.0073641245
147	0x3d8d5f6b	0.06902965
148	0xbe435b58	-0.19077814
149	0xbe0f5461	-0.13997032
150	0xbd26c440	-0.040714502
151	0x3e452b71	0.19254853
152	0x3e11a5ce	0.14223406
153	0x3dc5e34d	0.09662495
154	0xbe7750e8	-0.24151957
155	0x3c23c808	0.009996422
156	0xbe210f08	-0.1572839
157	0xbbc98bad	-0.006150684
158	0xbddb166e	-0.106976375
159	0xbdf8f13c	-0.12155387
160	0x3e8dbba5	0.27682224
161	0xbe716dbc	-0.23577017
162	0xbe15efe1	-0.14642288
163	0x3df46dc4	0.11934999
164	0x3e00351f	0.12520264
165	0x3e07d7ad	0.13265868
166	0x3e750360	0.23927069
167	0xbe26a440	-0.16273594
168	0x3d299f38	0.04141161
169	0x3e4d2fe6	0.20037803
170	0xbe59f40c	-0.21284503
171	0x3d904a77	0.07045453
172	0x3dc66541	0.096872814
173	0x3dd98a17	0.10622042
174	0xbdf2f3df	-0.11862921
175	0xbdb6dda1	-0.08928991
176	0x3df9c3a6	0.1219552
177	0x3cc95d50	0.024580628
178	0x3e2e1e34	0.17003709
179	0xbe7121e9	-0.23548092
180	0xbdc64b63	-0.096823476
181	0xbcb7aab2	-0.022420261
182	0xbd15c7a7	-0.036567356
183	0xbe5c9571	-0.21541382
184	0xbe2d2331	-0.16907956
185	0x3df3592a	0.11882241
186	0x3dbc755c	0.09202072
187	0xbe4be915	-0.19913132
188	0x3de286e7	0.11060887
189	0xbdbc5ef3	-0.091977976
190	0xbc133296	-0.008984229
191	0x3d8cc541	0.06873561
192	0xbe73abf3	-0.23796062
193	0xbe1090b7	-0.14117704
194	0xbe3af3a5	-0.18257006
195	0xbc8bcaf4	-0.017064549
196	0x3e0dff36	0.13866886
197	0xbd3da49f	-0.046299573
198	0x3e102eaf	0.14080308
199	0xbc451276	-0.012028327
200	0x3d9750cf	0.0738846
201	0x3e00ffe9	0.12597622
202	0x3dc57ecf	0.096433274
203	0xbd35bc18	-0.044368833
204	0x3df9724d	0.12180004
205	0xbe035ad4	-0.12827617
206	0xbc4d99ce	-0.012548877
207	0xbd299521	-0.041401986
208	0x3d6f8a35	0.058481414
209	0xbd611a9b	-0.054957014
210	0xbb848bb5	-0.0040449747
211	0xbe0eb3a1	-0.1393571
212	0xbe3c4d4c	-0.18388861
213	0x3c1ceec0	0.009578407
214	0xbd279e25	-0.040922303
215	0xbdd20292	-0.102543965
216	0xbd9a0c31	-0.075218566
217	0x3dced42d	0.10099063
218	0xbd239072	-0.039932676
219	0x3e81b9e6	0.25337142
220	0x3e2c5778	0.16830242
221	0xbe4e72e0	-0.20161009
222	0x3d69189d	0.05690824
223	0xbd0cd511	-0.034382883
224	0x3dd88b7a	0.10573478
225	0xbda74f62	-0.08169438
226	0xbd4c290d	-0.049843837
227	0xbd058fb4	-0.03260775
228	0x3e3ea86d	0.18618937
229	0x3e4c512a	0.19952837
230	0x3e0c0732	0.1367462
231	0x3dea9fed	0.11456285
232	0x3e57aed0	0.2106278
233	0xbda967de	-0.08271764
234	0xbda99d43	-0.082819484
235	0x3d35a076	0.04434248
236	0x3e309be2	0.17246965
237	0x3dfc360a	0.12314995
238	0x3d92fc0c	0.071769804
239	0xbd1a7718	-0.037711233
240	0x3e6f27c8	0.23355019
241	0x3e4aa2f3	0.19788723
242	0x3d07fbfd	0.0331993
243	0x3d04b890	0.032402575
244	0x3e402e8a	0.18767753
245	0x3e4931cb	0.19647901
246	0x3e162b9f	0.14665078
247	0x3e5cfbb5	0.21580394
248	0x3de4095b	0.11134597
249	0x3e37df50	0.1795628
250	0x3d3a3b35	0.04546662
251	0xbd2af530	-0.041737735
252	0xbc017f1f	-0.007903843
253	0x3e113729	0.14181198
254	0xbbcb295c	-0.006199999
255	0x3e4e23c0	0.20130825

self_encoder_2.bias f4 [16]
0	0xbb8c3634	-0.0042789225
1	0x3d953d78	0.07287115
2	0xbe129aef	-0.14316915
3	0x3d11dee1	0.035612945
4	0x3e08ac67	0.13347016
5	0x3dea34f6	0.11435883
6	0x3d3f1cb1	0.04665822
7	0x3df3061d	0.118664004
8	0x3ddaa061	0.10675121
9	0x3ce40bec	0.027837716
10	0x3dbf05f5	0.09327308
11	0x3dba7da7	0.091059975
12	0x3dcad1bf	0.09903287
13	0xbe5848d4	-0.21121532
14	0x3c9b80d7	0.018982334
15	0x3d82c471	0.063851245

neighbor_encoder_1.weight f4 [32, 4]
0	0xbd6bed07	-0.057599094
1	0xbdd2a956	-0.102862045
2	0xbee37cbd	-0.44431105
3	0x3efacb52	0.48983246
4	0xbd435a0e	-0.047693305
5	0xbe113c17	-0.14183079
6	0xbeade22b	-0.33961615
7	0x3ed82b4b	0.4222053
8	0x3e971ace	0.29512638
9	0x3ebd8fda	0.37023813
10	0xbd83bc84	-0.06432441
11	0x3e84565a	0.2584713
12	0x3dc0ce02	0.09414293
13	0xbe5923c5	-0.21205051
14	0x3da96e40	0.08272982
15	0x3e787c23	0.24266104
16	0x3cedd0c5	0.029030213
17	0x3eed931d	0.464013
18	0xbf00779b	-0.50182503
19	0x3e8c078b	0.27349505
20	0x3e47641d	0.19471784
21	0xbf0b4e51	-0.54416376
22	0xbec20fc1	-0.37902644
23	0xbef8bcef	-0.48581645
24	0xbc7bda8f	-0.015371933
25	0x3d2affdc	0.041747913
26	0x3ec15290	0.37758303
27	0xbed64932	-0.4185272
28	0x3e63f491	0.22261263
29	0xbe6c1fce	-0.23059008
30	0x3f0b2125	0.5434745
31	0x3e1fc939	0.15604104
32	0xbe0d6e46	-0.13811597
33	0xbcddef07	-0.027091516
34	0x3e87b883	0.2650796
35	0xbedf7ada	-0.43648416
36	0xbeab9ebe	-0.33519548
37	0x3f00167f	0.50034326
38	0x3ed475a7	0.41496012
39	0x3eabf903	0.33588418
40	0x3ef512cf	0.47865912
41	0x3ea64233	0.3247238
42	0x3df6db42	0.12053539
43	0xbd795f64	-0.060881987
44	0x3ed4d5d1	0.4156938
45	0x3d463e9e	0.04839956
46	0xbda65047	-0.081207804
47	0xbdc7d5f9	-0.09757609
48	0xbe5e462a	-0.21706453
49	0xbe9a753e	-0.30167574
50	0x3ab5144b	0.0013815252
51	0xbdd3f974	-0.10350314
52	0xbeba6307	-0.36403677
53	0x3eb09841	0.3449116
54	0xbf0b80a9	-0.54493195
55	0xbe0c2fb5	-0.13690074
56	0xbe88cb4e	-0.2671761
57	0x3e72ca3c	0.23709959
58	0xbeee6c4e	-0.46567005
59	0xbdb8a6a1	-0.09016157
60	0x3b8a9fb8	0.0042304657
61	0xbe54fe2f	-0.20800088
62	0xbe05bc43	-0.13060097
63	0xbec6b0a9	-0.38806656
64	0xbe0fc78f	-0.1404097
65	0xbcf81518	-0.030283496
66	0xbf0213e3	-0.50811595
67	0xbded13ed	-0.11576066
68	0xbea4b0ee	-0.32166237
69	0xbe84b3c6	-0.25918406
70	0x3e1cb06d	0.15301676
71	0xbe5fa7b9	-0.21841325
72	0x3e912f5a	0.2835644
73	0xbe5a9ee2	-0.21349671
74	0x3e8d8fdd	0.2764882
75	0x3dff3ecd	0.1246315
76	0x3ccee703	0.02525664
77	0x3e1693cb	0.14704816
78	0x3e24b9ae	0.16086456
79	0x3e245039	0.16046228
80	0xbe0229fa	-0.12711325
81	0xbe1bde6e	-0.15221569
82	0x3e521b9c	0.20518345
83	0xbf04e075	-0.51904994
84	0x3f0ec09f	0.55762666
85	0x3ec57ba5	0.38570896
86	0xbdf42fc7	-0.11923175
87	0x3e1dd941	0.15414907
88	0xbed908d9	-0.42389563
89	0xbe8f9aa3	-0.28047666
90	0x3e52ff8b	0.20605294
91	0xbe5ae3e0	-0.2137599
92	0xbdf0b64b	-0.117535196
93	0xbd1ea6c9	-0.038733277
94	0xbee85f7c	-0.4538535
95	0xbde17bdb	-0.11009952
96	0x3ec04f75	0.3756062
97	0x3ebc5ce8	0.36789632
98	0xbdf5bc99	-0.11998863
99	0x3e936914	0.28791106
100	0x3e3440cf	0.17602848
101	0xbec8b795	-0.39202562
102	0x3e251fac	0.16125363
103	0x3ee3d09a	0.44495088
104	0x3db515af	0.088420264
105	0x3ead33c7	0.33828565
106	0x3e9773d6	0.29580563
107	0xbf03fd2b	-0.5155818
108	0xbe6c0e99	-0.23052444
109	0x3ed6a939	0.41925982
110	0x3d77b0c6	0.06047132
111	0xbeb83c25	-0.35983387
112	0x3e0bf3dc	0.13667244
113	0xbee6a671	-0.4504886
114	0xbd9bcece	-0.07607804
115	0xbe87b626	-0.26506156
116	0x3edabc7e	0.42721933
117	0xbe168b32	-0.14701536
118	0x3ec354bf	0.38150594
119	0x3e6d52a5	0.23176058
120	0x3e423344	0.18964869
121	0xbf0b0225	-0.5430015
122	0x3e9598fe	0.29218286
123	0xbec65ef3	-0.38744316
124	0xbe9447d1	-0.28961042
125	0xbeb1da73	-0.34736976
126	0x3ec59389	0.38589123
127	0xbe0693a2	-0.13142255

neighbor_encoder_1.bias f4 [32]
0	0x3d83906e	0.06424032
1	0xbd8d896c	-0.06910977
2	0x3ebedede	0.3727941
3	0x3d23fe9e	0.040037744
4	0x3f426053	0.7592823
5	0x3f0b93b7	0.5452227
6	0xbe62931c	-0.2212643
7	0x3eb56eae	0.35436004
8	0x3e74c169	0.23901905
9	0x3f1b438f	0.6064996
10	0xbe68d87f	-0.22738837
11	0x3e8400fb	0.25781998
12	0xbe169b22	-0.14707616
13	0xbd1c0358	-0.038089126
14	0xbe2aca86	-0.16678819
15	0x3e964c0e	0.293549
16	0x3ba23951	0.0049506803
17	0x3e27b281	0.16376688
18	0x3d7aee92	0.061262675
19	0x3d499796	0.04921683
20	0xbe2d29cf	-0.1691048
21	0x3f1f856e	0.6231297
22	0x3f0885c6	0.5332912
23	0x3eb473b4	0.35244524
24	0x3eefdba9	0.46847275
25	0xbe4715ae	-0.19441864
26	0x3e0499a4	0.12949234
27	0xbe6b4010	-0.22973657
28	0xbeb8cad4	-0.36092246
29	0xbca3d793	-0.020000255
30	0x3e2bafde	0.16766307
31	0xbea3bbb9	-0.3197916

neighbor_encoder_2.weight f4 [16, 32]
0	0xbaab4906	-0.0013068027
1	0xbe44d235	-0.19220813
2	0xbe096672	-0.13417986
3	0xbde45d20	-0.11150575
4	0xbe26a5a1	-0.1627412
5	0x3d83cc64	0.06435469
6	0xbad47183	-0.0016208146
7	0xbd88db8c	-0.066825
8	0xbe0b977d	-0.13632007
9	0xbdc165fc	-0.0944328
10	0xbc953788	-0.018214956
11	0xbe243579	-0.16036023
12	0xbdcff669	-0.10154421
13	0xbe4843e5	-0.1955715
14	0xbde52425	-0.11188535
15	0x3b5c40b5	0.0033607904
16	0xbdbec254	-0.09314409
17	0xbde916ac	-0.113812774
18	0xbd8fe745	-0.07026533
19	0xbd9ddf5a	-0.077086166
20	0xbe50a15c	-0.20374054
21	0xbd88c4f8	-0.06678194
22	0xbdecfd19	-0.11571712
23	0x3b97e509	0.0046354574
24	0xbe196f1b	-0.1498379
25	0xbd87b282	-0.066258445
26	0xbb921ab4	-0.0044587497
27	0x3be3b575	0.0069491216
28	0xbd21e89d	-0.039528478
29	0xbc4a4009	-0.012344369
30	0x3d8ec1b3	0.06970539
31	0xbd8c94e0	-0.06864333
32	0xbe018419	-0.12648048
33	0xbe0c0517	-0.13673817
34	0x3d7f6437	0.06235143
35	0xbe121637	-0.14266287
36	0xbe3a7f43	-0.18212609
37	0xbcae11eb	-0.021248778
38	0x3d597d97	0.053098287
39	0xbe59f6a9	-0.212855
40	0x3c214739	0.009843641
41	0xbe380d23	-0.17973761
42	0x3dbd2b19	0.09236736
43	0xbe167a6c	-0.14695138
44	0x3c8238cd	0.015896225
45	0xbd133423	-0.035938393
46	0xbe61c001	-0.220459
47	0xbdaaaf1f	-0.08334183
48	0xbe809a43	-0.25117692
49	0xbe2bfbef	-0.16795324
50	0xbe36d7f3	-0.17855816
51	0xbe39312c	-0.18085164
52	0x3c80b22e	0.015709963
53	0xbe899225	-0.26869312
54	0xbe1a37ee	-0.15060398
55	0xbe826a2c	-0.25471628
56	0xbe032dea	-0.12810484
57	0x3d743dbf	0.0596292
58	0xbdc42218	-0.09576815
59	0xbe1e5f86	-0.15466127
60	0xbe39efd8	-0.181579
61	0xbe65c16a	-0.22437063
62	0xbd9bd67c	-0.07609269
63	0xbe154688	-0.14577687
64	0xbe18b45f	-0.14912556
65	0x3aff8403	0.0019494299
66	0xbca47ce9	-0.020079093
67	0x3d103feb	0.035217207
68	0xbe46b056	-0.19403204
69	0x3d96f929	0.07371742
70	0x3d83a61c	0.06428167
71	0x3d93785c	0.07200691
72	0xbe2e32ae	-0.1701152
73	0x3d50e3b0	0.05099839
74	0x3d314487	0.043278243
75	0xbd884b1c	-0.06654951
76	0xbdf9aa45	-0.121906795
77	0xbcbfeb59	-0.023427652
78	0xbd7bb13d	-0.061448324
79	0xbe5ae321	-0.21375705
80	0xbd1bcbe3	-0.03803624
81	0xbe0df49d	-0.13862844
82	0xbded0769	-0.11573679
83	0x3cab23ee	0.020891156
84	0xbd7fc53b	-0.062443953
85	0xbe6d279f	-0.23159645
86	0xbd6d1c57	-0.057888355
87	0xbe66fa8e	-0.22556517
88	0x3d7dac18	0.0619317
89	0xbd968be1	-0.073508985
90	0xbd5ffe1e	-0.054685704
91	0xbd99f128	-0.075167
92	0xbb8c1384	-0.0042747874
93	0xbdf28ac9	-0.118428774
94	0x3d057969	0.03258649
95	0xbe540aac	-0.20707196
96	0x3e5ecfbd	0.21758933
97	0x3cc43433	0.023950672
98	0x3e5fa110	0.21838784
99	0xbd2e1db9	-0.042508814
100	0xbc852b34	-0.016255952
101	0x3dc2a753	0.09504571
102	0xbd1c7780	-0.0381999
103	0x3e692360	0.227674
104	0x3dd3f661	0.103497274
105	0x3e75001c	0.23925823
106	0x3e5f90f1	0.21832635
107	0xbceded17	-0.029043717
108	0x3e296fa7	0.16546498
109	0x3e63493d	0.22195907
110	0x3e8b4e0e	0.27207989
111	0x3d64a7a4	0.055823937
112	0xbd059a6c	-0.03261797
113	0xbd3dcd96	-0.04633864
114	0x3e297280	0.16547585
115	0xbd1bc23f	-0.038027044
116	0x3cb55058	0.022133037
117	0x3e62cefd	0.22149272
118	0x3df77aa6	0.1208394
119	0x3e0f3b58	0.13987482
120	0xbd460245	-0.04834201
121	0x3d90b3a3	0.07065513
122	0x3e4d003f	0.20019625
123	0xbd069d39	-0.032864783
124	0x3db01355	0.08597437
125	0xbd6cb38c	-0.057788417
126	0x3e2497b4	0.16073495
127	0x3e7f715f	0.24945591
128	0x3e7dacd3	0.24772958
129	0xbdbc6a9e	-0.09200023
130	0x3e72a452	0.23695496
131	0x3e31790c	0.17331332
132	0x3e2f954f	0.171468
133	0x3de6af46	0.112638995
134	0x3d078556	0.033086143
135	0xbc85d11c	-0.016335063
136	0xbd556711	-0.052100245
137	0x3e1c8df5	0.15288527
138	0x3e3de891	0.18545748
139	0x3d09af15	0.033614237
140	0x3e3db73b	0.18526928
141	0x3d28a138	0.041169375
142	0xbd72d9e1	-0.059289817
143	0xbdd4cd90	-0.103907704
144	0xbc6ff371	-0.014645443
145	0x3d9eb705	0.07749752
146	0x3e210533	0.1572464
147	0x3cc2b74b	0.023769042
148	0x3de21705	0.11039547
149	0xbd17bd0d	-0.037045527
150	0x3da53c98	0.08068198
151	0x3e0be5c5	0.13661869
152	0xbdc6daca	-0.097096995
153	0x3e62f402	0.22163394
154	0xbdc0ce5a	-0.094143584
155	0x3e4f5821	0.20248462
156	0xbc46423f	-0.012100755
157	0xbca32f9c	-0.019920163
158	0x3c4ee734	0.012628365
159	0x3d29b818	0.04143533
160	0x3e12b7c2	0.1432791
161	0x3d0e3965	0.034722704
162	0xbc184ffb	-0.009296413
163	0xbd9a445e	-0.07532571
164	0x3dfcf12e	0.12350689
165	0xbd57299a	-0.05252991
166	0x3dfcde27	0.1234706
167	0x3e6f0685	0.23342331
168	0x3d8c6bee	0.068565235
169	0xbc7db8d4	-0.015485961
170	0x3e76f9fa	0.24118796
171	0x3e350de9	0.17681088
172	0xbdeeeae7	-0.11665898
173	0x3d2165b3	0.03940363
174	0x3e0dae38	0.1383599
175	0x3d7fd4e6	0.062458895
176	0x3e319a41	0.17344
177	0x3db6177f	0.088912
178	0xbd651413	-0.055927347
179	0x3e2ba102	0.16760638
180	0xbbc06722	-0.0058716694
181	0xbbe0a09b	-0.006855083
182	0x3e312e07	0.17302714
183	0xbd910ebb	-0.07082888
184	0x3e0602cd	0.13087006
185	0xbc6a3228	-0.014294185
186	0x3d453b3d	0.048152197
187	0x3caeb899	0.021328257
188	0x3e436968	0.19083178
189	0xbd51610c	-0.05111794
190	0x3e1cc75c	0.15310425
191	0x3cba3369	0.022729592
192	0x3dbf7a0a	0.09349449
193	0x3c9d8e83	0.019232994
194	0x3d7b12f8	0.061297387
195	0x3e4c287e	0.19937322
196	0xbc8392a5	-0.016061136
197	0x3d6e600f	0.058197077
198	0x3e617cb8	0.22020233
199	0xbcb4ee27	-0.022086216
200	0x3da6542e	0.08121525
201	0x3e3c7368	0.18403399
202	0x3e274cf6	0.16337952
203	0xbd1e3c71	-0.03863186
204	0xbd2eeadd	-0.04270445
205	0xbbe55d48	-0.0069996454
206	0x3dc35b8d	0.09538946
207	0xbd3d6ccb	-0.04624633
208	0x3e08564f	0.13314174
209	0xbc8a0ef9	-0.016852843
210	0x3e785fae	0.24255249
211	0x3dd507fe	0.10401915
212	0x3df6fb5c	0.12059662
213	0x3e00c73b	0.12576
214	0x3d7bfe52	0.061521836
215	0x3d3ddbeb	0.04635231
216	0x3e81331b	0.25234303
217	0x3d4f6530	0.05063361
218	0x3dcec831	0.10096777
219	0x3e6923e2	0.22767594
220	0xb8d3b08a	-0.00010094147
221	0xbd4c63be	-0.04989981
222	0x3dbe51c0	0.09292936
223	0x3dab44fa	0.083627656
224	0x3d0bf57b	0.034169655
225	0xbe19a569	-0.15004505
226	0x3b873936	0.004126693
227	0xbdb027be	-0.0860133
228	0x3e14a7a0	0.14517069
229	0xbcfb669d	-0.030688578
230	0x3e12abfd	0.14323421
231	0xbd90389b	-0.07042047
232	0xbddaeaea	-0.106893376
233	0xbc1c049a	-0.0095225815
234	0xbdd891ec	-0.105747074
235	0xbd1f06eb	-0.038824957
236	0xbde81de9	-0.1133383
237	0x3d82a8be	0.06379841
238	0xbaefc1c3	-0.0018291998
239	0xbe06011a	-0.13086358
240	0x3d821be7	0.06352978
241	0xbde5dbaf	-0.11223542
242	0x3e0c6b8b	0.137129
243	0x3c827065	0.015922735
244	0x3dd6b10e	0.10482989
245	0xbd532e55	-0.051557858
246	0x3de93770	0.11387527
247	0xbe544650	-0.20729947
248	0xbc40761b	-0.011746909
249	0x3d836afc	0.0641689
250	0xbd856fbe	-0.06515454
251	0xbdcef08b	-0.10104474
252	0x3d26e778	0.04074809
253	0xbe3eac24	-0.18620354
254	0xbe18ae24	-0.1491018
255	0xbe518ca1	-0.20463802

neighbor_encoder_2.bias f4 [16]
0	0xbe42f9a9	-0.1904055
1	0xbd7a9bc4	-0.061183706
2	0xbe78c526	-0.24293956
3	0x3e1808f1	0.14847161
4	0x3e5acfe7	0.21368371
5	0xbd620652	-0.05518181
6	0x3e927cbe	0.28610796
7	0x3c9d5b1e	0.019208487
8	0x3d4a491f	0.04938614
9	0xbd3c5fb4	-0.045989707
10	0xbe78e159	-0.24304713
11	0xbd2a6e9b	-0.041609388
12	0x3dd40b83	0.10353758
13	0x3dc40f1e	0.09573196
14	0x3db40d6c	0.087916225
15	0x3c97c9bb	0.01852881

linear1.weight f4 [64, 32]
0	0xbe1b4a56	-0.15165076
1	0x3e24cc3d	0.16093536
2	0xbe8ec2f8	-0.27883124
3	0xbd0d928b	-0.034563582
4	0xbe47a51f	-0.19496582
5	0xbdfe0fb7	-0.12405341
6	0xbddcf7ec	-0.10789475
7	0x3e6f2010	0.23352075
8	0x3da511ef	0.08060061
9	0x3c92e72b	0.017932495
10	0xbd4e9428	-0.05043426
11	0xbd1928ef	-0.037392553
12	0x3e0c9e12	0.13732174
13	0xbe387716	-0.18014178
14	0x3cf82dca	0.030295271
15	0xbd18b761	-0.03728426
16	0xbe69d8fd	-0.2283668
17	0xbcee80e0	-0.029114187
18	0x3da54cbb	0.08071276
19	0xbb087e70	-0.0020827316
20	0x3d2688f1	0.04065794
21	0xbd6849f2	-0.056711145
22	0xbdaf3091	-0.08554185
23	0x3e1920d6	0.14953932
24	0xbda8f7ef	-0.082504146
25	0xbddb9c88	-0.10723215
26	0xbe4f0782	-0.20217708
27	0x3d29638a	0.041354693
28	0x3d0d4462	0.034489043
29	0x3e03d8ea	0.12875715
30	0xbe15517a	-0.14581862
31	0x3e2db936	0.16965184
32	0x3e7b079b	0.2451462
33	0xbdfce6c9	-0.12348706
34	0xbde70c38	-0.112816274
35	0x3e143bf3	0.14475994
36	0xbdb983ae	-0.09058319
37	0x3d8b8586	0.06812577
38	0x3d158170	0.036500394
39	0xbd3c32eb	-0.045946997
40	0xbb95b373	-0.004568511
41	0xbd195dd5	-0.037443
42	0xbe75fb1c	-0.24021572
43	0xbdd5205d	-0.104065634
44	0xbe03eeea	-0.12884107
45	0xbc8216e1	-0.01588005
46	0xbde9537e	-0.11392878
47	0x3e4da1b9	0.20081224
48	0xbe22b304	-0.15888602
49	0x3d5c5be8	0.053798586
50	0xbd77589d	-0.060387243
51	0x3e43f5cb	0.19136731
52	0x3e227911	0.15866496
53	0x3dc7d507	0.097574286
54	0xbdc93eec	-0.098264545
55	0xbdb1dfd0	-0.08685267
56	0x3d8f3886	0.06993203
57	0xbced34c8	-0.028955832
58	0xbe1d1634	-0.15340501
59	0x3dea0a47	0.114277415
60	0xbdd8f27a	-0.10593124
61	0x3bab2e12	0.005223998
62	0xbde56324	-0.1120055
63	0x3cbacdbc	0.02280318
64	0x3e5e6e57	0.21721779
65	0x3dd7f9b5	0.10545675
66	0x3e309797	0.17245327
67	0xbe430b73	-0.19047336
68	0xbd434285	-0.04767086
69	0x3ce6382b	0.028102955
70	0xbd8a315d	-0.067476965
71	0x3c7c91c2	0.015415611
72	0xbe104172	-0.14087465
73	0xbcae7874	-0.02129767
74	0xbd767c81	-0.06017733
75	0x3ddada2f	0.106861465
76	0xbe0d12f2	-0.13776758
77	0xbe1ea6e0	-0.15493345
78	0x3d017d34	0.031613544
79	0x3e3f05c6	0.18654546
80	0xbe0dfc27	-0.1386572
81	0xbd3ef407	-0.04661944
82	0x3e06c6d6	0.13161787
83	0x3d969ad5	0.073537506
84	0x3de91f4a	0.11382921
85	0x3e11d66b	0.1424195
86	0xbde56ffd	-0.11203001
87	0xbd9c3a33	-0.07628288
88	0x3de4dabf	0.11174535
89	0x3d93061f	0.07178902
90	0xbdf261e1	-0.11835075
91	0x3e1ca931	0.15298916
92	0x3dcb0265	0.09912566
93	0xbd3f571b	-0.04671393
94	0x3c1ff69c	0.009763386
95	0xbde490f2	-0.111604586
96	0xbd3f6dd9	-0.04673562
97	0x3df2aeca	0.118497446
98	0x3ce53046	0.02797712
99	0x3e2659da	0.16245213
100	0xbe30a095	-0.17248757
101	0x3de5aad2	0.11214222
102	0xbdee5a64	-0.116383344
103	0x3d8de651	0.06928695
104	0x3d1d93aa	0.0384709
105	0xbdb70f9b	-0.089385234
106	0xbe056e10	-0.13030267
107	0xbe208e4a	-0.15679279
108	0x3c16b760	0.009198993
109	0xbe4bfcaa	-0.19920602
110	0xbe488f3b	-0.19585888
111	0x3e1fb246	0.1559535
112	0xbe80ccc1	-0.25156215
113	0xbe402c4c	-0.18766898
114	0xbe04c6d6	-0.12966475
115	0x3e445c2c	0.19175786
116	0x3e310c0d	0.17289753
117	0xbd427057	-0.047470417
118	0x3cb554fe	0.022135254
119	0xbe179d23	-0.14806037
120	0x3dec9340	0.11551523
121	0xbe072a63	-0.13199763
122	0xbdf77e91	-0.120846875
123	0x3e38ba54	0.18039829
124	0x3e60be92	0.21947697
125	0x3e73b698	0.23800123
126	0x3e239030	0.15972972
127	0x3e60325a	0.21894208
128	0x3e5f8945	0.21829708
129	0x3d803621	0.06260324
130	0x3e532627	0.20620023
131	0x3cc42141	0.023941638
132	0x3db08b91	0.0862037
133	0x3e31b256	0.17353186
134	0xbe567a09	-0.2094499
135	0x3d5e97d9	0.054344032
136	0xbda9441b	-0.08264943
137	0x3dd4306f	0.103608005
138	0xbe227d02	-0.15867999
139	0xbd16fccc	-0.03686218
140	0xbdf95b19	-0.121755786
141	0xbe782458	-0.24232614
142	0xbe6af434	-0.22944719
143	0x3d8dfde6	0.06933193
144	0xbe235e6e	-0.15953991
145	0xbd84ead4	-0.064901024
146	0x3c018743	0.007905784
147	0x3d2dde54	0.042448357
148	0xbc584727	-0.013200558
149	0xbbbf8f72	-0.0058459574
150	0x3d077658	0.033071846
151	0x3df3193e	0.11870049
152	0xbbe857ac	-0.0070905294
153	0xbd0a6698	-0.033789247
154	0xbe5fb778	-0.21847332
155	0xbd66023c	-0.056154475
156	0xbd777f96	-0.06042441
157	0x3e72abe4	0.23698384
158	0xbe16f0ec	-0.14740342
159	0xbd1751a1	-0.03694308
160	0xbce403a4	-0.027833767
161	0xbdc4f8f5	-0.09617797
162	0xbd16a7ed	-0.03678124
163	0x3b96e098	0.0046044104
164	0x3e8013f1	0.25015214
165	0xbe6eb326	-0.23310527
166	0x3dd07d8d	0.10180197
167	0xbdb38cb7	-0.087670736
168	0x3db6d44e	0.08927213
169	0xbceb8770	-0.028751105
170	0x3dcdcdcd	0.10049019
171	0xbd979231	-0.07400931
172	0x3e6ecddc	0.23320717
173	0xbe0ada67	-0.13559876
174	0xbd696a26	-0.056985997
175	0x3d812828	0.06306487
176	0xbe4c7743	-0.1996737
177	0xbbda2d54	-0.0066582356
178	0x3dbf5428	0.093422234
179	0x3e16f624	0.14742333
180	0x3d234d4d	0.03986864
181	0x3db3ac2c	0.087730736
182	0x3d8eea2b	0.06978258
183	0xbdcca5c1	-0.099925525
184	0xbd035ded	-0.032071996
185	0xbe16c5b4	-0.14723855
186	0xbe60fecf	-0.21972202
187	0xbdb129d3	-0.086505555
188	0xbdbe5343	-0.09293225
189	0x3e744870	0.23855758
190	0xbc700561	-0.01464972
191	0x3e077844	0.13229471
192	0x3e5c0442	0.21485999
193	0xbcddecf4	-0.027090527
194	0x3e596e31	0.21233441
195	0x3d98d453	0.07462373
196	0x3d852563	0.065012716
197	0x3e0c1838	0.13681114
198	0x3e1017b5	0.14071544
199	0xbda59f3d	-0.08087013
200	0xbe2ce5e4	-0.16884571
201	0x3df029d1	0.11726726
202	0xbda4e83c	-0.08052108
203	0xbd3694de	-0.044575565
204	0x3cb9eca7	0.022695852
205	0x3d008d7c	0.03138493
206	0x3dee7d57	0.116450004
207	0x3e2d19c8	0.16904366
208	0xbe27f031	-0.1640022
209	0x3d3b5d37	0.045743193
210	0xbcb5dd2d	-0.022200191
211	0xbcbd87ab	-0.02313598
212	0xbdfc2d9c	-0.12313387
213	0x3d5b646e	0.053562574
214	0xbd995815	-0.074875034
215	0x3d45fb3a	0.04833529
216	0xbdf4d080	-0.11953831
217	0x3db62597	0.088938884
218	0xbe07a0bd	-0.1324491
219	0xbcfbdf67	-0.030746175
220	0x3b8e264f	0.004338063
221	0xbb38c9b7	-0.0028196403
222	0xbd20da54	-0.039270714
223	0x3e2661e2	0.16248277
224	0x3e612753	0.21987657
225	0xbe290cf3	-0.16508846
226	0x3e5b0f1c	0.21392483
227	0xbc0ad1c1	-0.008472861
228	0x3cad19a2	0.021130387
229	0xbdb7e39c	-0.0897896
230	0x3aa64d87	0.00126879
231	0xbd448d1a	-0.047986127
232	0xbd235bf3	-0.03988261
233	0x3e008d82	0.12553981
234	0x3d7206d9	0.05908856
235	0xbe4127a5	-0.1886278
236	0xbd0094df	-0.031391975
237	0xbe835d62	-0.25657183
238	0x3e04f8ba	0.12985507
239	0x3e4e8931	0.20169522
240	0xbe4706d9	-0.19436206
241	0xbe0d1200	-0.13776398
242	0xbcd85fd9	-0.026412891
243	0x3e36a753	0.17837267
244	0x3d9ad500	0.07560158
245	0x3dd5eb7d	0.104453065
246	0x3dc36168	0.09540063
247	0xbba6ac33	-0.0050864457
248	0x3e6ef1b8	0.23334396
249	0xbce6e1f0	-0.028183907
250	0xbcbb208a	-0.022842664
251	0x3e59fa8a	0.2128698
252	0x3d4d07bf	0.050056215
253	0xbcb2eea3	-0.021842306
254	0xbe0d2deb	-0.13787048
255	0x3da461f9	0.08026499

linear1.bias f4 [64]
0	0xbcf9b352	-0.030481014
1	0x3dc4df1b	0.096128665
2	0xbcc66a4f	-0.024220614
3	0x3e10c670	0.14138198
4	0x3d54d410	0.05196005
5	0x3e1eb3f6	0.15498337
6	0xbcb4aacd	-0.0220541
7	0x3d98d18a	0.074618414
8	0x3e025ee6	0.12731513
9	0x3e0fada1	0.14031078
10	0xbdb9f8d9	-0.09080667
11	0x3e05757e	0.13033101
12	0x3e516eac	0.20452374
13	0x3dea6875	0.11445705
14	0x3e68b46b	0.22725074
15	0xbdfab1e6	-0.12240963
16	0x3d6aed5c	0.05735527
17	0x3e76e907	0.2411233
18	0xbd50ec84	-0.05100681
19	0xbdbdf315	-0.0927488
20	0xbd316800	-0.043312073
21	0xbe146854	-0.14492923
22	0xbd213f2c	-0.039366886
23	0xbc91616c	-0.01774665
24	0xbdb514f4	-0.08841887
25	0x3e0d8046	0.13818464
26	0xbd669251	-0.056291882
27	0x3d9c0a45	0.07619146
28	0x3d409fe1	0.047027472
29	0x3e2ef77a	0.17086592
30	0x3e230502	0.15919879
31	0x3dad08b0	0.08448923
32	0x3dfe9ada	0.12431879
33	0x3d65a2a3	0.056063306
34	0x3bad21ac	0.005283555
35	0x3d1f8e99	0.03895435
36	0x3de6558c	0.112467855
37	0x3d59e5a1	0.053197507
38	0x3d64499f	0.055734273
39	0xbd4f35f8	-0.050588578
40	0x3db65ae4	0.08904055
41	0x3e11c44e	0.1423504
42	0x3e7a6576	0.24452767
43	0x3e17ea1e	0.14835402
44	0x3b7c8873	0.0038533479
45	0xbdc3f8bf	-0.09568929
46	0xbd912101	-0.07086373
47	0xbd9d2649	-0.07673318
48	0x3cf102d5	0.029420296
49	0xbd2d3397	-0.042285528
50	0x3e0653ce	0.13117906
51	0x3d90bb8e	0.07067023
52	0xbcbaa731	-0.022784801
53	0x3b5cd575	0.0033696566
54	0xbc7065cd	-0.014672709
55	0x3d475d71	0.048673097
56	0xbe410843	-0.18850808
57	0x3e226df1	0.15862252
58	0x3e69bf34	0.22826844
59	0x3d381161	0.04493845
60	0x3d9f3443	0.0777364
61	0xbc9bdd68	-0.019026473
62	0xbd83a8ea	-0.06428702
63	0x3e03ba2b	0.12863986

linear2.weight f4 [16, 64]
0	0x3cfbb99a	0.03072815
1	0xbdd67196	-0.104708835
2	0xbe0e5be8	-0.13902247
3	0xbc7c09c1	-0.015383185
4	0xbe189d3d	-0.14903732
5	0x3dbb463d	0.09144256
6	0x3ccd9e51	0.025099905
7	0x3e470c9f	0.19438408
8	0x3d224986	0.0396209
9	0xbd91d2b5	-0.07120267
10	0xbcbe509c	-0.023231797
11	0x3a36cd70	0.00069733616
12	0x3e2179e4	0.15769154
13	0x3cb565da	0.022143293
14	0xbd3d853b	-0.046269637
15	0x3d54050c	0.051762626
16	0xbcb73885	-0.022365818
17	0x3cf33054	0.02968613
18	0x3e3c1d8d	0.18370648
19	0x3e25e022	0.16198781
20	0x3dee8c00	0.11647797
21	0xbd283fd6	-0.041076504
22	0x3ddd458d	0.108042814
23	0x3d94c191	0.07263482
24	0xbd2a3569	-0.041554842
25	0x3e19bbcd	0.15013047
26	0x3cb70b08	0.022344127
27	0xbd1c13d7	-0.03810486
28	0xbce059f8	-0.02738665
29	0x3e1a2842	0.1505442
30	0x3d90718e	0.07052909
31	0xbd8252d3	-0.06363454
32	0x3d00d484	0.03145267
33	0x3e34396f	0.17600034
34	0xbc77579d	-0.015096572
35	0x3d82a5ef	0.063793056
36	0xbe09a5bb	-0.13442127
37	0x3daacd4c	0.083399385
38	0x3dc4c47e	0.096077904
39	0xbd6990ae	-0.057022743
40	0x3e49c1b3	0.19702797
41	0x3d027958	0.031854004
42	0x3c476dc2	0.012172164
43	0x3cfe1d7e	0.031019922
44	0x3e3c73e3	0.18403582
45	0x3e0e4674	0.13894063
46	0xbd6648fa	-0.05622194
47	0x3ddf88fd	0.109148
48	0x37f0b731	2.8695535e-05
49	0x3dbac179	0.09118933
50	0xbd03b42d	-0.03215425
51	0x3c86d0f6	0.016457062
52	0x3ab54752	0.0013830459
53	0x3e286bd0	0.16447377
54	0xbda7f219	-0.08200473
55	0x3deb183f	0.11479234
56	0xbcba0a06	-0.022709858
57	0x3d0f3d53	0.034970593
58	0x3d66522b	0.056230705
59	0x3e3784b6	0.17921719
60	0xbe23af38	-0.1598481
61	0xbde49f99	-0.11163253
62	0x3d7e67fe	0.062110893
63	0xbd68ac24	-0.05680479
64	0xbdd65c08	-0.10466772
65	0xbc2d0ca1	-0.010562093
66	0x3d9dfb34	0.07713929
67	0xbdf9cb22	-0.12196948
68	0x3dd52f40	0.10409403
69	0x3d8a7846	0.067612216
70	0xbd0117ca	-0.031516828
71	0xbd0666df	-0.03281295
72	0x3ae557f9	0.0017497531
73	0xbd7920d1	-0.06082231
74	0x3bc4921e	0.005998864
75	0xbde9ed05	-0.11422161
76	0x3d7447ce	0.05963879
77	0xbda7e069	-0.081971
78	0x3dc4eb93	0.09615245
79	0x3d64310d	0.05571084
80	0xbd2c9389	-0.042132888
81	0xbdc46d03	-0.09591105
82	0xbda2bad5	-0.07945792
83	0xbda1336d	-0.07871137
84	0x3de6570d	0.11247072
85	0xbd16df48	-0.03683403
86	0xbdaf643d	-0.08564041
87	0x3d9a54d4	0.07535711
88	0xbd8375bf	-0.06418943
89	0xbd6aad35	-0.05729409
90	0x3c8f7bde	0.01751512
91	0x3dac88fd	0.08424566
92	0xbdb402aa	-0.08789571
93	0xbcebb9f4	-0.028775193
94	0x3ab99ca5	0.0014161064
95	0xbcd57657	-0.026057405
96	0xbdf735ce	-0.12070809
97	0xbd8a00be	-0.06738423
98	0xbcd79870	-0.026317805
99	0xbd8d1d3a	-0.0689034
100	0x3b8c6be3	0.004285322
101	0x3d15f678	0.036612004
102	0xbd844fb7	-0.06460517
103	0x3d563048	0.05229214
104	0x3de49e09	0.11162955
105	0x3df247b2	0.11830081
106	0x3d7120c6	0.058869146
107	0x3cc0fc8b	0.023557922
108	0xbd0c760b	-0.034292262
109	0x3d672f11	0.05644137
110	0xbcb6b932	-0.022305105
111	0x3da6b3a0	0.081397295
112	0x3ccd7c8a	0.025083799
113	0xbd64d7d9	-0.05586991
114	0x3dd93f16	0.10607736
115	0xbd8fb6dc	-0.070172995
116	0xbdcfacb2	-0.10140361
117	0xbdf9e616	-0.122020885
118	0xbd8a2a27	-0.06746321
119	0x3bb52675	0.005528266
120	0xbcb3ab8e	-0.02193239
121	0xbde46a15	-0.11153046
122	0xbd4bf45b	-0.049793582
123	0xbce21dcd	-0.0276021
124	0xbd13ca38	-0.036081523
125	0xbb7f3daa	-0.0038946667
126	0x3cae9aad	0.02131399
127	0xbdd70338	-0.10498661
128	0x3d5367da	0.051612712
129	0x3db3508a	0.08755596
130	0x3df66258	0.12030476
131	0x3df9a69c	0.12189981
132	0x3da48f4a	0.08035143
133	0xbd9c0b00	-0.076192856
134	0x3d80b923	0.06285312
135	0x3e46bc57	0.19407783
136	0xbda8b224	-0.08237103
137	0x3d2d5ac6	0.042322896
138	0x3dfe5055	0.12417666
139	0x3deacd4e	0.1146494
140	0x3dbfe0f0	0.09369075
141	0xbc485087	-0.01222623
142	0x3e3d364a	0.18477741
143	0x3c152ccc	0.009104919
144	0x3d678748	0.0565255
145	0x3d03bf0a	0.03216461
146	0xbd328033	-0.04357929
147	0xbd6dfea3	-0.05810417
148	0x3e1611b6	0.14655194
149	0x3c2a8b61	0.010409207
150	0xbd0d208f	-0.03445488
151	0xbdb442ab	-0.088017784
152	0x3de2fbb0	0.11083162
153	0xbd65e67f	-0.05612802
154	0xbd502d72	-0.05082459
155	0x3dda0827	0.10646086
156	0x3e04075b	0.12893431
157	0xbde707a0	-0.11280751
158	0x3ded1154	0.11575571
159	0x3cd69f5f	0.026199041
160	0x3e154211	0.14575984
161	0xbd2a4e4a	-0.04157857
162	0xbd824397	-0.06360548
163	0x3d242661	0.040075663
164	0x3d6a3af7	0.05718514
165	0xbd8eb3f1	-0.06967915
166	0x3e40338f	0.18769668
167	0xbcc1445b	-0.023592165
168	0xbde1f12a	-0.110323265
169	0x3e49ae26	0.19695339
170	0x3e208b30	0.15678096
171	0x3e1d8dd3	0.15386133
172	0x3d8e1ad4	0.06938711
173	0x3cbb8644	0.022891171
174	0x3df99385	0.1218634
175	0x3d83cf28	0.06435996
176	0xbe00360e	-0.1252062
177	0x3d8788a5	0.0661786
178	0x3df48948	0.11940247
179	0xbadafb07	-0.0016706892
180	0x3e5a664a	0.21328083
181	0xbe42e735	-0.19033511
182	0x3e29c96b	0.16580741
183	0x3dd7c160	0.1053493
184	0x3d96f7e3	0.073714994
185	0x3cbe39cd	0.023220921
186	0x3dd6733d	0.10471199
187	0xbe202175	-0.15637763
188	0x3e55eb75	0.20890601
189	0x3cbd4ad6	0.023106974
190	0x3cf3472a	0.02969702
191	0x3dac96c6	0.08427195
192	0xbb84d879	-0.004054126
193	0x3e544aee	0.20731708
194	0x3d139681	0.036032204
195	0x3df66a13	0.12031951
196	0x3e1f06eb	0.15529983
197	0x3cc36d7b	0.023855915
198	0x3b740280	0.0037232935
199	0x3e4fed9d	0.20305486
200	0xbe0bb326	-0.13642558
201	0x3d18eba4	0.0373341
202	0x3cbaa77a	0.022784937
203	0x3cd3efdf	0.025871215
204	0xbdba3cf8	-0.0909366
205	0xbd657d1b	-0.056027513
206	0x3e262b0c	0.16227359
207	0xbd31405b	-0.043274265
208	0x3e138278	0.14405239
209	0x3e218d00	0.15776443
210	0x3c9eff72	0.019408915
211	0xbddc75f0	-0.10764682
212	0xbcd7a1ed	-0.02632233
213	0xbd2e054b	-0.042485517
214	0xbc8c7215	-0.017144242
215	0xbe22f9cd	-0.15915604
216	0x3e36805d	0.17822404
217	0x3ceb510d	0.028725171
218	0xbdd77e9c	-0.10522196
219	0x3d646dcb	0.05576877
220	0x3e1a79b7	0.15085493
221	0xbe199862	-0.14999536
222	0xbd0af9f8	-0.033929795
223	0xbcd63558	-0.026148483
224	0xbcf90915	-0.030399838
225	0x3def15bb	0.11674067
226	0xbda0c98d	-0.07850943
227	0x3dd711c1	0.10501433
228	0x3e351659	0.17684306
229	0xbd97e7b8	-0.07417244
230	0x3c4de5b7	0.012566975
231	0x3d72cb05	0.059275646
232	0xbd488658	-0.048956245
233	0x3e32bbfc	0.17454523
234	0x3e1c3bdf	0.15257214
235	0x3e1b885f	0.1518874
236	0x3dc8f8c2	0.09813072
237	0xbd068715	-0.032843668
238	0x3e3b95fa	0.1831893
239	0x3e340390	0.17579484
240	0xbba4ec3f	-0.0050330455
241	0x3e38c79e	0.18044898
242	0x3e2c22b0	0.16810107
243	0xbd86ca3f	-0.06581544
244	0x3db37472	0.087624446
245	0xbe44726a	-0.1918427
246	0x3e04fc6f	0.12986921
247	0x3ad95915	0.0016582335
248	0xbdcebda3	-0.10094764
249	0x3d7b9ed4	0.061430767
250	0x3e171930	0.14755702
251	0xbddd28b2	-0.10798778
252	0x3e1203fa	0.1425933
253	0xbb1a25f4	-0.0023521157
254	0xbd3033aa	-0.04301802
255	0xb957bc4f	-0.00020574148

linear2.bias f4 [16]
0	0x3e061d63	0.13097148
1	0xbd9339b0	-0.071887374
2	0x3e28ecc4	0.16496569
3	0x3dc48462	0.095955625
4	0xbd1d13d6	-0.038348995
5	0x3dab2f84	0.08358672
6	0x3b7ee316	0.0038892678
7	0xbcb9217c	-0.022598974
8	0xbd17b41d	-0.037037004
9	0xbd188acc	-0.037241742
10	0x3d7dfeac	0.062010452
11	0xbd20ea90	-0.039286196
12	0xbbe9a835	-0.0071306475
13	0x3d850ce1	0.06496597
14	0xbd153fa8	-0.03643766
15	0xbcac6a17	-0.021046681

linear3.weight f4 [2, 16]
0	0x3e97b111	0.29627278
1	0xbe4bc2bf	-0.19898508
2	0xbe14653d	-0.14491744
3	0xbe83c5d1	-0.2573686
4	0xbe43712b	-0.19086139
5	0x3e9b25a1	0.30302146
6	0x3ca06d91	0.019583495
7	0xbe8276e0	-0.2548132
8	0x3e89b748	0.26897645
9	0xbe513412	-0.2043002
10	0xbe979269	-0.2960389
11	0x3e8012ce	0.25014347
12	0xbe6899bd	-0.22714897
13	0xbe565f87	-0.20934878
14	0xbe7a9322	-0.24470189
15	0x3e00e3d9	0.12586917
16	0x3e06100f	0.13092063
17	0x3e459b5b	0.19297545
18	0xbeba581b	-0.36395344
19	0xbeb521de	-0.353774
20	0x3e96ed1a	0.2947777
21	0xbd7448c7	-0.05963972
22	0x3ea9418f	0.3305783
23	0x3e674c76	0.22587761
24	0x3e34eaf5	0.17667754
25	0xbe2c93f6	-0.16853318
26	0x3d2d5a85	0.042322654
27	0xbd280146	-0.04101684
28	0xbd1ccf9f	-0.03828394
29	0x3e086b6b	0.13322227
30	0xbdae419d	-0.085086085
31	0x3e9db942	0.30805403

linear3.bias f4 [2]
0	0xbd4da7d7	-0.050208893
1	0xbccd3e3f	-0.025054095
