gym_pybullet_drones/examples/models/actor_gnn_1drones.pkl (torch, 23968 bytes, 14 tensors)

self_encoder_1.weight f4 [32, 8]
0	0x3e233183	0.15936856
1	0xbe8f937c	-0.2804221
2	0x3f220e9b	0.63303536
3	0xbe73f089	-0.23822226
4	0xbe965d3f	-0.29368016
5	0x3de11853	0.109909676
6	0xbd0f6929	-0.035012398
7	0x3d5f3d4a	0.05450181
8	0xbe974d4c	-0.2955116
9	0x3df34ff3	0.118804835
10	0xbed5e1c7	-0.41773817
11	0xbf01bec4	-0.5068171
12	0xbdb47e43	-0.08813145
13	0x3dedd831	0.11613501
14	0xbd0d5300	-0.034502983
15	0x3e047a37	0.12937246
16	0x3e80d785	0.25164428
17	0xbe8151a9	-0.25257614
18	0x3e0754b2	0.13215902
19	0xbe9ad0b3	-0.3023735
20	0x3d17ce5e	0.03706204
21	0x3e22cbeb	0.15898101
22	0x3e1fae00	0.1559372
23	0xbe5ef71c	-0.21773952
24	0x3e1e93bd	0.15486045
25	0x3de8040c	0.11328897
26	0xbe21d1f2	-0.15802744
27	0x3eef2394	0.4670683
28	0xbd96b5f8	-0.073589265
29	0x3e049223	0.12946372
30	0x3d63d6af	0.05562466
31	0xbc29f9ca	-0.010374496
32	0x3e13abbe	0.14420983
33	0x3ddd378f	0.108016126
34	0x3cb64433	0.022249317
35	0x3e7bf66a	0.24605718
36	0x3e9fb718	0.31194377
37	0xbe800167	-0.2500107
38	0x3e814a0c	0.25251806
39	0xbd2715e9	-0.04079238
40	0xbebfe9f1	-0.3748317
41	0x3ebffb5a	0.37496454
42	0xbe48a385	-0.19593628
43	0x3ee57a79	0.44820002
44	0xbd6371e9	-0.055528555
45	0xbe71d80d	-0.23617573
46	0xbe6d7849	-0.23190416
47	0x3ea5ba04	0.3236848
48	0x3ea125b9	0.31474093
49	0xbe0115ba	-0.12605944
50	0x3ee37f51	0.44433072
51	0x3f09cf86	0.5383228
52	0x3dc13762	0.094343916
53	0xbdfd52f8	-0.12369341
54	0x3d1630e9	0.036667738
55	0xbe0dae31	-0.1383598
56	0x3e9d8882	0.3076821
57	0xbe205427	-0.15657102
58	0xbe4c5096	-0.19952616
59	0x3e8b10b8	0.27161193
60	0x3e062ebb	0.13103764
61	0xbe26ba8c	-0.162821
62	0x3e0bbac2	0.13645461
63	0xbeb8f9cb	-0.36128077
64	0xbe47d07c	-0.19513124
65	0x3e96aa30	0.29426718
66	0xbf14a6d7	-0.5806708
67	0x3f057d47	0.52144283
68	0x3e2a86ba	0.16652957
69	0xbe93948a	-0.28824264
70	0x3e6891b1	0.22711827
71	0xbb6cdf4f	-0.0036143844
72	0xbd8033be	-0.06259869
73	0x3e34f672	0.17672136
74	0xbd442707	-0.047888782
75	0x3f308afd	0.6896208
76	0x3bfd47ec	0.007729521
77	0xbe4bf20b	-0.19916551
78	0xbd8468f0	-0.06465328
79	0x3d88f7b7	0.06687873
80	0xbcb650b6	-0.022255283
81	0xbe70cd68	-0.23515856
82	0xbedb6edb	-0.42858014
83	0xbec070a2	-0.37585932
84	0x3e52cea7	0.20586644
85	0x3d0bdc1d	0.034145463
86	0x3df397e0	0.11894202
87	0x3da5d96f	0.08098113
88	0xbe314f35	-0.17315371
89	0xbe0481f2	-0.12940195
90	0xbcd4ed9c	-0.025992207
91	0xbe9959ab	-0.29951224
92	0xbebefa51	-0.3730035
93	0x3e995983	0.29951105
94	0xbe9a6fb0	-0.30163336
95	0x3d46adc0	0.048505545
96	0xbeb8e889	-0.3611491
97	0xbe06b1ba	-0.13153735
98	0xbf0f5e53	-0.560033
99	0x3ec8e8f4	0.3924023
100	0xbe71d5b7	-0.23616682
101	0xbe710247	-0.23536025
102	0xbe7d3a3f	-0.2472925
103	0xbd00a260	-0.031404853
104	0x3d6ce28e	0.057833247
105	0x3cdc125d	0.026864225
106	0x3e956e3c	0.29185665
107	0x3e470138	0.19434059
108	0xbe91fe0f	-0.28514144
109	0xbe9ea78f	-0.30987212
110	0x3e0b9a43	0.13633065
111	0xbdd499f2	-0.10380925
112	0xbe41eedd	-0.18938775
113	0xbe5f4a06	-0.21805581
114	0x3d942bc5	0.07234911
115	0x3db4c0d3	0.08825841
116	0x3e865d43	0.26243028
117	0x3e434c84	0.19072157
118	0x3c38b897	0.011274478
119	0x3d93529e	0.07193492
120	0xbe07bb19	-0.13254966
121	0xbdc7aea4	-0.09750107
122	0x3e0c1056	0.13678107
123	0xbece2c59	-0.4026821
124	0x3d8302db	0.06397029
125	0xbde45ea5	-0.111508645
126	0xbd45f3e1	-0.048328284
127	0x3c030ffd	0.007999417
128	0x3cee9c26	0.029127192
129	0x3ea20a80	0.31648636
130	0x3f13898a	0.5763174
131	0x3f006e9a	0.50168765
132	0xbe8e41ca	-0.27784568
133	0xbd3a47f2	-0.04547877
134	0xbe0fd0fd	-0.14044566
135	0xbdd4130d	-0.10355196
136	0x3df62f52	0.120207444
137	0xbe385300	-0.18000412
138	0x3eb8d6c5	0.36101356
139	0xbe9bc902	-0.30426794
140	0xbdd1a254	-0.1023604
141	0x3e344486	0.17604265
142	0xbe1721bd	-0.14758964
143	0x3b174de6	0.0023087203
144	0x3e8e91c0	0.27845573
145	0xbd1c3502	-0.03813649
146	0x3ee70f4a	0.45128852
147	0x3e2d77c8	0.16940224
148	0xbe854d10	-0.26035357
149	0x3e5d6be0	0.21623182
150	0x3e33ffd4	0.1757806
151	0x3d92f7fc	0.071762055
152	0x3d439862	0.047752745
153	0xbe0a4321	-0.1350217
154	0x3d1077f2	0.03527064
155	0xbf0648a5	-0.52454597
156	0xbbc7bc46	-0.006095442
157	0x3e1b64a0	0.15175104
158	0x3d454650	0.04816276
159	0xbd4ffd3c	-0.050778612
160	0x3e096556	0.13417563
161	0x3e9a3b14	0.30123198
162	0x3f00ceab	0.5031535
163	0x3c25564d	0.0100913765
164	0xbec481da	-0.3838032
165	0xbe7fb26d	-0.24970408
166	0xbd174013	-0.03692634
167	0x3e3c6b9b	0.18400423
168	0xbe13b781	-0.1442547
169	0x3e7ebd9c	0.24877018
170	0xbf025f88	-0.5092702
171	0x3e4c5514	0.1995433
172	0x3e85e23f	0.26149175
173	0xbdcabfdc	-0.098998755
174	0x3d3bffef	0.045898374
175	0xbd6baf96	-0.0575405
176	0x3deef200	0.116672516
177	0xbe378fa1	-0.17925884
178	0x3eae5080	0.34045792
179	0xbeb6f7e4	-0.35736
180	0xbdcb966b	-0.09940799
181	0x3e341e6a	0.17589727
182	0xbdeba108	-0.11505324
183	0x3b17ab3c	0.0023142835
184	0xbd93f505	-0.07224468
185	0xbd08e6d5	-0.033423264
186	0xbeb8d442	-0.3609944
187	0xbe752dfa	-0.2394332
188	0x3eb41ebf	0.35179707
189	0x3ec3fdea	0.3827966
190	0xbe2d039e	-0.16895911
191	0x3e041fee	0.12902805
192	0xbe201b4d	-0.15635414
193	0xbeb2fbb3	-0.34957656
194	0xbf1555eb	-0.58334225
195	0xbc3c9282	-0.01150954
196	0x3ee3c33a	0.44484884
197	0x3e948ccb	0.29013667
198	0x3d2fef9b	0.042953115
199	0xbe5a4290	-0.21314454
200	0xbe8c2570	-0.27372313
201	0x3d1b8906	0.037972473
202	0xbee602a2	-0.44923884
203	0xbe268368	-0.16261065
204	0x3e824d08	0.25449395
205	0xbe58d2d9	-0.21174182
206	0xbe2d3adf	-0.16916989
207	0xbd8bc507	-0.06824689
208	0x3e635c23	0.22203116
209	0x3da5beda	0.08093043
210	0x3eb04d88	0.34434152
211	0xbe787d9a	-0.24266663
212	0x3e14ab0a	0.14518371
213	0x3e149266	0.14508972
214	0x3e223bce	0.15843126
215	0x3ce11321	0.027474942
216	0xbe2fe7ab	-0.17178218
217	0x3e9c15b5	0.3048531
218	0xbf327e38	-0.69723845
219	0x3e851bec	0.25997865
220	0x3ea3c9ea	0.31989986
221	0xbdf4280d	-0.119217016
222	0x3d14b023	0.03630079
223	0xbd6f06d3	-0.058356117
224	0xbdda65b9	-0.10663933
225	0x3e625f8e	0.22106764
226	0x3e97e5d1	0.29667524
227	0x3ed7d307	0.4215319
228	0x3da38d56	0.07985942
229	0xbe1242ee	-0.14283344
230	0x3e1ba9b3	0.15201454
231	0x3da5f8b3	0.08104076
232	0xbce28002	-0.02764893
233	0xbe9867c3	-0.29766664
234	0xbf0b028e	-0.54300773
235	0xbeeb6847	-0.45977995
236	0x3e8603a0	0.2617464
237	0x3d2cfe4b	0.0422347
238	0x3d9a85b5	0.07545034
239	0x3da94118	0.08264369
240	0x3d840319	0.06445903
241	0xbe3b4f18	-0.1829189
242	0x3d801983	0.06254866
243	0xbf3631b3	-0.71169585
244	0xbc4c5978	-0.012472503
245	0x3e514d7e	0.20439717
246	0x3d87aa93	0.06624331
247	0xbd70ef36	-0.05882188
248	0x3ec22c33	0.37924346
249	0x3e0d9d12	0.13829449
250	0x3f16a4ad	0.58845025
251	0xbed12fe5	-0.40856853
252	0x3e7e19b7	0.24814497
253	0x3e7c3c58	0.24632394
254	0x3e794744	0.24343592
255	0x3c835d24	0.016035624

self_encoder_1.bias f4 [32]
0	0xbd990814	-0.07472244
1	0xbd82e0da	-0.06390543
2	0xbda3e416	-0.08002488
3	0xbe48c903	-0.1960793
4	0x3dc707fd	0.097183205
5	0x3e1e3528	0.15449965
6	0x3d8e1bf6	0.06938927
7	0x3c8b99f3	0.017041182
8	0x3dcb61a9	0.099307366
9	0xbdccfa89	-0.10008723
10	0xbc049093	-0.00809111
11	0xbdccc4e0	-0.099984884
12	0x3d6690ee	0.05629056
13	0xbcfda4d5	-0.030962387
14	0x3ee69c63	0.4504119
15	0x3e300a66	0.17191467
16	0x3cbfe0cb	0.02342262
17	0xbdfbb25b	-0.12289878
18	0x3c250ce2	0.010073872
19	0x3d02cce5	0.031933684
20	0xbbbf8a13	-0.005845317
21	0xbe7456b8	-0.23861206
22	0x3d83129b	0.06400033
23	0x3d27a89c	0.040932283
24	0x3c0b89f2	0.008516775
25	0x3d8ee7fb	0.069778405
26	0xbdc6fa4c	-0.09715709
27	0x3e0c586f	0.1370561
28	0x3ea93349	0.3304694
29	0xbd3d97bd	-0.046287287
30	0x3e3376be	0.17525765
31	0x3d9c6066	0.07635574

self_encoder_2.weight f4 [16, 32]
0	0xbe4020e6	-0.1876255
1	0xbe2bbb6e	-0.16770718
2	0xbe3d979d	-0.18514867
3	0x3e6bfd0d	0.2304575
4	0xbd6d201b	-0.057891946
5	0x3e39ecb0	0.18156695
6	0x3e74255a	0.23842373
7	0xbd0a8783	-0.03382064
8	0xbcc16bb2	-0.023610923
9	0x3e6c1be7	0.23057519
10	0xbe491116	-0.19635424
11	0xbd033c5f	-0.032039996
12	0xbdff571d	-0.124677874
13	0x3e1aa957	0.1510366
14	0x3d97b721	0.07407976
15	0xbe575ced	-0.21031542
16	0x3e5dfeeb	0.21679275
17	0xbc5cb915	-0.013471861
18	0xbe15b86d	-0.14621134
19	0xbe9ba30f	-0.3039784
20	0x3df03c9f	0.117303126
21	0xbde3e206	-0.11127095
22	0x3d2a4e36	0.041578494
23	0x3df36d50	0.11886084
24	0xbd1f2485	-0.038853187
25	0xbd5aec15	-0.0534478
26	0xbd2b3cea	-0.04180614
27	0x3d9559f5	0.072925486
28	0xbe0f3e65	-0.13988645
29	0xbd203246	-0.039110444
30	0x3da2d989	0.07951648
31	0xbd600b86	-0.05469849
32	0x3e7fe948	0.24991333
33	0x3e0151bf	0.1262884
34	0x3e44e740	0.1922884
35	0xbe0dbe81	-0.13842203
36	0xbdafd1dc	-0.085849494
37	0xbdbac051	-0.09118713
38	0xbdae8e09	-0.08523185
39	0xbdb03c42	-0.08605243
40	0x3d2655eb	0.04060928
41	0xbe2d2441	-0.16908361
42	0x3dca88a3	0.09889343
43	0x3e42dff9	0.19030751
44	0xbdd11800	-0.10209656
45	0xbdb1896f	-0.086687915
46	0x3df37bdd	0.118888594
47	0x3d6aff9d	0.057372678
48	0x3de219a5	0.110400476
49	0xbd89bdae	-0.06725632
50	0xbbc5d1af	-0.006036959
51	0x3d851552	0.06498207
52	0xbdc9ba84	-0.09850028
53	0x3da01183	0.0781584
54	0x3d841a78	0.06450361
55	0xbd910395	-0.07080761
56	0x3de3711b	0.111055575
57	0xbdd38a40	-0.103291035
58	0x3e5a6646	0.21328077
59	0x3dcf7518	0.10129756
60	0x3cf69ffd	0.030105585
61	0xbd233036	-0.0398409
62	0x3e715222	0.23566487
63	0x3e16c1af	0.14722322
64	0xbe7a1ca8	-0.24424994
65	0xbd679992	-0.05654294
66	0xbd9ae2cd	-0.0756279
67	0x3d7e9b7a	0.062159993
68	0x3dca55a7	0.09879618
69	0x3de7c4b2	0.113168135
70	0x3e3d6d02	0.18498614
71	0x3d347ad1	0.04406244
72	0x3c5e3f25	0.0135648595
73	0x3eaf7292	0.34267098
74	0x3d80dc0f	0.06291973
75	0xbe3d8294	-0.18506843
76	0x3e7a001d	0.24414106
77	0x3c8efa7a	0.01745342
78	0x3cba6949	0.022755282
79	0xbcfd8596	-0.030947488
80	0x3e16a072	0.14709643
81	0xbe5b471c	-0.21413845
82	0x3d787178	0.060655087
83	0xbe4d5b46	-0.2005435
84	0xbd778230	-0.06042689
85	0x3e7ba03b	0.24572842
86	0xbdd2eb49	-0.10298783
87	0x3d9f9ae5	0.07793216
88	0x3d421ef5	0.047392804
89	0xbd0e50de	-0.03474509
90	0xbe457a76	-0.19284996
91	0x3e8f540d	0.27993813
92	0xbca39f02	-0.019973282
93	0xbd8d576d	-0.06901441
94	0xbe2d3ffe	-0.16918942
95	0xbe2e609f	-0.17029046
96	0x3e67ebf1	0.22648598
97	0x3e3736bd	0.17891975
98	0x3d9338cc	0.071885675
99	0x3d173631	0.036916915
100	0x3d0759b7	0.033044543
101	0x3e202990	0.15640855
102	0x3e2641d4	0.16236049
103	0x3e8d6921	0.2761927
104	0x3dfc329a	0.12314339
105	0x3e04355e	0.12910983
106	0x3e937b77	0.28805134
107	0x3e0ca64b	0.1373531
108	0x3dadfd29	0.08495552
109	0x3d962ab9	0.073323674
110	0x3e7a9a6d	0.24472971
111	0x3dca07e6	0.09864788
112	0x3d4b60cf	0.04965287
113	0x3e565297	0.20929943
114	0x3df3f2ec	0.11911568
115	0x3dfddd64	0.123957425
116	0x3c2e4673	0.010636914
117	0x3e054090	0.1301291
118	0x3dab7d5d	0.083735205
119	0x3e5de11e	0.21667907
120	0xbb1b082c	-0.0023655994
121	0x3e8fb14e	0.2806496
122	0x3e03163e	0.12801453
123	0x3e1944ba	0.14967623
124	0x3e4c5273	0.19953327
125	0xbd19394f	-0.03740817
126	0xbc62040c	-0.01379491
127	0x3deb6c2b	0.11495241
128	0xbe494868	-0.19656527
129	0x3e85331d	0.2601556
130	0x3df4feda	0.119626716
131	0x3e4cd2b9	0.2000226
132	0x3e05c756	0.13064322
133	0x3c9d0c68	0.019170955
134	0xbe5b2353	-0.21400194
135	0xbd88ee24	-0.06686047
136	0x3e50ee75	0.20403464
137	0xbdc89ec0	-0.09795904
138	0x3e605e3f	0.21910952
139	0x3df32abe	0.11873387
140	0x3e504691	0.20339419
141	0x3d7b0ca6	0.06129136
142	0xbcdf0745	-0.027225146
143	0xbd7f9a9e	-0.062403314
144	0xbe114b49	-0.14188875
145	0xbb12c412	-0.00223947
146	0x3beeae0f	0.007283933
147	0x3d8c84dd	0.06861279
148	0xbe43d796	-0.19125208
149	0xbe0f6760	-0.14004278
150	0xbd28f957	-0.041253414
151	0x3e451542	0.1924639
152	0x3e110baa	0.14164606
153	0x3dc4ab95	0.09603039
154	0xbe776705	-0.24160393
155	0x3c221ac5	0.009894078
156	0xbe215458	-0.15754831
157	0xbbdf2a9a	-0.0068104984
158	0xbddbfc83	-0.10741522
159	0xbdf92d98	-0.121668994
160	0x3e8e2a6c	0.2776674
161	0xbe70e00c	-0.23522967
162	0xbe15812e	-0.1460006
163	0x3df47dbe	0.11938046
164	0x3e009c4b	0.12559621
165	0x3e0887a8	0.13332999
166	0x3e758a91	0.2397864
167	0xbe2617a6	-0.16219959
168	0x3d2bdb53	0.04195721
169	0x3e4e11ee	0.20124027
170	0xbe59667c	-0.21230501
171	0x3d919a3a	0.071094945
172	0x3dc8812a	0.09790261
173	0x3ddb2d93	0.10702052
174	0xbdf15bc6	-0.117850825
175	0xbdb53ae3	-0.088491224
176	0x3dfa9c9d	0.12236903
177	0x3ccc27bb	0.024921289
178	0x3e2e2447	0.17006026
179	0xbe70d056	-0.23516974
180	0xbdc4ed0d	-0.09615526
181	0xbcb760b8	-0.022384986
182	0xbd132caa	-0.035931267
183	0xbe5c8d1b	-0.21538202
184	0xbe2cbdf3	-0.16869335
185	0x3df4beba	0.11950441
186	0x3dbc750f	0.09202015
187	0xbe4bdc48	-0.1990825
188	0x3de36e1a	0.111049846
189	0xbdbb41cc	-0.09143409
190	0xbc0c4b38	-0.008562855
191	0x3d8cca2a	0.06874497
192	0xbe73a0e5	-0.23791845
193	0xbe10c4fc	-0.14137644
194	0xbe3b961d	-0.18318982
195	0xbc8ce772	-0.017200205
196	0x3e0d5bb7	0.13804518
197	0xbd3e4682	-0.04645396
198	0x3e0f8346	0.1401492
199	0xbc4fda4e	-0.012686325
200	0x3d972b55	0.07381312
201	0x3e010662	0.12600091
202	0x3dc426aa	0.09577687
203	0xbd367ccd	-0.044552613
204	0x3df9a891	0.121903546
205	0xbe0351eb	-0.12824218
206	0xbc51a53d	-0.0127957435
207	0xbd2a3bae	-0.04156082
208	0x3d6e9ff9	0.05825803
209	0xbd6263eb	-0.05527107
210	0xbb88c3a1	-0.0041737114
211	0xbe0f0eb5	-0.13970454
212	0xbe3c724f	-0.1840298
213	0x3c1b2b97	0.009470842
214	0xbd289a41	-0.041162733
215	0xbdd2457a	-0.10267158
216	0xbd9b4e9a	-0.075833514
217	0x3dce22db	0.10065242
218	0xbd2418b4	-0.04006262
219	0x3e81a7d8	0.25323367
220	0x3e2c509f	0.1682763
221	0xbe4f1f0c	-0.20226687
222	0x3d67f8ff	0.056633946
223	0xbd0d85ae	-0.034551315
224	0x3dd9ac0b	0.10628518
225	0xbda65ac1	-0.08122779
226	0xbd49beb7	-0.049254145
227	0xbd053bbd	-0.032527674
228	0x3e3f411e	0.18677184
229	0x3e4cdd63	0.20006327
230	0x3e0caf05	0.1373864
231	0x3debf3e5	0.115211286
232	0x3e581679	0.21102323
233	0xbda82273	-0.08209696
234	0xbda8489c	-0.08216974
235	0x3d37c6b2	0.044867225
236	0x3e315744	0.17318445
237	0x3dfd4541	0.12366725
238	0x3d9460a9	0.07244999
239	0xbd17fd80	-0.03710699
240	0x3e6f8dfc	0.23394006
241	0x3e4b080e	0.19827291
242	0x3d08485b	0.03327213
243	0x3d066d4d	0.03281908
244	0x3e40b54e	0.18819162
245	0x3e494396	0.19654688
246	0x3e16c3f7	0.14723192
247	0x3e5d1047	0.2158824
248	0x3de53628	0.1119197
249	0x3e387ea2	0.18017057
250	0x3d3a8437	0.045536246
251	0xbd2a90e8	-0.0416421
252	0xbbf96b1c	-0.0076116454
253	0x3e11e1e6	0.1424633
254	0xbbbc5142	-0.0057469914
255	0x3e4e3d6c	0.20140618

self_encoder_2.bias f4 [16]
0	0xbb829b7d	-0.003985821
1	0x3d94d533	0.07267227
2	0xbe12b58c	-0.14327067
3	0x3d123728	0.035697132
4	0x3e07fc81	0.13279916
5	0x3debfa9a	0.11522408
6	0x3d3e3c1c	0.046444044
7	0x3df48dd8	0.11941117
8	0x3dda279b	0.106520854
9	0x3ce2f381	0.027704002
10	0x3dbd2176	0.09234898
11	0x3dbae86c	0.09126362
12	0x3dc9704e	0.098358735
13	0xbe5901d4	-0.21192104
14	0x3c96923f	0.018380282
15	0x3d8497ee	0.06474291

neighbor_encoder_1.weight f4 [32, 4]
0	0xbd6c13b0	-0.057635963
1	0xbdd2d49b	-0.102944575
2	0xbee38af2	-0.44441944
3	0x3efad953	0.4899393
4	0xbd43e2ca	-0.047823705
5	0xbe111a4e	-0.1417019
6	0xbeade1d0	-0.33961344
7	0x3ed82f55	0.4222361
8	0x3e96d391	0.29458287
9	0x3ebdadf2	0.37046772
10	0xbd83bccd	-0.06432495
11	0x3e845190	0.25843477
12	0x3dc128dc	0.094316214
13	0xbe5901b6	-0.21192059
14	0x3da95135	0.08267442
15	0x3e786a19	0.24259223
16	0x3cf2f350	0.029657036
17	0x3eed355d	0.46329775
18	0xbf007762	-0.50182164
19	0x3e8c0357	0.27346298
20	0x3e47208f	0.19446014
21	0xbf0b53d7	-0.54424804
22	0xbec20ce1	-0.3790045
23	0xbef8b759	-0.48577383
24	0xbc716294	-0.0147329755
25	0x3d2844ef	0.041081365
26	0x3ec14a85	0.37752166
27	0xbed63d74	-0.4184376
28	0x3e63ed3d	0.22258468
29	0xbe6c5ff3	-0.23083477
30	0x3f0b1e4f	0.5434312
31	0x3e1fb4d0	0.15596318
32	0xbe0cee0d	-0.13762684
33	0xbce0ddc4	-0.027449496
34	0x3e87bd43	0.26511583
35	0xbedf6e79	-0.4363897
36	0xbeab5e87	-0.33470556
37	0x3effd7fb	0.49969468
38	0x3ed480cb	0.4150451
39	0x3eabf232	0.33583218
40	0x3ef51ecd	0.47875062
41	0x3ea5f663	0.3241454
42	0x3df6f36f	0.1205815
43	0xbd7975ff	-0.060903545
44	0x3ed4e519	0.41581038
45	0x3d450ac3	0.048105966
46	0xbda642bd	-0.08118198
47	0xbdc804e1	-0.097665556
48	0xbe5def8a	-0.21673408
49	0xbe9a8dd9	-0.30186346
50	0x3abeef49	0.0014567162
51	0xbdd40942	-0.10353328
52	0xbeba0d16	-0.3633811
53	0x3eb049c7	0.34431288
54	0xbf0b7c6f	-0.54486746
55	0xbe0c25fb	-0.13686363
56	0xbe88853c	-0.2666415
57	0x3e7243c6	0.23658666
58	0xbeee6655	-0.46562448
59	0xbdb89cc9	-0.090142794
60	0x3b927992	0.0044700587
61	0xbe54f76f	-0.20797513
62	0xbe05bb3e	-0.13059708
63	0xbec6b9b5	-0.38813558
64	0xbe0f2859	-0.13980235
65	0xbcfc975d	-0.030833894
66	0xbf020fee	-0.50805557
67	0xbded1816	-0.1157686
68	0xbea4ba5f	-0.3217344
69	0xbe84bb60	-0.25924206
70	0x3e1cbecf	0.15307163
71	0xbe5fb508	-0.21846402
72	0x3e9143cf	0.28372046
73	0xbe5aca33	-0.21366195
74	0x3e8d8c4b	0.27646098
75	0x3dff2edd	0.1246011
76	0x3cd24399	0.025666999
77	0x3e16122b	0.14655368
78	0x3e24c4c5	0.16090687
79	0x3e2463b2	0.16053656
80	0xbe01c237	-0.12671743
81	0xbe1c223b	-0.15247433
82	0x3e520d62	0.20512918
83	0xbf04d855	-0.51892596
84	0x3f0ebd8f	0.55757993
85	0x3ec529ad	0.3850836
86	0xbdf406ec	-0.11915383
87	0x3e1dca4b	0.154092
88	0xbed8bef7	-0.42333195
89	0xbe8fd834	-0.28094637
90	0x3e52f846	0.20602521
91	0xbe5ae0be	-0.21374795
92	0xbdef9e04	-0.11700061
93	0xbd20545e	-0.03914296
94	0xbee86184	-0.453869
95	0xbde17c55	-0.110100426
96	0x3ec07c68	0.37594914
97	0x3ebc0db2	0.367292
98	0xbdf5b923	-0.11998203
99	0x3e93660a	0.28788787
100	0x3e3444d9	0.17604388
101	0xbec8d0a7	-0.3922169
102	0x3e252ee1	0.16131164
103	0x3ee3d76a	0.44500285
104	0x3db64ff6	0.0890197
105	0x3eacf774	0.33782542
106	0x3e977ce8	0.29587483
107	0xbf0403de	-0.515684
108	0xbe6b96ef	-0.23006795
109	0x3ed655a4	0.41862214
110	0x3d77f41b	0.06053553
111	0xbeb84214	-0.35987914
112	0x3e0c30fa	0.13690558
113	0xbee6a4d0	-0.45047617
114	0xbd9bdc3a	-0.07610364
115	0xbe87c0ec	-0.26514375
116	0x3edab883	0.42718896
117	0xbe16b76a	-0.14718404
118	0x3ec35b0e	0.38155407
119	0x3e6d4acd	0.23173065
120	0x3e422be4	0.18962055
121	0xbf0b012f	-0.5429868
122	0x3e959674	0.2921635
123	0xbec66634	-0.3874985
124	0xbe940ecf	-0.28917548
125	0xbeb1fdb8	-0.34763885
126	0x3ec5953c	0.3859042
127	0xbe068885	-0.13138016

neighbor_encoder_1.bias f4 [32]
0	0x3d8414d9	0.06449289
1	0xbd8de24d	-0.06927929
2	0x3ebebe80	0.37254715
3	0x3d252bdd	0.040325034
4	0x3f426013	0.7592785
5	0x3f0b84e5	0.54499656
6	0xbe633846	-0.22189435
7	0x3eb56ed0	0.35436106
8	0x3e7494f3	0.23884945
9	0x3f1b36ce	0.606305
10	0xbe68d900	-0.22739029
11	0x3e84161f	0.25798127
12	0xbe16e390	-0.14735246
13	0xbd1eacf5	-0.038739163
14	0xbe2b5aa8	-0.16733801
15	0x3e967ed0	0.29393625
16	0x3b8069f0	0.0039188787
17	0x3e277323	0.16352515
18	0x3d7bc2e6	0.061465167
19	0x3d490f6e	0.04908698
20	0xbe2d882f	-0.16946481
21	0x3f1f6e79	0.6227794
22	0x3f088b30	0.53337383
23	0x3eb48041	0.352541
24	0x3eefea86	0.46858615
25	0xbe47374d	-0.1945469
26	0x3e049d0f	0.12950538
27	0xbe6bf8c3	-0.23044114
28	0xbeb89893	-0.36053905
29	0xbca3f955	-0.020016352
30	0x3e2bcd81	0.16777612
31	0xbea3de32	-0.3200546

neighbor_encoder_2.weight f4 [16, 32]
0	0xbab2225c	-0.0013590562
1	0xbe44b4d1	-0.19209601
2	0xbe097ae5	-0.13425787
3	0xbde46b27	-0.1115325
4	0xbe267dfc	-0.16258997
5	0x3d8394be	0.06424855
6	0xba828695	-0.0009958321
7	0xbd8913c0	-0.0669322
8	0xbe0b7651	-0.13619353
9	0xbdc08cd0	-0.09401858
10	0xbc96d99f	-0.018414317
11	0xbe24533e	-0.1604738
12	0xbdcf9109	-0.10135085
13	0xbe478a2b	-0.194863
14	0xbde3b126	-0.11117773
15	0x3b512973	0.0031915575
16	0xbdbd9bf7	-0.092582636
17	0xbde91ab6	-0.11382048
18	0xbd900750	-0.07032645
19	0xbd9d5c40	-0.07683611
20	0xbe50653d	-0.2035112
21	0xbd890fbb	-0.066924535
22	0xbded0979	-0.115740724
23	0x3b9adc66	0.0047259806
24	0xbe198f94	-0.14996177
25	0xbd8798ba	-0.06620927
26	0xbb8c4e0a	-0.004281764
27	0x3bfa8366	0.0076450584
28	0xbd214ef8	-0.03938195
29	0xbc4b4c07	-0.012408263
30	0x3d8eb132	0.06967391
31	0xbd8c1c1a	-0.068412974
32	0xbe01922d	-0.12653418
33	0xbe0be938	-0.13663185
34	0x3d7f16cc	0.0622776
35	0xbe121ed1	-0.14269568
36	0xbe3a5889	-0.18197836
37	0xbcaefbc3	-0.021360284
38	0x3d5c1100	0.05372715
39	0xbe5a13ec	-0.21296662
40	0x3c235e4d	0.0099712135
41	0xbe37a2d2	-0.17933205
42	0x3dbcc421	0.09217096
43	0xbe16989f	-0.14706658
44	0x3c83d601	0.016093256
45	0xbd1052f4	-0.03523536
46	0xbe6107fe	-0.21975705
47	0xbdab0b02	-0.08351709
48	0xbe8050d5	-0.2506167
49	0xbe2bfba6	-0.16795215
50	0xbe36e91e	-0.17862365
51	0xbe38f03c	-0.18060392
52	0x3c82a033	0.01594553
53	0xbe89a487	-0.26883337
54	0xbe1a3c7d	-0.15062137
55	0xbe825ea1	-0.2546282
56	0xbe034d3f	-0.12822436
57	0x3d746b3d	0.059672583
58	0xbdc3c4e6	-0.0955904
59	0xbe1daa11	-0.15396906
60	0xbe39ca4d	-0.18143578
61	0xbe65d313	-0.224438
62	0xbd9be9c8	-0.076129496
63	0xbe15085e	-0.14553973
64	0xbe18d859	-0.1492628
65	0x3aeadf43	0.001791932
66	0xbca57497	-0.020197196
67	0x3d0f5794	0.03499563
68	0xbe470c98	-0.19438398
69	0x3d969f55	0.07354609
70	0x3d82618a	0.0636626
71	0x3d9315e5	0.071819104
72	0xbe2e90c6	-0.17047414
73	0x3d4e985a	0.050438263
74	0x3d314cf1	0.043286268
75	0xbd889f5c	-0.066710204
76	0xbdfa2841	-0.12214709
77	0xbcc57c3a	-0.024107087
78	0xbd7e7982	-0.062127598
79	0xbe5afc44	-0.21385294
80	0xbd1e25c4	-0.038610235
81	0xbe0e2f94	-0.13885337
82	0xbded7de1	-0.11596275
83	0x3ca791ad	0.020455206
84	0xbd806fad	-0.062713005
85	0xbe6d3ea0	-0.23168421
86	0xbd6e016c	-0.058106825
87	0xbe6752cc	-0.22590178
88	0x3d7d6164	0.061860457
89	0xbd9711fa	-0.07376476
90	0xbd618509	-0.055058513
91	0xbd9b5098	-0.075837314
92	0xbb950937	-0.0045482176
93	0xbdf30097	-0.11865347
94	0x3d049acf	0.0323742
95	0xbe545333	-0.20734863
96	0x3e5f1411	0.21784998
97	0x3cc48ce1	0.023992958
98	0x3e5fd4a6	0.21858463
99	0xbd2cf3ff	-0.04222488
100	0xbc850fe4	-0.016242929
101	0x3dc36616	0.09540956
102	0xbd1e85f5	-0.03870197
103	0x3e69849a	0.2280449
104	0x3dd42436	0.10358469
105	0x3e74c3ce	0.23902819
106	0x3e5fe701	0.21865465
107	0xbceb0044	-0.02868665
108	0x3e296e64	0.16546017
109	0x3e62b3dd	0.22138925
110	0x3e8b035c	0.27151
111	0x3d66564c	0.056234643
112	0xbd076aaa	-0.033060707
113	0xbd3ccbca	-0.046092786
114	0x3e29c70c	0.16579837
115	0xbd1c3792	-0.038138933
116	0x3cb4e77e	0.02208304
117	0x3e63225d	0.22181077
118	0x3df80353	0.12110009
119	0x3e0f601d	0.14001508
120	0xbd44fe1b	-0.048093896
121	0x3d911d2c	0.07085642
122	0x3e4cf3b2	0.20014837
123	0xbd08e771	-0.033423845
124	0x3db03997	0.086047344
125	0xbd6b64c1	-0.057469133
126	0x3e24e31b	0.16102259
127	0x3e7f688e	0.24942228
128	0x3e7da6ee	0.2477071
129	0xbdbcae7d	-0.092129685
130	0x3e72a96b	0.2369744
131	0x3e316a41	0.17325689
132	0x3e2f62b0	0.1712749
133	0x3de6b9ce	0.11265908
134	0x3d04eba6	0.032451294
135	0xbc85a70b	-0.016315004
136	0xbd5632bb	-0.052294474
137	0x3e1c1a3a	0.1524438
138	0x3e3e0db2	0.18559912
139	0x3d09d3fd	0.033649433
140	0x3e3d7a31	0.18503644
141	0x3d25c958	0.04047522
142	0xbd75b0de	-0.059983127
143	0xbdd49edd	-0.10381863
144	0xbc7954b0	-0.015217945
145	0x3d9e881f	0.07740807
146	0x3e20fe35	0.15721972
147	0x3cc0487c	0.023472063
148	0x3de187c9	0.11012227
149	0xbd1770b5	-0.03697272
150	0x3da51b4d	0.08061848
151	0x3e0bbcb0	0.13646197
152	0xbdc6b966	-0.09703331
153	0x3e62d378	0.22150981
154	0xbdc1462b	-0.094372116
155	0x3e4ea44f	0.20179866
156	0xbc498e3a	-0.012301976
157	0xbca35da1	-0.019942107
158	0x3c4e0ed1	0.012576775
159	0x3d2894e3	0.041157614
160	0x3e1293ab	0.14314143
161	0x3d0e5124	0.03474535
162	0xbc26f2fb	-0.010189767
163	0xbd9adf13	-0.07562079
164	0x3dfb3c37	0.122673444
165	0xbd588804	-0.05286409
166	0x3dfbb50b	0.122903906
167	0x3e6e86fb	0.23293678
168	0x3d8ab3f9	0.06772608
169	0xbc84b0cc	-0.016197585
170	0x3e761243	0.24030404
171	0x3e344e3e	0.17607972
172	0xbdeef9db	-0.1166875
173	0x3d1eecf3	0.03880019
174	0x3e0d0fd1	0.13775565
175	0x3d7ee915	0.062234003
176	0x3e30ff9d	0.17285009
177	0x3db517eb	0.088424526
178	0xbd6714a7	-0.05641618
179	0x3e2ae377	0.16688333
180	0xbbc2ec20	-0.0059485584
181	0xbbfd337f	-0.007727086
182	0x3e30834d	0.17237587
183	0xbd92cc34	-0.07167855
184	0x3e05174e	0.12997171
185	0xbc6e33e4	-0.014538739
186	0x3d421b4c	0.047389314
187	0x3ca9e4ee	0.020739045
188	0x3e43468b	0.19069879
189	0xbd53bfd0	-0.0516966
190	0x3e1c8137	0.15283667
191	0x3cb99f54	0.022658981
192	0x3dbfe5e3	0.09370019
193	0x3c9d5f9d	0.019210631
194	0x3d7b9ecf	0.06143075
195	0x3e4c5e79	0.19957913
196	0xbc8437f7	-0.016139967
197	0x3d6f8684	0.058477893
198	0x3e60e1c3	0.21961121
199	0xbcb2a96e	-0.021809306
200	0x3da64ab3	0.081197165
201	0x3e3c1de8	0.18370783
202	0x3e2791b8	0.16364181
203	0xbd1d3181	-0.03837729
204	0xbd2f5853	-0.042808842
205	0xbbfb2925	-0.007664817
206	0x3dc1ff6a	0.094725445
207	0xbd3c0c73	-0.04591031
208	0x3e07d03a	0.13263026
209	0xbc890385	-0.016725311
210	0x3e789cc6	0.24278554
211	0x3dd4a683	0.10383322
212	0x3df6ad8b	0.120448194
213	0x3e01048f	0.12599395
214	0x3d7c9032	0.061660953
215	0x3d3dfb78	0.046382397
216	0x3e814b0f	0.25252578
217	0x3d4fe908	0.050759345
218	0x3dce899a	0.10084839
219	0x3e6877d5	0.22701962
220	0xb8e146fa	-0.000107420565
221	0xbd4b75cf	-0.049672898
222	0x3dbebf4a	0.09313829
223	0x3daafbe0	0.083488226
224	0x3d0c085d	0.034187663
225	0xbe1981f8	-0.14990985
226	0x3b85da73	0.004084879
227	0xbdb00b68	-0.085959256
228	0x3e14d907	0.14535914
229	0xbcfb967d	-0.030711407
230	0x3e135047	0.14386092
231	0xbd904660	-0.07044673
232	0xbdda8c29	-0.10671265
233	0xbc14b1a8	-0.00907556
234	0xbdd8e703	-0.10590937
235	0xbd1f38dc	-0.038872585
236	0xbde7ab16	-0.11311929
237	0x3d841768	0.06449777
238	0xba942ffa	-0.0011305802
239	0xbe061810	-0.13095117
240	0x3d834460	0.06409526
241	0xbde5bf55	-0.11218134
242	0x3e0c70dd	0.13714929
243	0x3c84ccf3	0.016211009
244	0x3dd73578	0.10508245
245	0xbd538fe3	-0.051650893
246	0x3de949ca	0.11391027
247	0xbe541fef	-0.20715307
248	0xbc41e091	-0.011833326
249	0x3d83aacc	0.06429061
250	0xbd84ff2d	-0.064939834
251	0xbdcd879f	-0.10035633
252	0x3d27b651	0.040945355
253	0xbe3ea8aa	-0.18619028
254	0xbe18a14a	-0.14905277
255	0xbe51495d	-0.20438142

neighbor_encoder_2.bias f4 [16]
0	0xbe42f027	-0.19036923
1	0xbd7a74cf	-0.061146554
2	0xbe7911bb	-0.2432317
3	0x3e183eab	0.14867656
4	0x3e5ab2d8	0.21357286
5	0xbd659d8b	-0.056058448
6	0x3e928877	0.2861974
7	0x3c9e27e7	0.019306136
8	0x3d4a098f	0.049325522
9	0xbd39cba2	-0.045360215
10	0xbe792d20	-0.2433362
11	0xbd2c9e1e	-0.04214298
12	0x3dd4318c	0.10361013
13	0x3dc44ad2	0.09584583
14	0x3db3f805	0.0878754
15	0x3c987254	0.018609203

linear1.weight f4 [64, 32]
0	0xbe1b7056	-0.15179572
1	0x3e24f689	0.1610967
2	0xbe8e9b09	-0.27852657
3	0xbd0c7d69	-0.034299288
4	0xbe478307	-0.19483577
5	0xbdfebd72	-0.124384776
6	0xbddd5d6c	-0.108088344
7	0x3e6f5a2a	0.23374239
8	0x3da55f1e	0.08074783
9	0x3c91e5ef	0.017809836
10	0xbd510d42	-0.051038034
11	0xbd1a05a2	-0.037603028
12	0x3e0cbfbf	0.1374502
13	0xbe38af4a	-0.18035617
14	0x3cf92189	0.030411499
15	0xbd17a029	-0.037017975
16	0xbe6a0cc7	-0.22856437
17	0xbcf05754	-0.029338516
18	0x3da4f27b	0.08054062
19	0xbaf2e9a7	-0.0018532769
20	0x3d278a37	0.040903296
21	0xbd67894a	-0.056527413
22	0xbdaec955	-0.08534495
23	0x3e190724	0.1494413
24	0xbda86c14	-0.08223739
25	0xbddc1196	-0.10745542
26	0xbe4f29e6	-0.20230827
27	0x3d2a2212	0.0415364
28	0x3d0e250c	0.0347033
29	0x3e04122a	0.12897554
30	0xbe157ada	-0.14597645
31	0x3e2e0119	0.16992606
32	0x3e7ac489	0.24489035
33	0xbdfc04b0	-0.123055816
34	0xbde5b494	-0.11216083
35	0x3e14f0ea	0.14545026
36	0xbdb7f084	-0.089814216
37	0x3d8d3663	0.06895139
38	0x3d132ae5	0.03592958
39	0xbd392433	-0.045200538
40	0xbb825879	-0.003977832
41	0xbd1c01f0	-0.038087785
42	0xbe761454	-0.24031192
43	0xbdd6acd9	-0.10482187
44	0xbe0355c5	-0.12825687
45	0xbc886aeb	-0.016652545
46	0xbde7b376	-0.11313526
47	0x3e4e4bf3	0.2014616
48	0xbe239ca4	-0.15977722
49	0x3d5925b0	0.053014457
50	0xbd7ada22	-0.061243184
51	0x3e44c3a2	0.19215253
52	0x3e234072	0.15942553
53	0x3dc97517	0.09836786
54	0xbdc782c7	-0.09741741
55	0xbdb313d6	-0.08744018
56	0x3d90c396	0.07068555
57	0xbcf33a2f	-0.02969083
58	0xbe1daa06	-0.1539689
59	0x3deb7775	0.11497394
60	0xbdd760e2	-0.10516526
61	0x3bc444e3	0.0059896572
62	0xbde6f6df	-0.11277556
63	0x3cc0d9f6	0.023541432
64	0x3e5e42e3	0.21705203
65	0x3dd8c580	0.10584545
66	0x3e30f042	0.17279151
67	0xbe429536	-0.19002232
68	0xbd40d9f5	-0.04708286
69	0x3ced4864	0.028965183
70	0xbd8b20af	-0.06793343
71	0x3c826b35	0.01592026
72	0xbe0fc4fc	-0.14039987
73	0xbcb2b46c	-0.021814547
74	0xbd7557fa	-0.059898354
75	0x3dd9c653	0.106335305
76	0xbe0c98fa	-0.13730231
77	0xbe1f3041	-0.15545751
78	0x3d03f176	0.032212697
79	0x3e3f7997	0.18698727
80	0xbe0e8114	-0.13916427
81	0xbd40e4b2	-0.0470931
82	0x3e0639cd	0.13107987
83	0x3d979063	0.074005865
84	0x3dea0b77	0.11427968
85	0x3e125a70	0.14292312
86	0xbde46b3f	-0.11153268
87	0xbd9d377b	-0.07676598
88	0x3de5ba83	0.11217215
89	0x3d9214c4	0.07132867
90	0xbdf34cad	-0.11879859
91	0x3e1d2680	0.15346718
92	0x3dcbfaba	0.09959932
93	0xbd3d6a4b	-0.046243947
94	0x3c17a1a3	0.009254846
95	0xbde3b40f	-0.11118328
96	0xbd408193	-0.04699857
97	0x3df38595	0.11890713
98	0x3cea5869	0.02860661
99	0x3e27062c	0.16310948
100	0xbe2fec65	-0.17180021
101	0x3de7091b	0.112810336
102	0xbdef7146	-0.11691527
103	0x3d8f516f	0.06997954
104	0x3d1fd710	0.03902346
105	0xbdb83eea	-0.08996375
106	0xbe05ac1c	-0.13053936
107	0xbe2144d6	-0.15748915
108	0x3c1f8ec8	0.009738632
109	0xbe4cb72c	-0.1999175
110	0xbe47d5b8	-0.19515121
111	0x3e2055ef	0.15657781
112	0xbe813897	-0.25238487
113	0xbe40ecc1	-0.18840314
114	0xbe0595a6	-0.13045368
115	0x3e451ce7	0.19249307
116	0x3e31c85a	0.17361584
117	0xbd3f6ebc	-0.046736464
118	0x3cbbbee4	0.022918172
119	0xbe182ac3	-0.14860062
120	0x3dee0a96	0.11623113
121	0xbe07e045	-0.13269146
122	0xbdf8964d	-0.121380426
123	0x3e396597	0.1810516
124	0x3e617a6c	0.22019356
125	0x3e7472bb	0.23871891
126	0x3e22d632	0.15902022
127	0x3e60eb15	0.21964677
128	0x3e5f6c51	0.21818663
129	0x3d80efc3	0.06295731
130	0x3e5344c4	0.20631701
131	0x3cc692d9	0.024239944
132	0x3db1730f	0.08664524
133	0x3e3276d0	0.17428136
134	0xbe56d9dc	-0.20981544
135	0x3d5ff6a7	0.054678585
136	0xbda87612	-0.08225645
137	0x3dd35c12	0.103202954
138	0xbe2203c0	-0.15821743
139	0xbd1874a6	-0.03722062
140	0xbdf89204	-0.12137225
141	0xbe787f1e	-0.24267241
142	0xbe6a7d70	-0.22899413
143	0x3d8ea125	0.0696433
144	0xbe23abb2	-0.15983465
145	0xbd859557	-0.06522625
146	0x3bf72976	0.0075427843
147	0x3d2f2700	0.042761803
148	0xbc534f39	-0.012897306
149	0xbbb3e0ca	-0.0054894434
150	0x3d08c094	0.03338678
151	0x3df23562	0.11826588
152	0xbbdf2c9c	-0.006810738
153	0xbd0bc1bd	-0.03412031
154	0xbe602107	-0.21887599
155	0xbd6473c5	-0.05577447
156	0xbd761eab	-0.06008784
157	0x3e730246	0.23731336
158	0xbe175013	-0.1477664
159	0xbd162e44	-0.036665216
160	0xbce1dd32	-0.027571294
161	0xbdc5dc3d	-0.09661148
162	0xbd195df1	-0.037443105
163	0x3b801226	0.0039084135
164	0x3e7f5ec0	0.24938488
165	0xbe6f86b9	-0.23391236
166	0x3dd1a9ad	0.10237441
167	0xbdb51586	-0.08841996
168	0x3db59d24	0.08867863
169	0xbce64359	-0.028108286
170	0x3dce112b	0.10061868
171	0xbd9604a7	-0.07325106
172	0x3e6e3438	0.23262107
173	0xbe0a0f74	-0.13482457
174	0xbd6ca7d5	-0.057777245
175	0x3d7fa0e9	0.062409315
176	0xbe4b8ce8	-0.1987797
177	0xbbc04dd2	-0.005868652
178	0x3dc116d5	0.09428183
179	0x3e1626fa	0.14663306
180	0x3d20294b	0.03910188
181	0x3db20a01	0.08693314
182	0x3d8d2c21	0.068931825
183	0xbdcb70ad	-0.099336006
184	0xbd067b45	-0.032832403
185	0xbe16036c	-0.14649743
186	0xbe6069c6	-0.2191535
187	0xbdb299d4	-0.08720747
188	0xbdbfe7b3	-0.09370365
189	0x3e737e4f	0.23778652
190	0xbc635b2b	-0.013876717
191	0x3e06b4da	0.13154927
192	0x3e5c017d	0.21484943
193	0xbcdd4407	-0.027009977
194	0x3e594e6f	0.21221326
195	0x3d98cb0a	0.07460602
196	0x3d855530	0.06510389
197	0x3e0c8800	0.13723755
198	0x3e100be4	0.14067036
199	0xbda597c4	-0.080855876
200	0xbe2cca00	-0.16873932
201	0x3defedb6	0.11715262
202	0xbda392e9	-0.07987005
203	0xbd36a366	-0.044589423
204	0x3cba9f10	0.022780925
205	0x3d00754b	0.03136186
206	0x3deeb3f2	0.116554156
207	0x3e2d1622	0.16902974
208	0xbe27f4f1	-0.16402031
209	0x3d3b39d9	0.045709465
210	0xbcb65da7	-0.022261454
211	0xbcbd4fa6	-0.023109268
212	0xbdfc2474	-0.123116404
213	0x3d5ba761	0.05362642
214	0xbd9944b8	-0.0748381
215	0x3d456214	0.048189238
216	0xbdf4d160	-0.119539976
217	0x3db6101f	0.088897936
218	0xbe07c205	-0.13257606
219	0xbcfb3577	-0.030665142
220	0x3b8f9f39	0.0043829945
221	0xbb361962	-0.0027786125
222	0xbd212f1d	-0.03935157
223	0x3e266060	0.16247702
224	0x3e614421	0.21998645
225	0xbe292518	-0.16518056
226	0x3e5ace0b	0.21367662
227	0xbc0de56a	-0.008660654
228	0x3cacb216	0.021081012
229	0xbdb7177f	-0.089400284
230	0x3ab615bd	0.0013891977
231	0xbd45271e	-0.04813301
232	0xbd23a610	-0.03995329
233	0x3e0099e6	0.12558708
234	0x3d74b075	0.059738595
235	0xbe41036d	-0.18848963
236	0xbd00d0b2	-0.031449027
237	0xbe834b46	-0.25643367
238	0x3e04ee9b	0.12981646
239	0x3e4e574b	0.20150487
240	0xbe46e625	-0.1942373
241	0xbe0ced49	-0.13762392
242	0xbcd7982b	-0.026317677
243	0x3e368128	0.17822707
244	0x3d9a80db	0.075441085
245	0x3dd5b69c	0.104352206
246	0x3dc32390	0.095282674
247	0xbba64595	-0.005074213
248	0x3e6ec223	0.23316245
249	0xbce5c188	-0.028046384
250	0xbcbac331	-0.022798153
251	0x3e59e1bc	0.21277517
252	0x3d4c80a4	0.04992737
253	0xbcb4065a	-0.021975685
254	0xbe0d19c6	-0.13779363
255	0x3da3ff17	0.08007639

linear1.bias f4 [64]
0	0xbcf84051	-0.030304106
1	0x3dc6c98e	0.09706412
2	0xbcc19cde	-0.02363437
3	0x3e11a94f	0.14224742
4	0x3d5662eb	0.05234043
5	0x3e1dbdc4	0.15404421
6	0xbcb455c2	-0.022013549
7	0x3d9899a0	0.07451177
8	0x3e017dd9	0.12645663
9	0x3e0fc9ae	0.14041778
10	0xbdb9f66e	-0.09080206
11	0x3e05ee93	0.1307929
12	0x3e50cb37	0.2039002
13	0x3de96917	0.113969974
14	0x3e692138	0.22766578
15	0xbdfc94bb	-0.123330556
16	0x3d6c1a0f	0.05764204
17	0x3e77bdc2	0.2419348
18	0xbd520f9d	-0.05128442
19	0xbdbe8cdd	-0.09304211
20	0xbd3390dd	-0.043839324
21	0xbe14dfac	-0.14538449
22	0xbd21041f	-0.03931057
23	0xbc91e179	-0.017807709
24	0xbdb3a16d	-0.08771024
25	0x3e0d3dd7	0.13793121
26	0xbd68b967	-0.05681744
27	0x3d9c3ff5	0.07629386
28	0x3d44377f	0.047904488
29	0x3e2eeccf	0.17082523
30	0x3e229395	0.1587661
31	0x3dad3e67	0.08459168
32	0x3dfdf91d	0.1240103
33	0x3d644876	0.055733167
34	0x3bb4ca30	0.0055172667
35	0x3d1f6d7e	0.03892278
36	0x3de80f94	0.11331096
37	0x3d5610a8	0.05226198
38	0x3d645031	0.05574054
39	0xbd4fc81c	-0.05072795
40	0x3db4a458	0.088204086
41	0x3e12a17c	0.14319414
42	0x3e7aff2b	0.24511401
43	0x3e17e0a9	0.14831795
44	0x3b40d4e2	0.0029423763
45	0xbdc49f37	-0.0960068
46	0xbd8feb12	-0.07027258
47	0xbd9d47a8	-0.07679683
48	0x3cf10662	0.029421989
49	0xbd2c4332	-0.04205627
50	0x3e074801	0.13211061
51	0x3d8fd998	0.070239246
52	0xbcbb663d	-0.0228759
53	0x3b50bf95	0.0031852473
54	0xbc6c4b04	-0.014422182
55	0x3d45f03b	0.048324805
56	0xbe410843	-0.18850808
57	0x3e226a80	0.15860939
58	0x3e6a2d48	0.22868836
59	0x3d36ef92	0.044662066
60	0x3da11ea2	0.07867171
61	0xbc9bdd68	-0.019026473
62	0xbd83a8ea	-0.06428702
63	0x3e040282	0.12891582

linear2.weight f4 [16, 64]
0	0x3cf5cb50	0.030004174
1	0xbdd7dcda	-0.10540171
2	0xbe0f0b74	-0.13969213
3	0xbc8416a9	-0.016124086
4	0xbe195c63	-0.14976649
5	0x3db9bcdb	0.090692244
6	0x3cc919f0	0.0245485
7	0x3e46475b	0.19363157
8	0x3d1f0995	0.038827498
9	0xbd936202	-0.07196428
10	0xbcc44413	-0.023958242
11	0xb84584f3	-4.709228e-05
12	0x3e20b29d	0.15693136
13	0x3caf2cbd	0.021383638
14	0xbd40b311	-0.04704577
15	0x3d50f373	0.05101342
16	0xbcbd71a3	-0.023125475
17	0x3ced8c13	0.028997457
18	0x3e3b5be1	0.18296768
19	0x3e2520c4	0.1612578
20	0x3ded0695	0.11573521
21	0xbd2b4846	-0.041816972
22	0x3ddbc51a	0.107309535
23	0x3d93428d	0.07190428
24	0xbd2d2c34	-0.042278484
25	0x3e18fdea	0.1494061
26	0x3cb0df46	0.02159084
27	0xbd1f1483	-0.03883792
28	0xbce66c95	-0.028127948
29	0x3e196214	0.1497882
30	0x3d8ec96c	0.06972012
31	0xbd83e8e2	-0.06440903
32	0x3cfbb51b	0.030726006
33	0x3e337161	0.1752372
34	0xbc81996a	-0.015820224
35	0x3d811125	0.06302098
36	0xbe0a64fc	-0.13515085
37	0x3da941ca	0.082645014
38	0x3dc34153	0.09533944
39	0xbd6ad345	-0.05733039
40	0x3e48fa53	0.19626741
41	0x3cfee65f	0.031115709
42	0x3c3adaff	0.011404752
43	0x3cf818a8	0.030285195
44	0x3e3bb002	0.1832886
45	0x3e0d8421	0.13819934
46	0xbd69590f	-0.0569697
47	0x3dde0c2b	0.108421646
48	0xba3e339f	-0.0007255617
49	0x3db94096	0.09045522
50	0xbd06bcfb	-0.03289507
51	0x3c809147	0.015694274
52	0x3a277007	0.0006387238
53	0x3e27b416	0.16377291
54	0xbda96a2d	-0.082722045
55	0x3de97408	0.11399084
56	0xbcba0a69	-0.022710042
57	0x3d0c2f8c	0.03422503
58	0x3d6346d2	0.05548746
59	0x3e36c16a	0.17847219
60	0xbe247c11	-0.16062953
61	0xbde49f99	-0.11163253
62	0x3d7e6861	0.062111262
63	0xbd6bb096	-0.057541452
64	0xbdd65c08	-0.10466772
65	0xbc2d0d04	-0.010562185
66	0x3d9dfb97	0.077140026
67	0xbdf9cb22	-0.12196948
68	0x3dd52f40	0.10409403
69	0x3d8a77e3	0.06761148
70	0xbd0117ca	-0.031516828
71	0xbd0666df	-0.03281295
72	0x3ae557f9	0.0017497531
73	0xbd7920d1	-0.06082231
74	0x3bc4921e	0.005998864
75	0xbde9ed05	-0.11422161
76	0x3d7447ce	0.05963879
77	0xbda7e069	-0.081971
78	0x3dc4eb93	0.09615245
79	0x3d64310d	0.05571084
80	0xbd2c93ec	-0.042133257
81	0xbdc46d03	-0.09591105
82	0xbda2bb38	-0.079458654
83	0xbda1336d	-0.07871137
84	0x3de6570d	0.11247072
85	0xbd16df48	-0.03683403
86	0xbdaf643d	-0.08564041
87	0x3d9a54d4	0.07535711
88	0xbd8375bf	-0.06418943
89	0xbd6aad35	-0.05729409
90	0x3c8f7bde	0.01751512
91	0x3dac88fd	0.08424566
92	0xbdb402aa	-0.08789571
93	0xbcebb991	-0.028775008
94	0x3ab99ca5	0.0014161064
95	0xbcd575f4	-0.026057221
96	0xbdf735ce	-0.12070809
97	0xbd8a005b	-0.06738349
98	0xbcd79870	-0.026317805
99	0xbd8d1cd7	-0.068902664
100	0x3b8c6c46	0.004285368
101	0x3d15f6db	0.036612373
102	0xbd844fb7	-0.06460517
103	0x3d563048	0.05229214
104	0x3de49e09	0.11162955
105	0x3df247b2	0.11830081
106	0x3d7120c6	0.058869146
107	0x3cc0fcee	0.023558106
108	0xbd0c760b	-0.034292262
109	0x3d672f74	0.05644174
110	0xbcb6b995	-0.02230529
111	0x3da6b33d	0.08139656
112	0x3ccd7c8a	0.025083799
113	0xbd64d83c	-0.05587028
114	0x3dd93e50	0.10607588
115	0xbd8fb6dc	-0.070172995
116	0xbdcfac4f	-0.10140287
117	0xbdf9e616	-0.122020885
118	0xbd8a2a8a	-0.06746395
119	0x3bb52675	0.005528266
120	0xbcb3abf1	-0.021932574
121	0xbde46a15	-0.11153046
122	0xbd4bf45b	-0.049793582
123	0xbce21e30	-0.027602285
124	0xbd13ca38	-0.036081523
125	0xbb7f3e0d	-0.0038946897
126	0x3cae9aad	0.02131399
127	0xbdd70338	-0.10498661
128	0x3d547bce	0.05187588
129	0x3db3e3c0	0.08783674
130	0x3df70973	0.12062349
131	0x3dfa3441	0.12216998
132	0x3da52403	0.08063509
133	0xbd9b7dbe	-0.07592343
134	0x3d815c39	0.06316418
135	0x3e47016e	0.19434139
136	0xbda8236d	-0.08209882
137	0x3d2e6de7	0.04258528
138	0x3dfed0f3	0.12442198
139	0x3deb60e9	0.114930935
140	0x3dc06d24	0.09395817
141	0xbc43fe0e	-0.011962427
142	0x3e3d7855	0.18502934
143	0x3c19db8c	0.009390723
144	0x3d689beb	0.05678932
145	0x3d04fcab	0.032467525
146	0xbd315a84	-0.043299213
147	0xbd6d2771	-0.057898942
148	0x3e1651da	0.14679661
149	0x3c2f1869	0.010686972
150	0xbd0be46c	-0.034153387
151	0xbdb3b913	-0.087755345
152	0x3de37f3e	0.11108254
153	0xbd64b837	-0.055839743
154	0xbd4f1e49	-0.05056599
155	0x3dda9576	0.10673039
156	0x3e044b72	0.12919405
157	0xbde67a02	-0.1125374
158	0x3ded9a5d	0.11601708
159	0x3cd89ce9	0.026442008
160	0x3e158da4	0.14604813
161	0xbd29583a	-0.041343905
162	0xbd81c402	-0.06336214
163	0x3d25395a	0.040337898
164	0x3d6b3958	0.057427734
165	0xbd8e2450	-0.0694052
166	0x3e407a17	0.18796574
167	0xbcc20a57	-0.023686571
168	0xbde16647	-0.11005836
169	0x3e49f081	0.19720651
170	0x3e20cdb4	0.1570347
171	0x3e1dd505	0.15413292
172	0x3d8e9c4e	0.069634065
173	0x3cbdaeae	0.023154583
174	0x3dfa2277	0.12213605
175	0x3d845d34	0.064630896
176	0xbdffd575	-0.124918856
177	0x3d881b06	0.06645779
178	0x3df522f9	0.11969561
179	0xbab6a1bd	-0.00139337
180	0x3e5aaa78	0.21354091
181	0xbe42a68e	-0.19008848
182	0x3e2a0fba	0.16607562
183	0x3dd84950	0.10560858
184	0x3d96f780	0.07371426
185	0x3cc0797e	0.023495432
186	0x3dd707cc	0.10499534
187	0xbe1fd62e	-0.15609047
188	0x3e562e34	0.20916063
189	0x3cbd4ad6	0.023106974
190	0x3cf3472a	0.02969702
191	0x3dad2c29	0.084556885
192	0xbb6b803a	-0.0035934583
193	0x3e54c241	0.20777227
194	0x3d157c88	0.036495715
195	0x3df76004	0.120788604
196	0x3e1f8706	0.15578851
197	0x3cc74339	0.024324046
198	0x3b892a7c	0.0041859727
199	0x3e5068f7	0.20352541
200	0xbe0b31bb	-0.1359319
201	0x3d1ad632	0.03780193
202	0x3cbe4800	0.023227692
203	0x3cd7dde4	0.026350923
204	0xbdb9443b	-0.09046217
205	0xbd637e0d	-0.055540133
206	0x3e26aba9	0.1627642
207	0xbd2f4a49	-0.042795453
208	0x3e14008d	0.14453335
209	0x3e220829	0.15823425
210	0x3ca30085	0.019897709
211	0xbddb900c	-0.10720834
212	0xbcd3ddf1	-0.025862666
213	0xbd2c0866	-0.042000197
214	0xbc886845	-0.016651282
215	0xbe227fbc	-0.1586904
216	0x3e36f6f2	0.1786764
217	0x3cef188f	0.029186515
218	0xbdd685ef	-0.104747646
219	0x3d666f13	0.056258272
220	0x3e1af47d	0.15132327
221	0xbe191ce6	-0.1495243
222	0xbd08dc2c	-0.033413097
223	0xbcd27c01	-0.025693895
224	0xbcf523a1	-0.029924216
225	0x3df0049a	0.11719628
226	0xbd9fe2c8	-0.07806927
227	0x3dd80e50	0.10549605
228	0x3e358e95	0.17730172
229	0xbd96f14a	-0.07370241
230	0x3c556e64	0.013026807
231	0x3d72e9a2	0.05930484
232	0xbd4683bd	-0.04846548
233	0x3e333720	0.17501497
234	0x3e1cb842	0.15304664
235	0x3e1c0231	0.15235211
236	0x3dc9e8c7	0.09858852
237	0xbd04a799	-0.032386396
238	0x3e3c10fe	0.18365857
239	0x3e347d6c	0.1762597
240	0xbb94aeef	-0.0045374553
241	0x3e39459e	0.18092963
242	0x3e2ca19c	0.16858524
243	0xbd85c934	-0.06532517
244	0x3db46622	0.08808543
245	0xbe440015	-0.19140656
246	0x3e057385	0.13032348
247	0x3b0cfe1c	0.0021513766
248	0xbdcebda3	-0.10094764
249	0x3d7d9670	0.061911047
250	0x3e179623	0.14803366
251	0xbddc2bc7	-0.10750537
252	0x3e1283e0	0.14308119
253	0xbb1a2657	-0.0023521387
254	0xbd30340d	-0.04301839
255	0x398ffc07	0.0002746286

linear2.bias f4 [16]
0	0x3e052eaa	0.13006082
1	0xbd933a13	-0.07188811
2	0x3e293b95	0.16526635
3	0x3dc5b442	0.09653522
4	0xbd1ca8a5	-0.03824677
5	0x3daa59b7	0.08317893
6	0x3b76dde4	0.0037668878
7	0xbcb7a3d8	-0.022416994
8	0xbd1b8aa0	-0.037974
9	0xbd14df73	-0.03634591
10	0x3d7fcfc8	0.062454015
11	0xbd22ac26	-0.039714955
12	0xbbd1f9b1	-0.0064079394
13	0x3d8587a6	0.065200135
14	0xbd153fa8	-0.03643766
15	0xbcaeed61	-0.021353425

linear3.weight f4 [2, 16]
0	0x3e976903	0.29572305
1	0xbe4bc322	-0.19898656
2	0xbe14f48d	-0.14546414
3	0xbe840d02	-0.25791174
4	0xbe43ff66	-0.19140396
5	0x3e9adde7	0.30247423
6	0x3c9bf1ef	0.019036261
7	0xbe82bdc0	-0.25535393
8	0x3e896f7c	0.26842868
9	0xbe51c148	-0.20483887
10	0xbe97d946	-0.29657954
11	0x3e7f956f	0.24959348
12	0xbe692647	-0.22768508
13	0xbe56edbf	-0.2098913
14	0xbe7a9322	-0.24470189
15	0x3e00541b	0.12532084
16	0x3e05fa88	0.13083851
17	0x3e459b5b	0.19297545
18	0xbeba6311	-0.36403707
19	0xbeb52d1b	-0.35385975
20	0x3e96e0d9	0.2946842
21	0xbd74a0cc	-0.05972366
22	0x3ea9365b	0.33049282
23	0x3e67379e	0.2257981
24	0x3e34d4b0	0.17659259
25	0xbe2caae0	-0.16862059
26	0x3d2cf9ab	0.04223029
27	0xbd285647	-0.041097905
28	0xbd1d2ecf	-0.03837472
29	0x3e0853fc	0.13313287
30	0xbdae419d	-0.085086085
31	0x3e9dadf1	0.3079677

linear3.bias f4 [2]
0	0xbd4ff286	-0.050768398
1	0xbcce0839	-0.025150405
