gym_pybullet_drones/examples/models/actor_gnn_32drones_1.pkl (torch, 24022 bytes, 14 tensors)

self_encoder_1.weight f4 [32, 8]
0	0x3e228409	0.1587068
1	0xbe8f8db3	-0.28037795
2	0x3f22128e	0.6330956
3	0xbe73f590	-0.23824143
4	0xbe96af8e	-0.29430813
5	0x3de141dd	0.109988905
6	0xbd10cb48	-0.035350114
7	0x3d614e22	0.055006154
8	0xbe97a268	-0.29616094
9	0x3df39e74	0.11895457
10	0xbed5e329	-0.41774872
11	0xbf01c0f7	-0.50685066
12	0xbdb5d1e8	-0.08877927
13	0x3dee3dee	0.11632906
14	0xbd0e448f	-0.03473335
15	0x3e050525	0.12990244
16	0x3e80d804	0.25164807
17	0xbe8152a5	-0.25258365
18	0x3e0753d5	0.13215573
19	0xbe9ad073	-0.3023716
20	0x3d17d2ed	0.03706639
21	0x3e22ca14	0.15897399
22	0x3e1fafd4	0.15594417
23	0xbe5ef713	-0.21773939
24	0x3e1e9a0c	0.15488452
25	0x3de7f474	0.113259226
26	0xbe21d513	-0.15803938
27	0x3eef24f7	0.4670789
28	0xbd96a984	-0.07356551
29	0x3e048a7f	0.12943457
30	0x3d63af64	0.055587187
31	0xbc2962cc	-0.010338496
32	0x3e13a9d2	0.1442025
33	0x3ddd3e20	0.10802865
34	0x3cb64b4b	0.0222527
35	0x3e7bf652	0.24605682
36	0x3e9fb5f1	0.31193498
37	0xbe7fff51	-0.24999739
38	0x3e814875	0.25250593
39	0xbd2711c5	-0.04078843
40	0xbebf9f0d	-0.37426034
41	0x3ebff5c4	0.37492192
42	0xbe48a5a1	-0.19594432
43	0x3ee57edd	0.44823352
44	0xbd6118c6	-0.054955266
45	0xbe71f2ae	-0.23627731
46	0xbe6d071a	-0.2314724
47	0x3ea55bb1	0.32296517
48	0x3ea120e1	0.31470397
49	0xbe010b6b	-0.12602012
50	0x3ee37f57	0.4443309
51	0x3f09cf47	0.53831905
52	0x3dc122fd	0.094305016
53	0xbdfd3e8c	-0.123654455
54	0x3d160467	0.036625292
55	0xbe0da4fc	-0.13832468
56	0x3e9d8490	0.307652
57	0xbe2040b1	-0.15649678
58	0xbe4c4fb8	-0.19952285
59	0x3e8b1219	0.27162245
60	0x3e062676	0.13100609
61	0xbe26a715	-0.16274674
62	0x3e0ba8b4	0.13638574
63	0xbeb8f56c	-0.36124742
64	0xbe477c78	-0.19481075
65	0x3e96ad38	0.2942903
66	0xbf14a70d	-0.580674
67	0x3f05775b	0.52135247
68	0x3e2adbad	0.16685362
69	0xbe939401	-0.28823856
70	0x3e68ce86	0.22735032
71	0xbb851837	-0.0040617245
72	0xbd7e02ce	-0.062014394
73	0x3e34e44a	0.1766521
74	0xbd43e882	-0.04782916
75	0x3f306fa1	0.6892033
76	0x3c0832c6	0.008312887
77	0xbe4c162e	-0.19930336
78	0xbd83991a	-0.06425686
79	0x3d87b4d3	0.06626286
80	0xbcb60200	-0.02221775
81	0xbe70d886	-0.23520097
82	0xbedb6e7f	-0.4285774
83	0xbec06fd2	-0.37585312
84	0x3e52d8e8	0.20590556
85	0x3d0baf24	0.034102574
86	0x3df3aecd	0.11898575
87	0x3da5c5d6	0.08094375
88	0xbe31e6be	-0.17373177
89	0xbe0474fc	-0.12935251
90	0xbcd4df8e	-0.025985505
91	0xbe995e64	-0.29954827
92	0xbebf4656	-0.3735835
93	0x3e9967e3	0.29962072
94	0xbe9aa8ab	-0.30206808
95	0x3d499cbd	0.049221743
96	0xbeb8cc2d	-0.36093274
97	0xbe06a849	-0.13150133
98	0xbf0f601d	-0.5600603
99	0x3ec8ec7e	0.3924293
100	0xbe719c32	-0.2359474
101	0xbe70fbaf	-0.2353351
102	0xbe7d082d	-0.2471015
103	0xbd024228	-0.031801373
104	0x3d6f356e	0.058400564
105	0x3cdc4ac4	0.02689112
106	0x3e957593	0.29191265
107	0x3e47031d	0.19434781
108	0xbe91b808	-0.28460717
109	0xbe9ea790	-0.30987215
110	0x3e0bd3b4	0.13654977
111	0xbdd5645d	-0.104195334
112	0xbe413538	-0.18867958
113	0xbe5f4c0a	-0.2180635
114	0x3d942856	0.07234256
115	0x3db48390	0.08814156
116	0x3e86b89a	0.26312715
117	0x3e433005	0.19061287
118	0x3c3fd195	0.011707683
119	0x3d921205	0.07132343
120	0xbe0878de	-0.13327357
121	0xbdc79c8f	-0.09746658
122	0x3e0c0cc1	0.1367674
123	0xbece307f	-0.40271375
124	0x3d8194ba	0.063271955
125	0xbde41b56	-0.111380264
126	0xbd481296	-0.04884585
127	0x3c0d57eb	0.008626918
128	0x3cf30982	0.02966762
129	0x3ea1f8c7	0.31635115
130	0x3f138a66	0.57633054
131	0x3f006fd7	0.50170654
132	0xbe8dfb8a	-0.27730972
133	0xbd3aeda4	-0.045636788
134	0xbe0fb802	-0.14035037
135	0xbdd4e84e	-0.10395871
136	0x3df63907	0.12022596
137	0xbe385e73	-0.1800478
138	0x3eb8d488	0.36099648
139	0xbe9bcd49	-0.30430058
140	0xbdd194f7	-0.10233491
141	0x3e343932	0.17599943
142	0xbe172ac5	-0.14762409
143	0x3b1aaf05	0.0023602855
144	0x3e8ea0be	0.27857012
145	0xbd1cacb9	-0.03825066
146	0x3ee70f4c	0.45128858
147	0x3e2d78a4	0.16940552
148	0xbe853da8	-0.26023602
149	0x3e5d4e11	0.21611811
150	0x3e33e14e	0.17566416
151	0x3d932bad	0.07186065
152	0x3d425914	0.047448233
153	0xbe0a4214	-0.1350177
154	0x3d10f34e	0.035388283
155	0xbf065e34	-0.5248749
156	0xbbd0f63f	-0.006377011
157	0x3e1b6809	0.15176405
158	0x3d44bb6c	0.048030302
159	0xbd4f0dfe	-0.050550453
160	0x3e09afa4	0.13445908
161	0x3e9a2bf1	0.3011165
162	0x3f00cf87	0.5031666
163	0x3c25705b	0.010097588
164	0xbec45d1a	-0.3835228
165	0xbe7fd2bf	-0.24982737
166	0xbd176cef	-0.03696912
167	0x3e3c473a	0.18386546
168	0xbe13ca0e	-0.14432546
169	0x3e7ed12c	0.2488448
170	0xbf026172	-0.5092994
171	0x3e4c5b62	0.19956735
172	0x3e85d90d	0.2614216
173	0xbdca977c	-0.098921746
174	0x3d3c582c	0.045982525
175	0xbd6bdb6a	-0.057582296
176	0x3dedc97f	0.11610698
177	0xbe378b09	-0.17924131
178	0x3eae5c1b	0.34054646
179	0xbeb726e7	-0.35771868
180	0xbdccb2c7	-0.099950366
181	0x3e342f1f	0.175961
182	0xbdec5858	-0.11540288
183	0x3b37790b	0.0027995731
184	0xbd942882	-0.07234289
185	0xbd087721	-0.033316735
186	0xbeb8d474	-0.3609959
187	0xbe752df8	-0.23943317
188	0x3eb4124b	0.35170206
189	0x3ec40bd1	0.38290265
190	0xbe2ce4db	-0.16884176
191	0x3e040be3	0.1289516
192	0xbe20122f	-0.15631936
193	0xbeb30180	-0.34962082
194	0xbf15559e	-0.58333766
195	0xbc3c8999	-0.011507415
196	0x3ee3c7c3	0.44488344
197	0x3e9486fb	0.29009232
198	0x3d301dd4	0.042997196
199	0xbe5a4bbc	-0.21317953
200	0xbe8c274e	-0.27373737
201	0x3d1b5ce0	0.03793037
202	0xbee60957	-0.44929
203	0xbe268355	-0.16261037
204	0x3e824df7	0.25450107
205	0xbe58ddad	-0.21178313
206	0xbe2d3091	-0.16913058
207	0xbd8bd16b	-0.06827053
208	0x3e635ee4	0.22204167
209	0x3da5b40a	0.0809098
210	0x3eb049b4	0.3443123
211	0xbe78792f	-0.24264978
212	0x3e14ad9e	0.14519355
213	0x3e148c98	0.14506757
214	0x3e2234cc	0.15840453
215	0x3ce118ff	0.02747774
216	0xbe2ff996	-0.17185053
217	0x3e9c1fbe	0.30492967
218	0xbf327d91	-0.6972285
219	0x3e851bcc	0.2599777
220	0x3ea3c113	0.3198324
221	0xbdf3fe76	-0.11913769
222	0x3d1505b2	0.036382385
223	0xbd6f3c26	-0.05840697
224	0xbdd96226	-0.106144235
225	0x3e6239f5	0.22092421
226	0x3e97e62f	0.29667804
227	0x3ed7cfd2	0.42150742
228	0x3da48d2e	0.080347404
229	0xbe126d65	-0.14299543
230	0x3e1bb352	0.15205124
231	0x3da53eb7	0.080686025
232	0xbce232ec	-0.027612172
233	0xbe986d20	-0.29770756
234	0xbf0b026d	-0.54300576
235	0xbeeb675b	-0.4597729
236	0x3e860875	0.26178327
237	0x3d2cd1fd	0.042192448
238	0x3d9a9c61	0.07549358
239	0x3da92df4	0.08260718
240	0x3d8335a2	0.06406714
241	0xbe3b490e	-0.18289587
242	0x3d803fe2	0.06262185
243	0xbf364a02	-0.71206677
244	0xbc52be98	-0.012862824
245	0x3e5158f2	0.20444086
246	0x3d8746c0	0.06605291
247	0xbd6f4566	-0.058415793
248	0x3ec22f89	0.3792689
249	0x3e0d9419	0.13826026
250	0x3f16a19e	0.5884036
251	0xbed12c1c	-0.40853965
252	0x3e7e1f75	0.24816687
253	0x3e7c3311	0.24628855
254	0x3e793cdb	0.24339621
255	0x3c836b7c	0.016042463

self_encoder_1.bias f4 [32]
0	0xbd97f4ca	-0.07419737
1	0xbd816b55	-0.063193
2	0xbda3e027	-0.08001738
3	0xbe48d21f	-0.19611405
4	0x3dc7018d	0.09717093
5	0x3e1d8eef	0.15386556
6	0x3d8e050b	0.069345556
7	0x3c8b2e53	0.016989863
8	0x3dca980f	0.09892284
9	0xbdce4d03	-0.100732826
10	0xbc03d7d5	-0.008047064
11	0xbdcb7638	-0.09934658
12	0x3d6571b3	0.056016635
13	0xbd0130df	-0.031540748
14	0x3ee63718	0.44963908
15	0x3e30c173	0.17261295
16	0x3cbac108	0.022797123
17	0xbdfbb192	-0.12289728
18	0x3c233790	0.009961978
19	0x3d04291d	0.03226577
20	0xbbcb63f0	-0.006206982
21	0xbe744603	-0.23854832
22	0x3d8422b7	0.06451934
23	0x3d281237	0.041032996
24	0x3c0c3f76	0.008560052
25	0x3d8f0794	0.06983867
26	0xbdc6fdf5	-0.09716407
27	0x3e0c6816	0.1371158
28	0x3ea8e5a5	0.32987705
29	0xbd3d6a84	-0.04624416
30	0x3e33ed68	0.17571032
31	0x3d9c5728	0.07633811

self_encoder_2.weight f4 [16, 32]
0	0xbe40bfad	-0.18823119
1	0xbe2c5e06	-0.16832742
2	0xbe3da0f8	-0.18518436
3	0x3e6bdc4f	0.2303326
4	0xbd6d4374	-0.057925656
5	0x3e393cd5	0.18089612
6	0x3e741c5d	0.23838945
7	0xbd0aac7b	-0.033855896
8	0xbcc60813	-0.024173772
9	0x3e6b82fc	0.22999185
10	0xbe491a1e	-0.19638869
11	0xbd05ee95	-0.032698233
12	0xbe006e7a	-0.12542143
13	0x3e1a0fb3	0.15045051
14	0x3d96908e	0.0735179
15	0xbe57e800	-0.21084595
16	0x3e5d6dac	0.21623868
17	0xbc5edbf6	-0.013602247
18	0xbe15d802	-0.14633182
19	0xbe9bc03c	-0.304201
20	0x3deedb8c	0.11662969
21	0xbde41c68	-0.111382306
22	0x3d289c3b	0.041164618
23	0x3df333af	0.11875092
24	0xbd1f4962	-0.038888343
25	0xbd5c88c9	-0.053841386
26	0xbd2b4b1a	-0.04181967
27	0x3d951538	0.07279438
28	0xbe0fe0b7	-0.14050566
29	0xbd20572d	-0.039145637
30	0x3da20df1	0.07912815
31	0xbd601b0f	-0.054713305
32	0x3e8044a4	0.2505237
33	0x3e01f06a	0.12689367
34	0x3e44ee29	0.19231476
35	0xbe0da5ac	-0.1383273
36	0xbdafc4e7	-0.08582478
37	0xbdb96b3d	-0.09053657
38	0xbdae80f4	-0.085206896
39	0xbdb02e89	-0.08602626
40	0x3d288946	0.04114654
41	0xbe2c8f53	-0.16851549
42	0x3dca9627	0.098919205
43	0x3e43884b	0.1909496
44	0xbdcf9876	-0.101365015
45	0xbdb05403	-0.08609774
46	0x3df4a092	0.11944689
47	0x3d6d3190	0.057908595
48	0x3de33637	0.11094325
49	0xbd897691	-0.06712068
50	0xbbc2aee0	-0.005941257
51	0x3d8586a2	0.0651982
52	0xbdc860ce	-0.09784089
53	0x3da03c78	0.078240335
54	0x3d84f742	0.06492473
55	0xbd90d94d	-0.07072697
56	0x3de37e3c	0.11108062
57	0xbdd2b8df	-0.102891676
58	0x3e5a691c	0.21329159
59	0x3dcfaa65	0.10139922
60	0x3cfb88f6	0.030704957
61	0xbd2314e2	-0.039814837
62	0x3e71b560	0.23604345
63	0x3e16c497	0.1472343
64	0xbe7aaac9	-0.24479212
65	0xbd68e43c	-0.056858286
66	0xbd9adb5b	-0.0756137
67	0x3d7ed29d	0.062212575
68	0x3dca5c88	0.0988093
69	0x3de6f96c	0.11278042
70	0x3e3d70f3	0.18500118
71	0x3d34892b	0.044076126
72	0x3c59143d	0.013249454
73	0x3eaf33f7	0.34219334
74	0x3d80e34a	0.06293352
75	0xbe3de1ee	-0.18543217
76	0x3e79602a	0.2435309
77	0x3c8abe85	0.01693655
78	0x3cb694b5	0.022287706
79	0xbd00a231	-0.031404678
80	0x3e16615b	0.14685576
81	0xbe5b5ad0	-0.21421361
82	0x3d78ab44	0.060710207
83	0xbe4d777d	-0.20065112
84	0xbd7914b1	-0.06081075
85	0x3e7ba8e3	0.24576144
86	0xbdd39a8d	-0.103322126
87	0x3d9faec3	0.07797005
88	0x3d422c9f	0.047405835
89	0xbd0f97b3	-0.03505678
90	0xbe457b39	-0.19285287
91	0x3e8f5783	0.27996454
92	0xbca64f5c	-0.020301513
93	0xbd8d4fd8	-0.068999946
94	0xbe2d7cb9	-0.16942109
95	0xbe2e6162	-0.17029336
96	0x3e687aa7	0.22703038
97	0x3e378b32	0.17924193
98	0x3d933324	0.07187489
99	0x3d170185	0.036866684
100	0x3d074e59	0.033033703
101	0x3e2090bc	0.15680212
102	0x3e263ebc	0.16234869
103	0x3e8d67d9	0.27618292
104	0x3dfcda21	0.12346292
105	0x3e04b223	0.12958579
106	0x3e937a2a	0.2880414
107	0x3e0d0752	0.13772324
108	0x3daf3e0a	0.08556755
109	0x3d973b98	0.073844135
110	0x3e7b16ba	0.24520388
111	0x3dcaf9ab	0.09910902
112	0x3d4c6439	0.049900267
113	0x3e5667d2	0.20938042
114	0x3df3d6f9	0.11906237
115	0x3dfe1a0c	0.12407312
116	0x3c34a9f8	0.011026852
117	0x3e0537bf	0.13009547
118	0x3dac2a8f	0.08406555
119	0x3e5dd739	0.21664132
120	0xbb1bb691	-0.002375994
121	0x3e8fdaf6	0.2809674
122	0x3e031769	0.12801899
123	0x3e193e05	0.14965065
124	0x3e4ca9e9	0.1998669
125	0xbd19449a	-0.03741894
126	0xbc5e2c2c	-0.013560336
127	0x3deb6e03	0.114955924
128	0xbe49361f	-0.19649552
129	0x3e8542fc	0.26027668
130	0x3df51877	0.11967557
131	0x3e4ceed0	0.20012975
132	0x3e05d361	0.13068916
133	0x3c9e1136	0.019295316
134	0xbe5b164b	-0.21395223
135	0xbd88d429	-0.06681091
136	0x3e510d57	0.20415245
137	0xbdc85d85	-0.097834624
138	0x3e606af0	0.21915793
139	0x3df36b52	0.11885704
140	0x3e506bca	0.20353618
141	0x3d7b5416	0.061359487
142	0xbcde75a2	-0.027155701
143	0xbd7f57a8	-0.062339455
144	0xbe112cee	-0.14177296
145	0xbb102585	-0.002199502
146	0x3bf22b3e	0.007390409
147	0x3d8cab78	0.068686426
148	0xbe43b7a3	-0.1911302
149	0xbe0f5093	-0.1399558
150	0xbd28b1d2	-0.041185208
151	0x3e452c8d	0.19255276
152	0x3e11177c	0.14169115
153	0x3dc4cb6b	0.096091114
154	0xbe77665c	-0.24160141
155	0x3c239118	0.0099833235
156	0xbe2136af	-0.15743516
157	0xbbdd8c2a	-0.0067610936
158	0xbddbcdbd	-0.10732601
159	0xbdf92b02	-0.12166406
160	0x3e8de632	0.27714688
161	0xbe7157fe	-0.23568723
162	0xbe158d98	-0.14604795
163	0x3df43de8	0.1192587
164	0x3e009041	0.12555028
165	0x3e07fba4	0.13279587
166	0x3e757e2f	0.23973916
167	0xbe2623e1	-0.16224624
168	0x3d29fda3	0.041501652
169	0x3e4d81e3	0.20069079
170	0xbe5972d2	-0.21235207
171	0x3d90913a	0.0705895
172	0x3dc71781	0.0972128
173	0x3dda29bc	0.106524915
174	0xbdf259f4	-0.118335634
175	0xbdb61dda	-0.088924125
176	0x3df9d45f	0.1219871
177	0x3ccb5a54	0.024823345
178	0x3e2e0558	0.16994226
179	0xbe70ff80	-0.23534966
180	0xbdc5ff3c	-0.09667823
181	0xbcb84dee	-0.022498097
182	0xbd1486a6	-0.036261223
183	0xbe5caa9f	-0.21549462
184	0xbe2cc9e4	-0.1687389
185	0x3df42189	0.11920459
186	0x3dbc7089	0.09201152
187	0xbe4bfc9b	-0.1992058
188	0x3de279ea	0.110584095
189	0xbdbb5a0c	-0.091480345
190	0xbc114f2d	-0.008868975
191	0x3d8cc477	0.0687341
192	0xbe74150b	-0.23836152
193	0xbe10f634	-0.14156419
194	0xbe3b8e33	-0.18315963
195	0xbc8c41bf	-0.017121194
196	0x3e0d62b4	0.13807184
197	0xbd3f59fc	-0.046716675
198	0x3e0f8b25	0.14017923
199	0xbc4f582d	-0.0126553
200	0x3d96c016	0.07360856
201	0x3e009964	0.12558514
202	0x3dc436d1	0.09580768
203	0xbd377192	-0.044786043
204	0x3df89866	0.12138443
205	0xbe03bf08	-0.12865841
206	0xbc57c8c4	-0.013170425
207	0xbd2bab71	-0.041911546
208	0x3d6e2052	0.05813629
209	0xbd628cec	-0.055310175
210	0xbb861612	-0.0040919865
211	0xbe0f1c84	-0.13975722
212	0xbe3cb54e	-0.18428537
213	0x3c1c16da	0.009526933
214	0xbd29a263	-0.04141463
215	0xbdd22604	-0.10261157
216	0xbd9b405f	-0.07580637
217	0x3dcdb46f	0.100441806
218	0xbd241a7a	-0.040064313
219	0x3e81aec4	0.25328648
220	0x3e2c1a91	0.1680701
221	0xbe4f16f9	-0.20223607
222	0x3d676350	0.056491196
223	0xbd0d8629	-0.034551773
224	0x3dd95121	0.10611177
225	0xbda6b209	-0.08139426
226	0xbd49f3ff	-0.04930496
227	0xbd05af66	-0.032637976
228	0x3e3f348f	0.18672393
229	0x3e4cabdd	0.19987436
230	0x3e0ca1a9	0.13733543
231	0x3debd8d1	0.11515964
232	0x3e57e9fd	0.21085353
233	0xbda8a451	-0.08234466
234	0xbda86345	-0.08222059
235	0x3d3709dc	0.044687137
236	0x3e310456	0.1728681
237	0x3dfcf135	0.12350694
238	0x3d940f53	0.07229485
239	0xbd188add	-0.037241805
240	0x3e6f66a5	0.23379
241	0x3e4afa8c	0.19822139
242	0x3d07d566	0.033162497
243	0x3d060aa0	0.032724977
244	0x3e4084cf	0.18800662
245	0x3e492b74	0.19645482
246	0x3e16a452	0.1471112
247	0x3e5cf797	0.21578823
248	0x3de51d32	0.11187209
249	0x3e386486	0.18007097
250	0x3d3a80f9	0.045533154
251	0xbd2af4fd	-0.041737545
252	0xbbfec660	-0.007775113
253	0x3e11d44b	0.1424114
254	0xbbc070f5	-0.0058728405
255	0x3e4e3bdd	0.20140024

self_encoder_2.bias f4 [16]
0	0xbb9a0c2d	-0.0047011585
1	0x3d96425f	0.07336878
2	0xbe133757	-0.14376579
3	0x3d144451	0.036197964
4	0x3e081de5	0.13292654
5	0x3deab60f	0.11460506
6	0x3d3caf45	0.046065588
7	0x3df41587	0.119181685
8	0x3ddb9a26	0.10722761
9	0x3cdf2a54	0.027241863
10	0x3dbe4ba4	0.09291771
11	0x3dbbb5b5	0.09165517
12	0x3dc9b58c	0.098490804
13	0xbe586a0d	-0.21134205
14	0x3c9c2711	0.019061597
15	0x3d83ba38	0.06432003

neighbor_encoder_1.weight f4 [32, 4]
0	0xbd6c6af8	-0.0577192
1	0xbdd29fa9	-0.10284359
2	0xbee387f0	-0.4443965
3	0x3efade91	0.4899793
4	0xbd43e68d	-0.047827292
5	0xbe111edc	-0.14171928
6	0xbeaddcd6	-0.33957547
7	0x3ed8216f	0.42213008
8	0x3e972a7c	0.295246
9	0x3ebda9a7	0.37043497
10	0xbd83b522	-0.06431033
11	0x3e845279	0.25844172
12	0x3dc00722	0.093763605
13	0xbe58fa77	-0.21189295
14	0x3da95924	0.08268955
15	0x3e785f21	0.24255039
16	0x3ceca239	0.028885948
17	0x3eed34ef	0.46329448
18	0xbf00764a	-0.50180495
19	0x3e8bfbcd	0.27340546
20	0x3e46f946	0.19431028
21	0xbf0b4c76	-0.54413545
22	0xbec20dd2	-0.3790117
23	0xbef8bbb0	-0.48580694
24	0xbc729fc2	-0.014808597
25	0x3d283a3d	0.041071165
26	0x3ec13e66	0.3774292
27	0xbed63305	-0.418358
28	0x3e63737f	0.22212027
29	0xbe6c3ce1	-0.23070098
30	0x3f0b1e00	0.5434265
31	0x3e1fb653	0.15596895
32	0xbe0ceabe	-0.13761422
33	0xbce147ed	-0.027500117
34	0x3e87b7e8	0.26507497
35	0xbedf6a83	-0.4363595
36	0xbeab5965	-0.3346664
37	0x3effcbce	0.49960178
38	0x3ed48084	0.415043
39	0x3eabf182	0.33582693
40	0x3ef4dbbb	0.4782389
41	0x3ea5fe1d	0.32420436
42	0x3df6e0fc	0.12054631
43	0xbd797c40	-0.06090951
44	0x3ed49589	0.41520336
45	0x3d45a8b7	0.048256602
46	0xbda64d60	-0.08120227
47	0xbdc7de67	-0.09759217
48	0xbe5e0e69	-0.21685185
49	0xbe9a7c3b	-0.30172905
50	0x3abf4ae1	0.0014594459
51	0xbdd41142	-0.10354854
52	0xbeba0e16	-0.36338872
53	0x3eb04ab0	0.34431982
54	0xbf0b7cb8	-0.5448718
55	0xbe0c2723	-0.13686804
56	0xbe887eda	-0.2665928
57	0x3e723246	0.2365199
58	0xbeee665b	-0.46562466
59	0xbdb89bf7	-0.09014123
60	0x3b7a1f45	0.003816561
61	0xbe54ccdb	-0.20781271
62	0xbe05bdd0	-0.13060689
63	0xbec6b7cb	-0.38812098
64	0xbe0f2aa1	-0.13981105
65	0xbcfc775b	-0.030818632
66	0xbf020f88	-0.5080495
67	0xbded1d5f	-0.11577868
68	0xbea4c092	-0.3217817
69	0xbe84b4df	-0.25919244
70	0x3e1cb8e8	0.15304911
71	0xbe5fb0c2	-0.21844772
72	0x3e90ed41	0.2830601
73	0xbe5a9ef1	-0.21349694
74	0x3e8d8f84	0.27648556
75	0x3dfefe2c	0.12450823
76	0x3cce47ca	0.025180716
77	0x3e160298	0.14649427
78	0x3e24b416	0.16084322
79	0x3e247bce	0.16062853
80	0xbe01e076	-0.12683281
81	0xbe1c0060	-0.15234518
82	0x3e5208d5	0.20511182
83	0xbf04d786	-0.5189136
84	0x3f0eae4a	0.55734694
85	0x3ec533fe	0.3851623
86	0xbdf4085a	-0.119156554
87	0x3e1dbb82	0.1540356
88	0xbed8c243	-0.4233571
89	0xbe8fd1bd	-0.28089705
90	0x3e52f980	0.20602989
91	0xbe5ae444	-0.21376139
92	0xbdefa483	-0.117013
93	0xbd2080b4	-0.03918524
94	0xbee858e7	-0.45380327
95	0xbde17f0f	-0.11010563
96	0x3ec022d8	0.37526584
97	0x3ebc1890	0.3673749
98	0xbdf5c595	-0.120005764
99	0x3e93649d	0.287877
100	0x3e34906e	0.1763322
101	0xbec8c7f8	-0.39215064
102	0x3e252a78	0.16129482
103	0x3ee3d989	0.44501904
104	0x3db50fb7	0.08840888
105	0x3eacf03d	0.33777037
106	0x3e977cc1	0.29587367
107	0xbf04011a	-0.5156418
108	0xbe6b8be6	-0.23002586
109	0x3ed64d85	0.41856018
110	0x3d77f207	0.06053355
111	0xbeb842cd	-0.35988465
112	0x3e0b8ab0	0.13627124
113	0xbee68fdb	-0.45031628
114	0xbd9bd5ea	-0.0760916
115	0xbe87bfe2	-0.26513582
116	0x3eda854d	0.42679825
117	0xbe1693be	-0.14704797
118	0x3ec35803	0.38153085
119	0x3e6d4d4d	0.23174019
120	0x3e41c252	0.18921784
121	0xbf0af845	-0.5428508
122	0x3e9594d2	0.29215103
123	0xbec6681d	-0.38751307
124	0xbe941f30	-0.28930044
125	0xbeb1ecb9	-0.34750918
126	0x3ec5945c	0.38589752
127	0xbe0689d7	-0.13138519

neighbor_encoder_1.bias f4 [32]
0	0x3d8406a5	0.0644658
1	0xbd8deae5	-0.06929568
2	0x3ebefec5	0.3730375
3	0x3d22a2fe	0.039706223
4	0x3f422cd1	0.75849634
5	0x3f0b7b1d	0.5448473
6	0xbe634a30	-0.22196269
7	0x3eb52614	0.35380614
8	0x3e7452cf	0.23859714
9	0x3f1b0eeb	0.6056964
10	0xbe6985ce	-0.22804949
11	0x3e83b9a0	0.25727558
12	0xbe170323	-0.1474729
13	0xbd1e9d1d	-0.038724054
14	0xbe2b6ad1	-0.16739966
15	0x3e961be1	0.29318145
16	0x3b8fc562	0.0043875435
17	0x3e27d66c	0.16390389
18	0x3d78adff	0.06071281
19	0x3d471fb3	0.048614215
20	0xbe2da4e4	-0.16957432
21	0x3f1f5ce6	0.62251127
22	0x3f085d3c	0.53267264
23	0x3eb42ed4	0.35191977
24	0x3eef87d0	0.46783304
25	0xbe46d1ce	-0.19415972
26	0x3e0406b7	0.12893187
27	0xbe6c054e	-0.23048899
28	0xbeb8f696	-0.3612563
29	0xbca80008	-0.020507827
30	0x3e2b4b45	0.16727932
31	0xbea3eeb8	-0.32018065

neighbor_encoder_2.weight f4 [16, 32]
0	0xba977b49	-0.0011557128
1	0xbe44b5d5	-0.19209988
2	0xbe08d551	-0.13362624
3	0xbde3d16f	-0.11123931
4	0xbe25f5f2	-0.16207102
5	0x3d84542e	0.064613685
6	0xba80de45	-0.0009831866
7	0xbd883025	-0.06649808
8	0xbe0af746	-0.1357089
9	0xbdbff393	-0.0937263
10	0xbc915f5d	-0.017745668
11	0xbe23c517	-0.15993153
12	0xbdcf9e7f	-0.101376526
13	0xbe478acd	-0.19486542
14	0xbde3b28e	-0.11118041
15	0x3b685518	0.003545111
16	0xbdbd83fe	-0.09253691
17	0xbde8473f	-0.11341714
18	0xbd8f3341	-0.06992198
19	0xbd9c8c55	-0.07643954
20	0xbe506ae1	-0.20353271
21	0xbd87c57e	-0.066294655
22	0xbdec05f2	-0.115245715
23	0x3babb59b	0.005240155
24	0xbe18e514	-0.14931136
25	0xbd8727f9	-0.06599421
26	0xbb7ab163	-0.0038252703
27	0x3bfa7d18	0.007644307
28	0xbd20eed5	-0.039290268
29	0xbc4402b3	-0.011963534
30	0x3d8f45fb	0.069957696
31	0xbd8c27dd	-0.06843541
32	0xbe015b48	-0.12632477
33	0xbe0be91a	-0.1366314
34	0x3d80d78a	0.06291111
35	0xbe11cff1	-0.1423948
36	0xbe39cf8b	-0.18145578
37	0xbcabeecc	-0.02098789
38	0x3d5c1e2a	0.053739704
39	0xbe59a06c	-0.21252602
40	0x3c2b5ccf	0.010459139
41	0xbe375536	-0.17903599
42	0x3dbe23b1	0.09284151
43	0xbe160953	-0.14651994
44	0x3c83a4a3	0.016069716
45	0xbd105684	-0.035238758
46	0xbe6108b2	-0.21975973
47	0xbdaa4e28	-0.08315688
48	0xbe804af2	-0.2505718
49	0xbe2b9173	-0.16754703
50	0xbe367d52	-0.17821243
51	0xbe388708	-0.1802026
52	0x3c8277a0	0.015926182
53	0xbe895187	-0.26820013
54	0xbe19ba1b	-0.150124
55	0xbe821aab	-0.2541097
56	0xbe02a228	-0.1275717
57	0x3d755444	0.059894815
58	0xbdc2d378	-0.09512991
59	0xbe1daa46	-0.15396985
60	0xbe39b116	-0.18133959
61	0xbe655cae	-0.22398636
62	0xbd9b5141	-0.07583857
63	0xbe150dbc	-0.1455602
64	0xbe18d736	-0.14925846
65	0x3af545d9	0.0018712833
66	0xbca8c457	-0.020601435
67	0x3d0f376c	0.034964964
68	0xbe475012	-0.19464138
69	0x3d9678fb	0.07347294
70	0x3d8270cf	0.06369173
71	0x3d92d30c	0.0716916
72	0xbe2ecf2a	-0.17071214
73	0x3d4e424b	0.05035619
74	0x3d2f6df7	0.04282948
75	0xbd8922e0	-0.06696105
76	0xbdf9fc5f	-0.12206339
77	0xbcc52a9d	-0.024068171
78	0xbd7e50b3	-0.06208868
79	0xbe5b0db4	-0.21391946
80	0xbd1e396f	-0.03862899
81	0xbe0e5bff	-0.13902281
82	0xbdedb4bd	-0.11606739
83	0x3ca64bf5	0.020299891
84	0xbd804b9f	-0.062644236
85	0xbe6da1b0	-0.2320621
86	0xbd6f0ab7	-0.058359828
87	0xbe6795af	-0.22615694
88	0x3d7b9eec	0.061430857
89	0xbd970eb0	-0.07375848
90	0xbd62615d	-0.055268634
91	0xbd9b3c8e	-0.07579909
92	0xbb935310	-0.004495986
93	0xbdf34b53	-0.11879601
94	0x3d048038	0.03234884
95	0xbe543ee8	-0.20727122
96	0x3e5eac5a	0.21745434
97	0x3cc345ad	0.023836935
98	0x3e5f1dbd	0.21788688
99	0xbd2f1676	-0.04274603
100	0xbc89fe9a	-0.016845036
101	0x3dc22e08	0.09481436
102	0xbd1eb9af	-0.0387513
103	0x3e68d7c5	0.2273856
104	0x3dd2e113	0.10296836
105	0x3e746168	0.23865283
106	0x3e5f21a7	0.21790181
107	0xbcf11568	-0.029429153
108	0x3e294bdd	0.16532846
109	0x3e62aa14	0.22135192
110	0x3e8afe60	0.27147198
111	0x3d63f25b	0.05565105
112	0xbd07bc55	-0.03313859
113	0xbd3f074a	-0.04663781
114	0x3e2922b6	0.16517147
115	0xbd1e18f5	-0.03859802
116	0x3cb401c3	0.021973496
117	0x3e625b8b	0.22105233
118	0x3df6b8dc	0.12046978
119	0x3e0eb59d	0.13936467
120	0xbd47f6ae	-0.048819236
121	0x3d9037f5	0.07041923
122	0x3e4c6c26	0.1996313
123	0xbd091036	-0.033462726
124	0x3dafa233	0.08575859
125	0xbd6e17d8	-0.058128208
126	0x3e245c60	0.16050863
127	0x3e7f475f	0.2492957
128	0x3e7d827f	0.24756812
129	0xbdbc9fa5	-0.09210137
130	0x3e720f93	0.23638754
131	0x3e313198	0.17304075
132	0x3e2ee8f2	0.17081049
133	0x3de62450	0.11237395
134	0x3d04ede8	0.032453448
135	0xbc8892df	-0.016671596
136	0xbd57f48a	-0.052723445
137	0x3e1bdb9e	0.15220496
138	0x3e3d696e	0.1849725
139	0x3d07e110	0.03317362
140	0x3e3d86a2	0.1850839
141	0x3d25dad4	0.040491894
142	0xbd759f53	-0.059966397
143	0xbdd52e3e	-0.104092106
144	0xbc79eb43	-0.015253845
145	0x3d9dd527	0.07706671
146	0x3e20a8b1	0.1568935
147	0x3cbd78cc	0.02312889
148	0x3de19c02	0.11016084
149	0xbd19cba6	-0.03754773
150	0x3da43573	0.08018007
151	0x3e0b4526	0.13600597
152	0xbdc7f6d5	-0.09763876
153	0x3e62ad2c	0.22136372
154	0xbdc21b04	-0.09477809
155	0x3e4ea833	0.2018135
156	0xbc4a3a1c	-0.012342956
157	0xbca6659a	-0.02031212
158	0x3c4aace7	0.012370325
159	0x3d28c19a	0.041200258
160	0x3e12b383	0.14326291
161	0x3d0e59b4	0.034753516
162	0xbc210558	-0.009827934
163	0xbd9a8f1a	-0.07546826
164	0x3dfbc762	0.12293889
165	0xbd57b4ce	-0.052662663
166	0x3dfbc08c	0.12292585
167	0x3e6ec92b	0.23318927
168	0x3d8b42f0	0.06799877
169	0xbc83b540	-0.016077638
170	0x3e767df6	0.24071488
171	0x3e34a4e4	0.17641026
172	0xbdef0895	-0.11671559
173	0x3d1efb6d	0.038813997
174	0x3e0d1345	0.13776882
175	0x3d7fb147	0.062424924
176	0x3e3105ad	0.17287321
177	0x3db584a1	0.088631876
178	0xbd6624c6	-0.056187414
179	0x3e2b0f07	0.16704951
180	0xbbc3baa4	-0.005973177
181	0xbbf069ec	-0.0073368456
182	0x3e30ccdf	0.17265652
183	0xbd922f72	-0.07137956
184	0x3e057ca7	0.13035832
185	0xbc6c79ed	-0.014433366
186	0x3d42f2e9	0.04759494
187	0x3ca9fdc9	0.020750897
188	0x3e434f09	0.19073118
189	0xbd52b2f3	-0.05144019
190	0x3e1ca6fc	0.15298074
191	0x3cb96ad0	0.02263394
192	0x3dbf2aac	0.09334311
193	0x3c9c9b6f	0.019117085
194	0x3d78d7ef	0.060752805
195	0x3e4be48e	0.19911405
196	0xbc88f9f9	-0.016720759
197	0x3d6d570e	0.05794435
198	0x3e60d92c	0.21957844
199	0xbcb78447	-0.022401942
200	0x3da522a3	0.08063247
201	0x3e3bc041	0.18335058
202	0x3e26d4cf	0.16292118
203	0xbd1ff00c	-0.039047286
204	0xbd2f928c	-0.042864367
205	0xbbfbb18d	-0.007681078
206	0x3dc1f69a	0.09470864
207	0xbd3e2f5f	-0.046431895
208	0x3e07c05a	0.1325697
209	0xbc8d08e5	-0.017216155
210	0x3e7808c9	0.24222101
211	0x3dd3b95a	0.103380874
212	0x3df69636	0.12040369
213	0x3e004a75	0.12528403
214	0x3d7a3469	0.06108514
215	0x3d3b86fa	0.04578302
216	0x3e80ef24	0.2518245
217	0x3d4e56d4	0.050375775
218	0x3dcd7f38	0.10034031
219	0x3e687317	0.22700153
220	0xb9afce54	-0.00033532328
221	0xbd4de662	-0.05026854
222	0x3dbdd020	0.09268212
223	0x3daadfb1	0.08343447
224	0x3d0c945c	0.034321174
225	0xbe198a73	-0.1499422
226	0x3b991a3f	0.004672318
227	0xbdaf9cf5	-0.08574859
228	0x3e1552d9	0.14582385
229	0xbcf94a4f	-0.03043094
230	0x3e1350bb	0.14386265
231	0xbd8f8dfc	-0.07009503
232	0xbdd9a994	-0.106280476
233	0xbc10c2ce	-0.008835508
234	0xbdd79eac	-0.10528311
235	0xbd1d4ae9	-0.038401518
236	0xbde7c4f5	-0.113168634
237	0x3d84103d	0.0644841
238	0xba95f393	-0.0011440389
239	0xbe05d14b	-0.1306812
240	0x3d8358de	0.064134344
241	0xbde508aa	-0.11183293
242	0x3e0cc4d6	0.13746962
243	0x3c879d3b	0.016554466
244	0x3dd7202a	0.10504182
245	0xbd51357d	-0.0510764
246	0x3dea31fd	0.11435316
247	0xbe53a7c8	-0.20669472
248	0xbc37ef74	-0.011226524
249	0x3d83f4be	0.06443165
250	0xbd842a01	-0.06453324
251	0xbdcd8d5a	-0.10036726
252	0x3d27deed	0.040984083
253	0xbe3e4938	-0.18582618
254	0xbe186c5e	-0.14885089
255	0xbe515509	-0.20442595

neighbor_encoder_2.bias f4 [16]
0	0xbe425bba	-0.18980303
1	0xbd781d99	-0.0605751
2	0xbe795d06	-0.24351892
3	0x3e177dca	0.14794078
4	0x3e5a2e4c	0.21306723
5	0xbd6426b7	-0.055700984
6	0x3e922fe0	0.2855215
7	0x3ca244b0	0.019808143
8	0x3d47cdee	0.048780374
9	0xbd3c9afe	-0.04604625
10	0xbe786fc9	-0.24261393
11	0xbd29ca09	-0.04145244
12	0x3dd53e67	0.10412293
13	0x3dc54006	0.09631352
14	0x3db2e659	0.087353416
15	0x3c9c8e42	0.019110803

linear1.weight f4 [64, 32]
0	0xbe1b8d7d	-0.15190692
1	0x3e2529e3	0.1612926
2	0xbe8e7f0c	-0.27831304
3	0xbd0b6764	-0.034034148
4	0xbe472d8a	-0.19450966
5	0xbdfdb043	-0.12387135
6	0xbdddd2bf	-0.10831212
7	0x3e6fa9e0	0.23404646
8	0x3da5f421	0.081032045
9	0x3c8f8a22	0.017521922
10	0xbd4fe202	-0.050752647
11	0xbd1b46aa	-0.037909187
12	0x3e0d0909	0.13772978
13	0xbe390129	-0.18066849
14	0x3cfbe757	0.03074996
15	0xbd169bc9	-0.036769662
16	0xbe6a7236	-0.2289513
17	0xbcf2d5d6	-0.02964298
18	0x3da42f57	0.08016842
19	0xbacaf364	-0.0015483913
20	0x3d28b62d	0.04118936
21	0xbd66333f	-0.056201216
22	0xbdae0e9c	-0.0849888
23	0x3e18c4cc	0.14918822
24	0xbda7de8d	-0.08196745
25	0xbddca59d	-0.10773776
26	0xbe4f672e	-0.20254204
27	0x3d2b3f98	0.041808695
28	0x3d0f5b9f	0.034999486
29	0x3e04602b	0.1292731
30	0xbe15d223	-0.14630942
31	0x3e2e44df	0.1701846
32	0x3e7ac858	0.24490488
33	0xbdfca786	-0.1233664
34	0xbde64ddc	-0.11245319
35	0x3e148c9a	0.1450676
36	0xbdb8e314	-0.09027687
37	0x3d8bfa96	0.06834905
38	0x3d149f13	0.036284517
39	0xbd3ade59	-0.045622203
40	0xbb8f6842	-0.004376442
41	0xbd1a6a91	-0.037699286
42	0xbe762f31	-0.2404144
43	0xbdd5c72a	-0.10438378
44	0xbe03bd20	-0.12865114
45	0xbc84da54	-0.016217388
46	0xbde8aa78	-0.11360639
47	0x3e4de9c2	0.20108703
48	0xbe23206e	-0.1593034
49	0x3d5ae6c3	0.053442728
50	0xbd78dbb3	-0.060756397
51	0x3e445508	0.19173062
52	0x3e22d67f	0.15902136
53	0x3dc889b8	0.09791893
54	0xbdc8726b	-0.097874485
55	0xbdb2421a	-0.08704014
56	0x3d8ff6a2	0.07029463
57	0xbcefe36c	-0.029283248
58	0xbe1d461c	-0.15358776
59	0x3dea9eb0	0.114560485
60	0xbdd83ee6	-0.10558872
61	0x3bb6826a	0.005569746
62	0xbde6120e	-0.112339124
63	0x3cbdbac0	0.023160338
64	0x3e5e550e	0.21712133
65	0x3dd7c733	0.10536041
66	0x3e308576	0.17238411
67	0xbe432627	-0.19057523
68	0xbd43719b	-0.047715764
69	0x3ce77fbd	0.028259153
70	0xbd8a0ce8	-0.06740743
71	0x3c7b3234	0.015331794
72	0xbe1058a8	-0.1409632
73	0xbcae2a84	-0.021260507
74	0xbd765702	-0.06014157
75	0x3ddb033c	0.10693976
76	0xbe0d2b28	-0.13785994
77	0xbe1e91fa	-0.15485373
78	0x3d015a15	0.03158005
79	0x3e3eea1c	0.18643993
80	0xbe0ddef6	-0.13854584
81	0xbd3e6fcb	-0.046493333
82	0x3e06e1d6	0.13172087
83	0x3d965b4b	0.073416315
84	0x3de8dda4	0.113703996
85	0x3e11b905	0.14230736
86	0xbde5acd7	-0.11214607
87	0xbd9c06ee	-0.07618509
88	0x3de492bb	0.11160799
89	0x3d934609	0.071910925
90	0xbdf223a8	-0.11823207
91	0x3e1c8ace	0.15287325
92	0x3dcac134	0.09900132
93	0xbd3fd6cf	-0.046835717
94	0x3c2161b1	0.009849952
95	0xbde4d699	-0.11173744
96	0xbd408e33	-0.04701061
97	0x3df31bc5	0.11870531
98	0x3ce8be06	0.028410923
99	0x3e26c417	0.1628574
100	0xbe303d76	-0.17210945
101	0x3de61afc	0.112356156
102	0xbdeef646	-0.11668067
103	0x3d8ebf60	0.06970096
104	0x3d1ec3d9	0.038760994
105	0xbdb7ba16	-0.0897104
106	0xbe05af97	-0.13055263
107	0xbe20f8e2	-0.15719941
108	0x3c1b61f6	0.009483805
109	0xbe4c6bb8	-0.19962966
110	0xbe482836	-0.1954659
111	0x3e20153b	0.15633099
112	0xbe810e8a	-0.25206405
113	0xbe40a26c	-0.18811959
114	0xbe053f7b	-0.13012497
115	0x3e44d40a	0.19221511
116	0x3e31826a	0.17334905
117	0xbd40a7c1	-0.047034983
118	0x3cb93dde	0.022612508
119	0xbe17e591	-0.14833666
120	0x3ded839d	0.11597369
121	0xbe0799c0	-0.13242245
122	0xbdf8114c	-0.12112674
123	0x3e391d98	0.18077695
124	0x3e6130df	0.21991299
125	0x3e742a13	0.23844175
126	0x3e2321ff	0.15930937
127	0x3e60a960	0.21939611
128	0x3e5f846c	0.21827859
129	0x3d7faa5a	0.06241832
130	0x3e52d42c	0.2058875
131	0x3cc1b64a	0.023646493
132	0x3db01083	0.08596899
133	0x3e31b7ff	0.17355345
134	0xbe5641dd	-0.20923562
135	0x3d5d6704	0.05405332
136	0xbda9b1e8	-0.08285886
137	0x3dd49956	0.10380809
138	0xbe2251d0	-0.15851521
139	0xbd15d5e0	-0.03658092
140	0xbdf9c731	-0.12196196
141	0xbe77d6c2	-0.24203017
142	0xbe6b2dd1	-0.22966696
143	0x3d8d6aed	0.0690516
144	0xbe23023d	-0.15918823
145	0xbd844515	-0.06458489
146	0x3c069e99	0.008216524
147	0x3d2c9274	0.042131856
148	0xbc5d6e91	-0.013515131
149	0xbbc95977	-0.0061446982
150	0x3d061b07	0.03274062
151	0x3df38149	0.118898936
152	0xbbf31717	-0.007418524
153	0xbd093073	-0.03349347
154	0xbe5f7e05	-0.21825416
155	0xbd671613	-0.056417536
156	0xbd78be7b	-0.06072853
157	0x3e725bdf	0.23667859
158	0xbe16aa67	-0.14713441
159	0xbd18a311	-0.037264887
160	0xbce1f208	-0.02758123
161	0xbdc54355	-0.09631983
162	0xbd183d05	-0.037167568
163	0x3b8be0a0	0.0042687207
164	0x3e7fd1bb	0.2498235
165	0xbe6eeded	-0.23332949
166	0x3dd0fa9a	0.102040485
167	0xbdb444e2	-0.08802201
168	0x3db661e9	0.08905394
169	0xbce9430b	-0.028474351
170	0x3dce3edd	0.10070584
171	0xbd96dd8a	-0.07366474
172	0x3e6e9578	0.23299205
173	0xbe0a7b0e	-0.13523504
174	0xbd6ad36b	-0.05733053
175	0x3d80892c	0.062761635
176	0xbe4c02c4	-0.1992293
177	0xbbcd8d55	-0.0062729516
178	0x3dc02487	0.09381967
179	0x3e168efe	0.14702985
180	0x3d21b8a5	0.03948273
181	0x3db2e846	0.08735709
182	0x3d8e0efc	0.06936452
183	0xbdcc3620	-0.09971261
184	0xbd04f9e5	-0.03246488
185	0xbe166803	-0.14688115
186	0xbe60c7c2	-0.21951202
187	0xbdb1cd42	-0.08681728
188	0xbdbf162d	-0.093304016
189	0x3e73e5f0	0.23818183
190	0xbc6a1cf9	-0.014289134
191	0x3e0712bb	0.13190739
192	0x3e5c1dfc	0.21495813
193	0xbce09262	-0.02741355
194	0x3e58e5bd	0.21181388
195	0x3d97cfd7	0.07412689
196	0x3d843a28	0.06456405
197	0x3e0be069	0.13659824
198	0x3e108156	0.14111838
199	0xbda6a3d1	-0.08136714
200	0xbe2d4b0a	-0.16923156
201	0x3df0f65a	0.11765738
202	0xbda44753	-0.080214165
203	0xbd348f17	-0.044081774
204	0x3cb6cefd	0.022315497
205	0x3d029771	0.031882707
206	0x3ded9838	0.11601299
207	0x3e2c9b8e	0.16856214
208	0xbe276069	-0.16345371
209	0x3d3d5972	0.04622788
210	0xbcb1bd5a	-0.021696735
211	0xbcc18c4e	-0.023626473
212	0xbdfd2c02	-0.123619094
213	0x3d5975a1	0.053090695
214	0xbd9a65c1	-0.07538939
215	0x3d475815	0.048667986
216	0xbdf5d1a0	-0.120028734
217	0x3db71741	0.08939982
218	0xbe074836	-0.1321114
219	0xbcff48b7	-0.031162603
220	0x3b7d92b5	0.003869218
221	0xbb57bf2d	-0.0032920346
222	0xbd1efd95	-0.038816053
223	0x3e25e233	0.1619957
224	0x3e61659d	0.22011419
225	0xbe296c73	-0.16545276
226	0x3e5a8583	0.21339993
227	0xbc139d68	-0.009009697
228	0x3ca955b0	0.020670742
229	0xbdb83ffa	-0.089965776
230	0x3ade3b7d	0.0016954985
231	0xbd46bcd9	-0.048519943
232	0xbd252654	-0.040319756
233	0x3e00fa83	0.12595563
234	0x3d735b53	0.059413265
235	0xbe409e3a	-0.18810359
236	0xbd024378	-0.031802624
237	0xbe831756	-0.2560374
238	0x3e04818b	0.12940042
239	0x3e4e0048	0.20117295
240	0xbe466c57	-0.19377266
241	0xbe0c8739	-0.13723458
242	0xbcd3e695	-0.025866786
243	0x3e361b1e	0.17783782
244	0x3d99be1a	0.07506962
245	0x3dd4df85	0.103941955
246	0x3dc23e69	0.0948456
247	0xbb9b2e99	-0.0047357795
248	0x3e6e64c9	0.23280634
249	0xbce2bcb3	-0.02767787
250	0xbcb8239f	-0.022477923
251	0x3e59838f	0.21241592
252	0x3d4af02c	0.049545452
253	0xbcb728c4	-0.022358306
254	0xbe0cacd2	-0.137378
255	0x3da34a1c	0.079731196

linear1.bias f4 [64]
0	0xbcf4d44c	-0.029886387
1	0x3dc5afac	0.096526474
2	0xbcc73596	-0.024317544
3	0x3e11476a	0.14187399
4	0x3d5378db	0.05162893
5	0x3e1e4424	0.15455681
6	0xbcb93252	-0.022607002
7	0x3d9797f8	0.074020326
8	0x3e01db7e	0.12681386
9	0x3e104948	0.14090455
10	0xbdbb2ad4	-0.09139028
11	0x3e060a5c	0.1308989
12	0x3e50de1e	0.20397231
13	0x3de93fb5	0.11389104
14	0x3e6867bf	0.22695826
15	0xbdfb63f1	-0.12274922
16	0x3d692a7a	0.056925274
17	0x3e776fc1	0.24163724
18	0xbd4f244a	-0.050571717
19	0xbdbd1659	-0.09232778
20	0xbd33b554	-0.0438741
21	0xbe14fd98	-0.14549863
22	0xbd1ed306	-0.038775466
23	0xbc8cbd1c	-0.017180018
24	0xbdb3fc13	-0.08788314
25	0x3e0df7d8	0.13864076
26	0xbd65e1d4	-0.05612357
27	0x3d9ae706	0.075635955
28	0x3d41b8f5	0.04729553
29	0x3e2f8db5	0.171439
30	0x3e226eef	0.1586263
31	0x3dae40ba	0.08508439
32	0x3dfd6793	0.12373271
33	0x3d633f0b	0.055480044
34	0x3bc0850d	0.005875236
35	0x3d1d235c	0.0383638
36	0x3de75def	0.11297213
37	0x3d5858c6	0.052819036
38	0x3d61e4ba	0.05514977
39	0xbd506407	-0.050876644
40	0x3db5ef86	0.08883576
41	0x3e124820	0.14285326
42	0x3e7af607	0.24507914
43	0x3e174f1a	0.14776269
44	0x3b5d4bec	0.0033767177
45	0xbdc52b49	-0.096273966
46	0xbd8fff63	-0.07031133
47	0xbd9e5ea1	-0.07732893
48	0x3cf5c8db	0.030003002
49	0xbd2aca4d	-0.041696835
50	0x3e06c3cf	0.13160633
51	0x3d8f8f59	0.07009763
52	0xbcbf8a77	-0.023381455
53	0x3b7e4777	0.003879992
54	0xbc77fc18	-0.015135787
55	0x3d44fba9	0.048091564
56	0xbe410841	-0.18850805
57	0x3e2304f0	0.15919852
58	0x3e6a5503	0.22883992
59	0x3d39dba4	0.04537548
60	0x3da001e4	0.078128606
61	0xbc9bdd7e	-0.019026514
62	0xbd83a88d	-0.06428633
63	0x3e04544e	0.12922785

linear2.weight f4 [16, 64]
0	0x3cf865a7	0.03032191
1	0xbdd738fe	-0.10508917
2	0xbe0eb98e	-0.13937971
3	0xbc816714	-0.015796222
4	0xbe190548	-0.14943421
5	0x3dba69f6	0.09102242
6	0x3ccb88be	0.024845477
7	0x3e469dda	0.19396153
8	0x3d2078c1	0.03917766
9	0xbd92b4a5	-0.071633615
10	0xbcc1b4aa	-0.023645718
11	0x39969f11	0.00028728743
12	0x3e210b25	0.15726908
13	0x3cb1f192	0.021721635
14	0xbd3f498c	-0.046701
15	0x3d5250ca	0.051346578
16	0xbcbab0c2	-0.022789363
17	0x3cf03174	0.029320456
18	0x3e3bb34b	0.18330114
19	0x3e257064	0.16156155
20	0x3dedae96	0.11605565
21	0xbd29eed4	-0.04148753
22	0x3ddc753d	0.10764549
23	0x3d93ea4e	0.072224244
24	0xbd2be514	-0.041966513
25	0x3e19527e	0.14972875
26	0x3cb391e3	0.02192015
27	0xbd1dba27	-0.038507607
28	0xbce3bbf0	-0.027799577
29	0x3e19b927	0.15012036
30	0x3d8f89f3	0.070087336
31	0xbd833cfa	-0.06408115
32	0x3cfe6977	0.031056149
33	0x3e33c6a9	0.17556252
34	0xbc7e2c19	-0.015513443
35	0x3d81c52a	0.06336434
36	0xbe0a1203	-0.13483433
37	0x3da9f02f	0.082977645
38	0x3dc3eab1	0.09566248
39	0xbd6a6d84	-0.05723335
40	0x3e4952dc	0.19660515
41	0x3d00c996	0.031442247
42	0x3c405670	0.011739358
43	0x3cfac887	0.030613197
44	0x3e3c0465	0.18361051
45	0x3e0dd7dd	0.13851877
46	0xbd67ff4e	-0.056639962
47	0x3ddeb4a3	0.108742975
48	0xb9c92580	-0.00038365647
49	0x3db9ed91	0.09078515
50	0xbd055cdf	-0.032559272
51	0x3c83614f	0.016037611
52	0x3a7c59d5	0.0009626423
53	0x3e280305	0.16407402
54	0xbda8c386	-0.08240418
55	0x3dea2d1e	0.11434387
56	0xbcba0a56	-0.022710007
57	0x3d0d8db5	0.03455897
58	0x3d64a46e	0.055820875
59	0x3e37190b	0.17880647
60	0xbe2421e7	-0.16028558
61	0xbde49faa	-0.11163266
62	0x3d7e6817	0.062110987
63	0xbd6a511b	-0.057206254
64	0xbdd65c37	-0.10466807
65	0xbc2d0cf2	-0.010562168
66	0x3d9dfb4c	0.07713947
67	0xbdf9cb77	-0.12197011
68	0x3dd52f47	0.10409408
69	0x3d8a781a	0.06761189
70	0xbd0117ee	-0.03151696
71	0xbd0666eb	-0.032812994
72	0x3ae557ff	0.0017497538
73	0xbd792073	-0.06082196
74	0x3bc491ff	0.0059988494
75	0xbde9ed47	-0.1142221
76	0x3d744819	0.05963907
77	0xbda7e061	-0.08197094
78	0x3dc4ebb9	0.09615273
79	0x3d643145	0.05571105
80	0xbd2c93b3	-0.042133044
81	0xbdc46d3d	-0.09591148
82	0xbda2bb27	-0.07945853
83	0xbda13365	-0.07871131
84	0x3de6574f	0.112471215
85	0xbd16df86	-0.036834262
86	0xbdaf6440	-0.08564043
87	0x3d9a54ea	0.07535727
88	0xbd8375f8	-0.06418985
89	0xbd6aad8a	-0.057294406
90	0x3c8f7b92	0.017514978
91	0x3dac8908	0.08424574
92	0xbdb402e6	-0.08789615
93	0xbcebb9c9	-0.028775113
94	0x3ab99c75	0.0014161008
95	0xbcd575f1	-0.026057215
96	0xbdf73610	-0.120708585
97	0xbd8a0062	-0.06738354
98	0xbcd798a9	-0.026317911
99	0xbd8d1cfc	-0.06890294
100	0x3b8c6c02	0.0042853365
101	0x3d15f68f	0.03661209
102	0xbd844fe1	-0.06460548
103	0x3d56306d	0.052292276
104	0x3de49e19	0.11162967
105	0x3df247d6	0.11830108
106	0x3d712111	0.058869425
107	0x3cc0fccf	0.023558049
108	0xbd0c7661	-0.034292582
109	0x3d672f3f	0.05644154
110	0xbcb6b950	-0.02230516
111	0x3da6b385	0.081397094
112	0x3ccd7c6c	0.025083743
113	0xbd64d7ea	-0.055869974
114	0x3dd93ea7	0.10607653
115	0xbd8fb738	-0.07017368
116	0xbdcfac3a	-0.101402715
117	0xbdf9e64d	-0.122021295
118	0xbd8a2a6e	-0.06746374
119	0x3bb5264e	0.005528248
120	0xbcb3abcb	-0.021932503
121	0xbde46a61	-0.11153103
122	0xbd4bf4aa	-0.049793877
123	0xbce21dfb	-0.027602186
124	0xbd13ca3a	-0.03608153
125	0xbb7f3db0	-0.003894668
126	0x3cae9ae1	0.021314086
127	0xbdd70322	-0.104986444
128	0x3d51e18f	0.0512405
129	0x3db29708	0.08720213
130	0x3df5b583	0.11997511
131	0x3df8e29f	0.121525995
132	0x3da3cfb7	0.07998603
133	0xbd9ccf4b	-0.076567255
134	0x3d802b60	0.06258273
135	0x3e465867	0.1936966
136	0xbda97c2e	-0.082756385
137	0x3d2bca27	0.041940834
138	0x3dfd8b6d	0.12380109
139	0x3dea0a37	0.114277296
140	0x3dbf19cd	0.09331093
141	0xbc4e926b	-0.012608151
142	0x3e3ccdd1	0.18437888
143	0x3c0f2ae8	0.008738257
144	0x3d65f817	0.0561448
145	0x3d025951	0.03182346
146	0xbd34041b	-0.043949228
147	0xbd6f9fed	-0.058502126
148	0x3e15ad37	0.14616857
149	0x3c247ae3	0.010039064
150	0xbd0e9a08	-0.034814864
151	0xbdb5079f	-0.08839344
152	0x3de23473	0.1104516
153	0xbd675f1b	-0.056487184
154	0xbd51bf22	-0.05120767
155	0x3dd94428	0.10608703
156	0x3e03a444	0.12855631
157	0xbde7ceb4	-0.11318722
158	0x3dec4149	0.1153589
159	0x3cd364ac	0.02580484
160	0x3e14e3bc	0.14539999
161	0xbd2bede6	-0.041974925
162	0xbd8309e5	-0.063983716
163	0x3d2291fc	0.039690003
164	0x3d68a7d8	0.056800693
165	0xbd8f77c3	-0.070052646
166	0x3e3fd20b	0.18732469
167	0xbcc3003d	-0.023803825
168	0xbde2bb12	-0.11070837
169	0x3e4948d9	0.19656695
170	0x3e2024cd	0.15639038
171	0x3e1d2d88	0.153494
172	0x3d8d5053	0.06900086
173	0x3cb87759	0.022517847
174	0x3df8cebe	0.12148808
175	0x3d830eb1	0.063992865
176	0xbe0097ad	-0.1255786
177	0x3d86c76a	0.06581004
178	0x3df3cb25	0.11903981
179	0xbb05ff3c	-0.002044632
180	0x3e5a0359	0.2129034
181	0xbe4348bc	-0.19070715
182	0x3e296994	0.16544181
183	0x3dd6f1a8	0.10495311
184	0x3d96f7a0	0.073714495
185	0x3cbb282a	0.0228463
186	0x3dd5b2d7	0.104345016
187	0xbe208193	-0.15674429
188	0x3e5583d2	0.20851067
189	0x3cbd4aeb	0.023107013
190	0x3cf34757	0.029697103
191	0x3dabd539	0.08390278
192	0xbb88da07	-0.0041763815
193	0x3e542a9a	0.20719376
194	0x3d1317cb	0.035911363
195	0x3df6292d	0.120195724
196	0x3e1eea3c	0.15519041
197	0x3cc263ce	0.023729231
198	0x3b6f0f3a	0.0036477582
199	0x3e4fcd22	0.20293096
200	0xbe0bd258	-0.13654459
201	0x3d1867ae	0.03720825
202	0x3cb997aa	0.022655327
203	0x3cd2f216	0.025750201
204	0xbdba7ef4	-0.09106246
205	0xbd65f3dd	-0.05614077
206	0x3e260ca8	0.16215765
207	0xbd31c028	-0.043396145
208	0x3e1363cf	0.14393543
209	0x3e216d8f	0.1576445
210	0x3c9e15c8	0.019297495
211	0xbddcb34d	-0.107763864
212	0xbcd8a041	-0.026443603
213	0xbd2e7a96	-0.042597376
214	0xbc8d611b	-0.017258218
215	0xbe2318fa	-0.15927497
216	0x3e365fd3	0.17809992
217	0x3cea41d0	0.028595835
218	0xbdd7bcae	-0.10534035
219	0x3d640044	0.055664316
220	0x3e1a59b1	0.15073277
221	0xbe19b9b6	-0.1501225
222	0xbd0b66dc	-0.03403364
223	0xbcd74bfe	-0.026281353
224	0xbcfa0739	-0.030521022
225	0x3deed1a8	0.116610825
226	0xbda10bd4	-0.07863584
227	0x3dd6d1f5	0.10489265
228	0x3e34f74f	0.17672466
229	0xbd982ade	-0.07430051
230	0x3c4bca92	0.012438433
231	0x3d7269b0	0.059182823
232	0xbd48fbbf	-0.04906821
233	0x3e329c8d	0.17442532
234	0x3e1c1c11	0.15245081
235	0x3e1b6748	0.15176117
236	0x3dc8b6aa	0.098004654
237	0xbd070c55	-0.032970745
238	0x3e3b74f9	0.1830634
239	0x3e33e39c	0.17567295
240	0xbba8a182	-0.0051462064
241	0x3e38a953	0.18033342
242	0x3e2c0352	0.16798142
243	0xbd870730	-0.06593168
244	0x3db33218	0.08749789
245	0xbe449369	-0.19196858
246	0x3e04db12	0.12974194
247	0x3ac9999b	0.0015380861
248	0xbdcebd98	-0.10094756
249	0x3d7b21b2	0.06131143
250	0x3e16f8f3	0.14743404
251	0xbddd675a	-0.10810728
252	0x3e11e5bc	0.14247793
253	0xbb1a2650	-0.0023521371
254	0xbd3033be	-0.043018095
255	0xb9abab8c	-0.00032743474

linear2.bias f4 [16]
0	0x3e05a1d5	0.13050015
1	0xbd9339d0	-0.07188761
2	0x3e287ff7	0.16455065
3	0x3dc44d38	0.09585041
4	0xbd1aa2bf	-0.037752863
5	0x3daa020a	0.0830117
6	0x3b914826	0.0044336496
7	0xbcb440b6	-0.022003513
8	0xbd194c60	-0.037426353
9	0xbd17539f	-0.03694498
10	0x3d802a40	0.062580585
11	0xbd23428e	-0.039858393
12	0xbbd82c7d	-0.0065971003
13	0x3d864308	0.06555754
14	0xbd153fab	-0.03643767
15	0xbca91169	-0.020638185

linear3.weight f4 [2, 16]
0	0x3e976ee5	0.29576793
1	0xbe4bc2c7	-0.1989852
2	0xbe14e836	-0.14541706
3	0xbe8406d6	-0.25786465
4	0xbe43f252	-0.19135407
5	0x3e9ae3bf	0.3025188
6	0x3c9c574c	0.019084595
7	0xbe82b6cd	-0.2553009
8	0x3e897578	0.26847434
9	0xbe51b3f7	-0.20478807
10	0xbe97d28f	-0.2965283
11	0x3e7fa158	0.24963892
12	0xbe691816	-0.22763094
13	0xbe56e035	-0.20983966
14	0xbe7a9331	-0.24470212
15	0x3e006094	0.12536842
16	0x3e06926e	0.13141796
17	0x3e459b96	0.19297633
18	0xbeba170c	-0.36345708
19	0xbeb4e14d	-0.3532814
20	0x3e972ce2	0.2952643
21	0xbd724050	-0.059143364
22	0x3ea9827a	0.33107358
23	0x3e67cc7e	0.22636601
24	0x3e356c69	0.17717136
25	0xbe2c1420	-0.16804552
26	0x3d2f5be5	0.042812247
27	0xbd25f7e1	-0.0405196
28	0xbd1ad155	-0.03779729
29	0x3e08eb86	0.13371095
30	0xbdae41bd	-0.08508632
31	0x3e9dfa22	0.308549

linear3.bias f4 [2]
0	0xbd4fefd8	-0.050765842
1	0xbcc8b0a4	-0.024498291
