gym_pybullet_drones/examples/models/actor_gnn_4drones_1.pkl (torch, 24004 bytes, 14 tensors)

self_encoder_1.weight f4 [32, 8]
0.15777907 -0.28117087 0.63267654 -0.23805834 -0.2951395 0.108898014 -0.035203777 0.054942474
-0.29669192 0.11955454 -0.4177271 -0.5063697 -0.08928862 0.116820894 -0.03485901 0.1298897
0.25245547 -0.2519414 0.13198964 -0.30198905 0.038122322 0.15884854 0.15582608 -0.21796802
0.15450935 0.11222224 -0.15774554 0.46662667 -0.074181035 0.12853995 0.05552838 -0.010119521
0.1432443 0.1078186 0.022470608 0.24576476 0.31069726 -0.24945134 0.25254962 -0.04021146
-0.37329122 0.37432745 -0.19566761 0.44770774 -0.054260485 -0.23628235 -0.23130094 0.3227981
0.3137351 -0.12608129 0.4442678 0.53776497 0.093367934 -0.123429805 0.03660117 -0.13789748
0.30836317 -0.15669921 -0.19979402 0.27164483 0.13180186 -0.16321291 0.13635106 -0.36160162
-0.19465734 0.2939884 -0.5802141 0.520963 0.16643462 -0.28784937 0.22747272 -0.003908183
-0.06155235 0.17631878 -0.04771918 0.6884552 0.008383888 -0.19915652 -0.063919574 0.066306956
-0.021540545 -0.23502587 -0.4284961 -0.37565345 0.20621221 0.03372766 0.119099356 0.0805428
-0.17446607 -0.1289908 -0.026213959 -0.29941323 -0.37405497 0.29950672 -0.3022167 0.04924574
-0.35975263 -0.13080736 -0.5594603 0.3921583 -0.23488922 -0.23450999 -0.24674232 -0.031637993
0.0582816 0.02655832 0.2915843 0.1941067 -0.2845776 -0.30993634 0.1365366 -0.10451482
-0.18849744 -0.21771577 0.0719443 0.08831016 0.26341122 0.19052899 0.011409072 0.071159825
-0.13360037 -0.097867124 0.13635512 -0.40265423 0.06285796 -0.11208462 -0.04907476 0.008611082
0.029947761 0.31560758 0.5760226 0.5012441 -0.27714032 -0.04601756 -0.14035653 -0.104095116
0.12031115 -0.18011686 0.3607691 -0.30433506 -0.10232698 0.1759968 -0.14774948 0.0023646606
0.278449 -0.038226224 0.4511659 0.16933288 -0.26006052 0.21591721 0.17525713 0.07166151
0.04797261 -0.13460965 0.03514655 -0.5252074 -0.0058452357 0.15196337 0.047927134 -0.050955802
0.13402073 0.30063662 0.5029318 0.010093484 -0.38377336 -0.25041905 -0.037209492 0.18371904
-0.14454547 0.24829441 -0.5090971 0.19919482 0.26087937 -0.09918015 0.046213873 -0.057451896
0.11605382 -0.17892405 0.34064123 -0.35784525 -0.09959391 0.17595519 -0.11559054 0.0024138582
-0.0720011 -0.032797243 -0.36096385 -0.23920621 0.35202572 0.3831989 -0.16870318 0.12870994
-0.15605597 -0.34938768 -0.58305484 -0.01159166 0.44494778 0.2899686 0.043141365 -0.21320342
-0.27339867 0.03800128 -0.4489968 -0.16237229 0.25484696 -0.21178924 -0.16900532 -0.068163335
0.22270672 0.08136806 0.3442663 -0.24230106 0.14589685 0.14519762 0.15796943 0.027234199
-0.17218381 0.30396694 -0.69659764 0.25946113 0.31908897 -0.11917507 0.036724437 -0.05820758
-0.10629709 0.22111078 0.29649523 0.42171475 0.08051344 -0.14283197 0.15167144 0.08039686
-0.027001627 -0.29766 -0.5427428 -0.45956722 0.26212347 0.042051744 0.075733945 0.082257584
0.064657524 -0.18220219 0.0625065 -0.7121182 -0.012009053 0.20456053 0.06607994 -0.058772348
0.38006848 0.13879599 0.5881875 -0.40815398 0.24882428 0.24653815 0.2431523 0.015788091
00000000: d690 213e a1f5 8fbe 17f7 213f 91c5 73be
00000010: 861c 97be ec05 df3d d631 10bd 5c0b 613d
00000020: 01e8 97be 03d9 f43d 54e0 d5be 72a1 01bf
00000030: f4dc b6bd cb3f ef3d 52c8 0ebd ce01 053e
00000040: d841 813e 77fe 80be 4b28 073e 4f9e 9abe
00000050: 2726 1c3d 31a9 223e df90 1f3e 0233 5fbe
00000060: b337 1e3e c6d4 e53d 0c88 21be b1e9 ee3e
00000070: 3aec 97bd fa9f 033e ba71 633d 59cc 25bc
00000080: a2ae 123e 00d0 dc3d 4814 b83c c2a9 7b3e
00000090: b613 9f3e 2c70 7fbe 2f4e 813e c6b4 24bd
000000a0: 0720 bfbe d9a7 bf3e 175d 48be f339 e53e
000000b0: 3e40 5ebd 00f4 71be 27da 6cbe cb45 a53e
000000c0: e3a1 a03e 741b 01be 1277 e33e f7aa 093f
000000d0: b037 bf3d c4c8 fcbd 1ceb 153d ff34 0dbe
000000e0: c7e1 9d3e c275 20be ce96 4cbe 0815 8b3e
000000f0: 11f7 063e 4921 27be 9d9f 0b3e d923 b9be
00000100: 4154 47be a685 963e e988 14bf d55d 053f
00000110: d66d 2a3e fe60 93be 9cee 683e 3710 80bb
00000120: 511e 7cbd e98c 343e 3075 43bd 9a3e 303f
00000130: 935c 093c b0ef 4bbe 44e8 82bd f1cb 873d
00000140: cc75 b0bc 9faa 70be d763 dbbe a655 c0be
00000150: 4b29 533e 0426 0a3d 5dea f33d a0f3 a43d
00000160: 3ca7 32be 2a16 04be a8be d6bc b14c 99be
00000170: 2284 bfbe f258 993e 26bc 9abe e7b5 493d
00000180: 7f31 b8be 5df2 05be ca38 0fbf f9c8 c83e
00000190: cd86 70be 6323 70be 05aa 7cbe d796 01bd
000001a0: b0b8 6e3d d590 d93c 8a4a 953e e8c3 463e
000001b0: 28b4 91be faaf 9ebe 40d0 0b3e de0b d6bd
000001c0: 7905 41be e2f0 5ebe 8857 933d f5db b43d
000001d0: d6dd 863e 081a 433e 1eed 3a3c 3ebc 913d
000001e0: 89ce 08be 8f6e c8bd ada0 0b3e b228 cebe
000001f0: adbb 803d 9f8c e5bd 9e02 49bd 7f15 0d3c
00000200: 0255 f53c 5197 a13e 3876 133f 8951 003f
00000210: 56e5 8dbe e97c 3cbd 9fb9 0fbe d22f d5bd
00000220: b165 f63d 8e70 38be bab6 b83e ced1 9bbe
00000230: cf90 d1bd 8138 343e a44b 17be 6cf8 1a3b
00000240: de90 8e3e 1a93 1cbd 38ff e63e 9965 2d3e
00000250: a726 85be 6719 5d3e 9b76 333e 45c3 923d
00000260: ed7e 443d 1dd7 09be d4f5 0f3d fe73 06bf
00000270: 6489 bfbb 499c 1b3e 3e4f 443d 08b7 50bd
00000280: bb3c 093e 0bed 993e 23c0 003f 245f 253c
00000290: f17d c4be ed36 80be fb68 18bd d820 3c3e
000002a0: ba03 14be e440 7e3e 3054 02bf baf9 4b3e
000002b0: fb91 853e f61e cbbd c24a 3d3d ae52 6bbd
000002c0: a0ad ed3d de37 37be 8768 ae3e 7e37 b7be
000002d0: e4f7 cbbd 992d 343e bcba ecbd d231 1e3b
000002e0: 5075 93bd 6756 06bd 41d0 b8be 79f2 74be
000002f0: b73c b43e a532 c43e 87c0 2cbe 8acc 033e
00000300: 23cd 1fbe f1e2 b2be 1543 15bf f2ea 3dbc
00000310: 32d0 e33e c476 943e 00b5 303d ff51 5abe
00000320: e9fa 8bbe 3ba7 1b3d e9e2 e5be ec44 26be
00000330: 4d7b 823e 47df 58be bb0f 2dbe 3899 8bbd
00000340: 3b0d 643e 4ca4 a63d ac43 b03e c51d 78be
00000350: fc65 153e afae 143e bdc2 213e 411a df3c
00000360: f450 30be 8ea1 9b3e 3954 32bf 17d8 843e
00000370: a15f a33e 0f12 f4bd 5d6c 163d 126b 6ebd
00000380: 4ab2 d9bd dd6a 623e 39ce 973e ffea d73e
00000390: 3be4 a43d 8b42 12be c24f 1b3e 1ca7 a43d
000003a0: 8432 ddbc e466 98be 31f1 0abf 654c ebbe
000003b0: 0c35 863e 733e 2c3d 661a 9b3d aa76 a83d
000003c0: 2a6b 843d 3693 3abe 6803 803d 614d 36bf
000003d0: 9ec1 44bc 5178 513e eb54 873d 46bb 70bd
000003e0: 5698 c23e 8920 0e3e 7593 163f 8ff9 d0be
000003f0: cbcb 7e3e 7f74 7c3e ebfc 783e 0756 813c

self_encoder_1.bias f4 [32]
-0.07333423 -0.06243782 -0.07886433 -0.19733411 0.09575331 0.15253182 0.06830935 0.018129354
0.097280696 -0.10206215 -0.007341684 -0.09835546 0.055135068 -0.031211788 0.4509127 0.17359781
0.022106996 -0.12259788 0.010012056 0.033059195 -0.005861159 -0.23900875 0.06507991 0.041438658
0.008696282 0.07003668 -0.096142106 0.13610448 0.3312811 -0.045461908 0.17662364 0.07729058
00000000: 4230 96bd cdbe 7fbd 9f83 a1bd f411 4abe
00000010: 501a c43d 4d31 1c3e c6e5 8b3d 0384 943c
00000020: 1a3b c73d f605 d1bd 8292 f0bb 966e c9bd
00000030: 4fd5 613d ddaf ffbc 08de e63e a0c3 313e
00000040: bb19 b53c 9914 fbbd 9b09 243c 1469 073d
00000050: f70e c0bb b6be 74be 9e48 853d 95bb 293d
00000060: da7a 0e3c 646f 8f3d 27e6 c4bd f95e 0b3e
00000070: ad9d a93e 4436 3abd d4dc 343e 864a 9e3d

self_encoder_2.weight f4 [16, 32]
-0.18868773 -0.16913491 -0.18590033 0.22924395 -0.058793716 0.17996876 0.23742972 -0.034657672
-0.025372284 0.22902471 -0.19712295 -0.0333819 -0.1260009 0.14963049 0.07233113 -0.21151532
0.21523775 -0.013842067 -0.14682832 -0.30463508 0.11578546 -0.1125724 0.04075535 0.117561
-0.039773524 -0.054637313 -0.04294427 0.07143147 -0.14163862 -0.03995026 0.07831101 -0.05582849
0.25101528 0.12777548 0.19306746 -0.1373684 -0.08479885 -0.08963943 -0.084355265 -0.08513022
0.042503428 -0.16748695 0.09975856 0.19167416 -0.10058602 -0.085287414 0.120739006 0.058702193
0.11176647 -0.066837445 -0.0052385945 0.065795355 -0.09692255 0.079395734 0.06525493 -0.06958847
0.11197906 -0.101890504 0.21430208 0.10268093 0.031996876 -0.038922463 0.23676671 0.14842972
-0.24534555 -0.057844147 -0.07635024 0.061136268 0.09778277 0.11160902 0.1839497 0.043152567
0.011721967 0.34096897 0.062118225 -0.18627681 0.2424263 0.015905607 0.021005608 -0.03242475
0.14572181 -0.21438737 0.060015444 -0.20120753 -0.06181256 0.24439014 -0.10374672 0.07663369
0.046402637 -0.036216095 -0.19390385 0.27851978 -0.02166749 -0.06978244 -0.17016076 -0.17138726
0.22761631 0.18007329 0.07262037 0.037822384 0.033934467 0.15782653 0.16319141 0.27691987
0.124846525 0.13060653 0.28880844 0.13863325 0.08652867 0.07476569 0.24634038 0.10001193
0.050918896 0.20949821 0.119686656 0.12470864 0.011945052 0.13125756 0.084368594 0.21787
-0.00149753 0.2820332 0.12919776 0.15096636 0.2011916 -0.036622867 -0.012701873 0.116153084
-0.19685057 0.2600014 0.11974083 0.20025633 0.13043961 0.0187738 -0.21389472 -0.06685371
0.20365557 -0.09830897 0.21884993 0.11835099 0.2026221 0.060505267 -0.027451206 -0.06306046
-0.1417735 -0.0021493507 0.007542938 0.06859045 -0.19140264 -0.13982865 -0.041204527 0.19261289
0.14155965 0.09538664 -0.24148789 0.00996254 -0.15769951 -0.0068524918 -0.107363805 -0.121566996
0.27682382 -0.23618181 -0.14663512 0.11846483 0.1247842 0.1321964 0.23906456 -0.16274542
0.04064142 0.20019521 -0.21285217 0.070123345 0.09698498 0.10624034 -0.11906159 -0.089075744
0.12119591 0.024600137 0.16931704 -0.23571572 -0.09717438 -0.023481872 -0.036353804 -0.21634495
-0.16930686 0.11884365 0.09093054 -0.20019037 0.109718405 -0.09199652 -0.00933295 0.06775576
-0.2390746 -0.14254484 -0.18389577 -0.018084696 0.13709927 -0.047814544 0.13925514 -0.013423749
0.07212877 0.124490224 0.09501991 -0.04574735 0.120272785 -0.129636 -0.01445601 -0.042904176
0.0571598 -0.055523027 -0.0048796535 -0.14035456 -0.18527205 0.0083238 -0.04177528 -0.103778094
-0.07663065 0.09929543 -0.041296475 0.25181583 0.16656075 -0.20297566 0.05580824 -0.035772696
0.10657319 -0.08087793 -0.049108807 -0.032509405 0.1869987 0.20050633 0.13760394 0.11546849
0.21145222 -0.081747375 -0.081795104 0.045333613 0.17366305 0.12427689 0.0728357 -0.036383085
0.23399061 0.19824097 0.033157997 0.03280759 0.18849315 0.19660114 0.14725095 0.21601507
0.1120981 0.1808095 0.045861885 -0.041290503 -0.0071669696 0.14264974 -0.005670217 0.20173912
00000000: 5b37 41be b431 2dbe a85c 3ebe edbe 6a3e
00000010: aed1 70bd bb49 383e c720 733e 34f5 0dbd
00000020: 89d9 cfbc 7485 6a3e 99da 49be 76bb 08bd
00000030: 6106 01be bc38 193e 5822 943d 7997 58be
00000040: 4967 5c3e d6c9 62bc 2a5a 16be 21f9 9bbe
00000050: ed20 ed3d 5c8c e6bd 15ef 263d d2c3 f03d
00000060: 90e9 22bd 60cb 5fbd 55e6 2fbd aa4a 923d
00000070: b709 11be e2a2 23bd 8661 a03d 6aac 64bd
00000080: 1385 803e 93d7 023e 7ab3 453e 4daa 0cbe
00000090: 05ab adbd e194 b7bd 74c2 acbd c158 aebd
000000a0: 1318 2e3d b381 2bbe 374e cc3d 3b46 443e
000000b0: 0b00 cebd 2bab aebd 0346 f73d b671 703d
000000c0: d2e5 e43d 12e2 88bd 84a8 abbb b7bf 863d
000000d0: 547f c6bd 3b9a a23d 60a4 853d 6684 8ebd
000000e0: 4755 e53d f8ab d0bd 0172 5b3e 614a d23d
000000f0: 280f 033d 296d 1fbd f972 723e f6fd 173e
00000100: dd3b 7bbe fced 6cbd 845d 9cbd 066a 7a3d
00000110: 5542 c83d 4593 e43d 4f5d 3c3e bfc0 303d
00000120: 7e0d 403c 7c93 ae3e ae6f 7e3d 59bf 3ebe
00000130: 9a3e 783e 7a4c 823c f413 ac3c d1cf 04bd
00000140: 1938 153e 5d88 5bbe c1d2 753d 5909 4ebe
00000150: 2b2f 7dbd 6941 7a3e 2979 d4bd 20f2 9c3d
00000160: b110 3e3d 5457 14bd bb8e 46be 259a 8e3e
00000170: 0580 b1bc 19ea 8ebd 9f3e 2ebe 2480 2fbe
00000180: 4014 693e 2265 383e fdb9 943d a5eb 1a3d
00000190: defe 0a3d 479d 213e a61b 273e 71c8 8d3e
000001a0: 89af ff3d b8bd 053e b3de 933e e0f5 0d3e
000001b0: f135 b13d c11e 993d a740 7c3e 0ed3 cc3d
000001c0: 5590 503d b386 563e 471e f53d 3e67 ff3d
000001d0: 2eb5 433c 6268 063e 71c9 ac3d 5019 5f3e
000001e0: c548 c4ba a866 903e 6b4c 043e ed96 1a3e
000001f0: 2c05 4e3e dc01 16bd 841b 50bc abe1 ed3d
00000200: 3293 49be e71e 853e ae3a f53d ff0f 4d3e
00000210: f691 053e 83cb 993c 3807 5bbe 99ea 88bd
00000220: 168b 503e 3756 c9bd 321a 603e 0162 f23d
00000230: 2b7c 4f3e 5fd4 773d 5ae1 e0bc d825 81bd
00000240: 132d 11be 1fdc 0cbb c02a f73b 2679 8c3d
00000250: 0eff 43be 3e2f 0fbe 14c6 28bd 503c 453e
00000260: 03f5 103e 125a c33d 9a48 77be ec39 233c
00000270: fb7b 21be de8a e0bb 8ee1 dbbd 1ef8 f8bd
00000280: dabb 8d3e a5d9 71be 8427 16be b09d f23d
00000290: dc8e ff3d 7e5e 073e 57cd 743e bca6 26be
000002a0: 9e77 263d f9ff 4c3e ebf5 59be d49c 8f3d
000002b0: 10a0 c63d 8994 d93d 90d6 f3bd 586d b6bd
000002c0: 9035 f83d 3a86 c93c 7261 2d3e 765f 71be
000002d0: 5d03 c7bd 0e5d c0bc bae7 14bd 8889 5dbe
000002e0: c75e 2dbe 4d64 f33d ca39 ba3d b4fe 4cbe
000002f0: 0bb4 e03d ac68 bcbd 3be9 18bc 88c3 8a3d
00000300: f9cf 74be 46f7 11be 2c4f 3cbe 5b26 94bc
00000310: c063 0c3e 2fd9 43bd e698 0e3e 49ef 5bbc
00000320: 40b8 933d bbf4 fe3d cc99 c23d 9361 3bbd
00000330: 9451 f63d 4dbf 04be e7d8 6cbc 4abc 2fbd
00000340: 6520 6a3d 1d6c 63bd 80e5 9fbb 1bb9 0fbe
00000350: f5b7 3dbe 8c60 083c 8e1c 2bbd 9c89 d4bd
00000360: 88f0 9cbd 675b cb3d 7e26 29bd 01ee 803e
00000370: e78e 2a3e dad8 4fbe 2e97 643d 6486 12bd
00000380: 0b43 da3d 54a3 a5bd 5126 49bd 9528 05bd
00000390: 967c 3f3e 8851 4d3e 0ce8 0c3e be7a ec3d
000003a0: ee86 583e 2b6b a7bd 3184 a7bd bdaf 393d
000003b0: bad4 313e e284 fe3d e22a 953d 6e06 15bd
000003c0: 3c9b 6f3e aeff 4a3e aed0 073d 4061 063d
000003d0: 5904 413e cf51 493e f4c8 163e 0e33 5d3e
000003e0: b093 e53d 2026 393e acd9 3b3d 3b20 29bd
000003f0: e6d8 eabb c612 123e 3acd b9bb b394 4e3e

self_encoder_2.bias f4 [16]
-0.0060693007 0.07492127 -0.14535774 0.037827436 0.13235699 0.113715395 0.044537373 0.11990377
0.10862214 0.025650708 0.093522884 0.093147166 0.097982585 -0.21259204 0.020236325 0.06455596
00000000: fce0 c6bb 5370 993d a9d8 14be f1f0 1a3d
00000010: 9788 073e 9ee3 e83d d26c 363d 1c90 f53d
00000020: 4975 de3d 6f21 d23c ed88 bf3d f1c3 be3d
00000030: 18ab c83d bab1 59be a6c6 a53c ea35 843d

neighbor_encoder_1.weight f4 [32, 4]
-0.058129337 -0.10381773 -0.4444808 0.48998523 -0.04820376 -0.14274982 -0.33969644 0.42191708
0.29565948 0.37153277 -0.064091675 0.25843704 0.09341394 -0.21055642 0.08281798 0.24260649
0.028990638 0.46453404 -0.5014886 0.27301547 0.19427374 -0.5449746 -0.3787584 -0.48587328
-0.015314813 0.041974932 0.37755728 -0.41841996 0.22264154 -0.23138866 0.5432781 0.15582545
-0.13862294 -0.027515987 0.26500505 -0.43661273 -0.3349929 0.5007851 0.41479003 0.33576933
0.47897887 0.3247419 0.12074294 -0.061136417 0.4161979 0.048642743 -0.08117097 -0.09780582
-0.21745665 -0.30238923 0.0016040236 -0.10394517 -0.3639613 0.34515172 -0.54444593 -0.13677154
-0.2674723 0.23758756 -0.4656023 -0.09030461 0.0038854962 -0.20902021 -0.13049054 -0.3883239
-0.14082532 -0.031154297 -0.5079094 -0.115926296 -0.32268336 -0.2596862 0.15303427 -0.21878521
0.2841712 -0.21380764 0.276588 0.124104016 0.02530624 0.14787433 0.16097862 0.1605534
-0.12762879 -0.15327804 0.20532964 -0.5189611 0.55813164 0.38580343 -0.11888769 0.15367194
-0.42385188 -0.2812413 0.20605543 -0.21358876 -0.11782847 -0.03903531 -0.45373213 -0.11010585
0.3754675 0.36811 -0.11993498 0.28775123 0.17658071 -0.3929332 0.16113752 0.4448507
0.08867375 0.3390852 0.29585248 -0.51566225 -0.23031531 0.41956097 0.06067599 -0.35993302
0.13663232 -0.45110753 -0.07616697 -0.265387 0.42756885 -0.14706652 0.38137925 0.23155247
0.1892339 -0.54347116 0.29206625 -0.38778684 -0.28968033 -0.34840962 0.38588062 -0.13169
00000000: 0719 6ebd 649e d4bd fd92 e3be 58df fa3e
00000010: 4e71 45bd 022d 12be b1ec adbe 8405 d83e
00000020: ae60 973e 8b39 be3e 7f42 83bd dc51 843e
00000030: cf4f bf3d 1a9c 57be 799c a93d d66d 783e
00000040: c67d ed3c 68d7 ed3e 8f61 00bf afc8 8b3e
00000050: b2ef 463e 7583 0bbf 9fec c1be 62c4 f8be
00000060: fbea 7abc e8ed 2b3d 304f c13e 243b d6be
00000070: 25fc 633e 26f1 6cbe 4614 0b3f b590 1f3e
00000080: 2cf3 0dbe 3569 e1bc beae 873e b48b dfbe
00000090: 3084 abbe 7433 003f 5c5f d43e f5e9 ab3e
000000a0: b83c f53e 9244 a63e 1348 f73d 2e6a 7abd
000000b0: e417 d53e 9d3d 473d f73c a6bd 6b4e c8bd
000000c0: f5ac 5ebe c3d2 9abe 1a3e d23a 35e1 d4bd
000000d0: 2359 babe bab7 b03e cf60 0bbf d70d 0cbe
000000e0: 21f2 88be 274a 733e 6d63 eebe a0f1 b8bd
000000f0: cfa3 7e3b 6509 56be 509f 05be 64d2 c6be
00000100: 8334 10be 4c37 ffbc 5a06 02bf c46a edbd
00000110: c136 a5be 97f5 84be 04b5 1c3e 3b09 60be
00000120: e37e 913e 64f0 5abe f19c 8d3e 3f2a fe3d
00000130: 084f cf3c 5e6c 173e 94d7 243e 1c68 243e
00000140: 1fb1 02be ebf4 1cbe ef41 523e a2da 04bf
00000150: b7e1 0e3f 0788 c53e 647b f3bd 2d5c 1d3e
00000160: 1d03 d9be dcfe 8fbe 3200 533e 03b7 5abe
00000170: 0e50 f1bd 7de3 1fbd 944f e8be 2d7f e1bd
00000180: 473d c03e ea78 bc3e 79a0 f5bd 2154 933e
00000190: 93d1 343e 8a2e c9be 3c01 253e 79c3 e33e
000001a0: 959a b53d 939c ad3e fa79 973e 7102 04bf
000001b0: c7d7 6bbe b2d0 d63e 6387 783d 2449 b8be
000001c0: 58e9 0b3e 91f7 e6be 6efd 9bbd cee0 87be
000001d0: 4eea da3e 9b98 16be 2444 c33e 171c 6d3e
000001e0: 88c6 413e ed20 0bbf b589 953e ff8b c6be
000001f0: fb50 94be bf62 b2be 2592 c53e bed9 06be

neighbor_encoder_1.bias f4 [32]
0.0659929 -0.06817996 0.37464938 0.037822798 0.7596868 0.5461694 -0.22120084 0.35517734
0.23974709 0.6071068 -0.22665654 0.2585017 -0.14590414 -0.037610557 -0.16624284 0.29465726
0.0059797084 0.16511004 0.062038787 0.050305016 -0.16831774 0.62354887 0.53369445 0.35322517
0.4681546 -0.19257635 0.13049111 -0.22926979 -0.35981995 -0.019195922 0.16854258 -0.31859136
00000000: 4927 873d efa1 8bbd 0bd2 bf3e 14ec 1a3d
00000010: d67a 423f c2d1 0b3f 7982 62be ced9 b53e
00000020: 4380 753e 5a6b 1b3f a718 68be 565a 843e
00000030: e567 15be 870d 1abd 903b 2abe 51dd 963e
00000040: 6ef1 c33b 9b12 293e 621c 7e3d a20c 4e3d
00000050: 7c5b 2cbe e6a0 1f3f 33a0 083f eed9 b43e
00000060: f6b1 ef3e bc32 45be 769f 053e b3c5 6abe
00000070: 523a b8be c440 9dbc 6d96 2c3e 681e a3be

neighbor_encoder_2.weight f4 [16, 32]
0.00012606717 -0.19084993 -0.13210808 -0.11003185 -0.1605601 0.0659411 -0.00031204737 -0.06517606
-0.1343083 -0.09226042 -0.016481573 -0.15845409 -0.10019275 -0.19367673 -0.10996467 0.0049248924
-0.09144905 -0.11209157 -0.068832755 -0.07496142 -0.20237687 -0.06478884 -0.11386244 0.006579473
-0.14785273 -0.06484389 -0.0024421508 0.008831305 -0.038194798 -0.010746893 0.071096584 -0.067257166
-0.12489 -0.13533193 0.06425871 -0.14122432 -0.17986713 -0.019745465 0.054379426 -0.21113414
0.011679356 -0.17758167 0.09405824 -0.14506273 0.017326381 -0.03402432 -0.21859068 -0.08177101
-0.24941356 -0.1662752 -0.17705573 -0.17860593 0.017033871 -0.26664072 -0.14876813 -0.25265634
-0.12610786 0.060850542 -0.093605675 -0.15267022 -0.18024439 -0.22266154 -0.07460512 -0.14430155
-0.1503897 0.00066235085 -0.022038601 0.033720143 -0.1960221 0.07197204 0.06304618 0.07028436
-0.17168058 0.04913084 0.041407917 -0.068418674 -0.12317649 -0.025091123 -0.06294126 -0.2153737
-0.03958051 -0.14008023 -0.11734879 0.018892013 -0.06363606 -0.23338115 -0.05948181 -0.22719118
0.05993564 -0.07492669 -0.056641154 -0.07683977 -0.005675578 -0.12001307 0.031041032 -0.20833783
0.21656597 0.022850992 0.21706264 -0.043521896 -0.017638303 0.09395025 -0.039084233 0.22646886
0.10225528 0.23794957 0.2171756 -0.030082325 0.16444175 0.22068633 0.27078432 0.054738604
-0.03370445 -0.047419596 0.16439967 -0.03926226 0.02113825 0.22020447 0.11959723 0.13845566
-0.04956645 0.069572106 0.19880125 -0.03398616 0.08493323 -0.058816116 0.1595958 0.24840942
0.24633858 -0.09323776 0.23488295 0.1717264 0.16942808 0.1108139 0.031910516 -0.018149378
-0.053724807 0.15095234 0.18346696 0.031739607 0.18385534 0.03956351 -0.060859464 -0.10552942
-0.016160507 0.07597806 0.15546781 0.021671219 0.10919101 -0.03899601 0.07916577 0.13487832
-0.09912455 0.22012697 -0.096079215 0.20074245 -0.013550265 -0.021634499 0.011039084 0.04016782
0.14448944 0.03591531 -0.008447237 -0.07433698 0.12423558 -0.051516086 0.12354567 0.23428702
0.069247246 -0.014783688 0.24173687 0.1776352 -0.11549952 0.03992833 0.13886322 0.063622765
0.17382617 0.089787126 -0.055173144 0.16827223 -0.0049197837 -0.005935852 0.17390907 -0.06994506
0.13166797 -0.013416305 0.04895985 0.021932768 0.19165179 -0.050372418 0.15400626 0.02372533
0.092116974 0.017978212 0.059400637 0.19794084 -0.018212525 0.056661274 0.21876083 -0.023496533
0.07922312 0.1818348 0.16160731 -0.040318325 -0.043916084 -0.0088541005 0.093510225 -0.047633894
0.13139045 -0.018411458 0.24103482 0.10201553 0.11931614 0.12383511 0.059784118 0.04430489
0.2504519 0.049374565 0.09898274 0.22569709 -0.001364179 -0.051325254 0.09163695 0.08231981
0.035687048 -0.14871128 0.006067566 -0.08456507 0.14718057 -0.029040584 0.14442185 -0.068689525
-0.10492787 -0.0075394004 -0.10398399 -0.03693449 -0.11192954 0.06555787 -0.00013524093 -0.12912095
0.06511235 -0.11056347 0.13861342 0.018021392 0.10605398 -0.049580168 0.1155438 -0.20533152
-0.009737708 0.065436535 -0.0629892 -0.09913287 0.042048566 -0.18451321 -0.14759767 -0.20321703
00000000: e630 0439 2a6e 43be 5747 07be 6158 e1bd
00000010: de69 24be 210c 873d 4a9a a3b9 077b 85bd
00000020: 1d88 09be 08f3 bcbd 5d04 87bc ca41 22be
00000030: db31 cdbd 3153 46be 2835 e1bd fe60 a13b
00000040: a449 bbbd 4490 e5bd 30f8 8cbd 5f85 99bd
00000050: e23b 4fbe 03b0 84bd b630 e9bd 9f98 d73b
00000060: b566 17be e0cc 84bd 7e0c 20bb 2eb1 103c
00000070: 2672 1cbd bc13 30bc 169b 913d 20be 89bd
00000080: 54c6 ffbd 7494 0abe 129a 833d 1c9d 10be
00000090: 172f 38be 3ec1 a1bc f6bc 5e3d 8c33 58be
000000a0: c55a 3f3c f8d7 35be 9ba1 c03d 538b 14be
000000b0: 0ef0 8d3c 165d 0bbd 3cd6 5fbe 8f77 a7bd
000000c0: 4566 7fbe 0c44 2abe 194e 35be 79e4 36be
000000d0: 9e8a 8b3c 2285 88be ac56 18be 2c5c 81be
000000e0: 6b22 01be 6b3e 793d 55b4 bfbd 9555 1cbe
000000f0: fc91 38be 6301 64be 92ca 98bd c9c3 13be
00000100: c2ff 19be 9da1 2d3a 4c8a b4bc 221e 0a3d
00000110: 04ba 48be 1466 933d 5b1e 813d 3ff1 8f3d
00000120: 09cd 2fbe 6b3d 493d 599b 293d 171f 8cbd
00000130: f543 fcbd e68b cdbc 59e7 80bd ec8a 5cbe
00000140: 2c1f 22bd 3171 0fbe 9054 f0bd 6cc3 9a3c
00000150: 9f53 82bd 78fb 6ebe 33a3 73bd cea4 68be
00000160: 137f 753d 2a73 99bd 8e00 68bd 2b5e 9dbd
00000170: 33fa b9bb 6ac9 f5bd c349 fe3c 8356 55be
00000180: 78c3 5d3e 0132 bb3c ab45 5e3e 0444 32bd
00000190: 347e 90bc fd68 c03d ca16 20bd 74e7 673e
000001a0: 376b d13d 0da9 733e 4863 5e3e 356f f6bc
000001b0: 6b63 283e 99fb 613e 3ea4 8a3e 9635 603d
000001c0: ad0d 0abd 0d3b 42bd 6358 283e 77d1 20bd
000001d0: 202a ad3c 487d 613e 64ef f43d 52c7 0d3e
000001e0: 3106 4bbd d27b 8e3d 8e92 4b3e 1235 0bbd
000001f0: 79f1 ad3d 2be9 70bd 156d 233e 0a5f 7e3e
00000200: 2e40 7c3e 70f3 bebd 2885 703e 0cd9 2f3e
00000210: 8e7e 2d3e 66f2 e23d 9ab4 023d 01ae 94bc
00000220: 8b0e 5cbd 4093 1a3e c3de 3b3e 6401 023d
00000230: 9344 3c3e 590d 223d c647 79bd cf1f d8bd
00000240: 0a63 84bc 639a 9b3d f432 1f3e d787 b13c
00000250: 899f df3d 48ba 1fbd aa21 a23d 8b1d 0a3e
00000260: d001 cbbd f768 613e 2ec5 c4bd 6e8f 4d3e
00000270: ee01 5ebc d53a b1bc 46dd 343c 0387 243d
00000280: 0af5 133e ef1b 133d 4866 0abc fd3d 98bd
00000290: 396f fe3d 8802 53bd 8305 fd3d f0e8 6f3e
000002a0: 80d1 8d3d 4837 72bc df89 773e 00e6 353e
000002b0: 038b ecbd e38b 233d 2932 0e3e a74c 823d
000002c0: 7dff 313e 50e2 b73d 3cfd 61bd 8e4f 2c3e
000002d0: 2336 a1bb 8981 c2bb 3815 323e 5b3f 8fbd
000002e0: f8d3 063e 10d0 5bbc 208a 483d 59ac b33c
000002f0: 5e40 443e 4f53 4ebd d1b3 1d3e a05b c23c
00000300: d3a7 bc3d 0b47 933c 154e 733d 01b1 4a3e
00000310: 6f32 95bc a715 683d d702 603e cd7b c0bc
00000320: bb3f a23d e732 3a3e 637c 253e d424 25bd
00000330: 5ae1 33bd ca10 11bc 4a82 bf3d c21b 43bd
00000340: 388b 063e a0d3 96bc d5d1 763e 85ed d03d
00000350: 055c f43d 439d fd3d 31e0 743d 0b79 353d
00000360: 3b3b 803e fc3c 4a3d 76b7 ca3d 231d 673e
00000370: 40ce b2ba 6e3a 52bd 27ac bb3d 4a97 a83d
00000380: 952c 123d c547 18be 6fd2 c63b 7430 adbd
00000390: 81b6 163e 85e6 edbc 52e3 133e 18ad 8cbd
000003a0: 6ce4 d6bd 130d f7bb 8ff5 d4bd 9f48 17bd
000003b0: 513b e5bd 3443 863d 76cf 0db9 4838 04be
000003c0: a059 853d 1a6f e2bd adf0 0d3e 99a1 933c
000003d0: d432 d93d 9314 4bbd 3aa2 ec3d 6d42 52be
000003e0: e88a 1fbc 9703 863d 7b00 81bd 2d06 cbbd
000003f0: 1e3b 2c3d 08f1 3cbe d823 17be 2018 50be

neighbor_encoder_2.bias f4 [16]
-0.18798797 -0.058918763 -0.24484792 0.14705288 0.21156599 -0.054118935 0.2837874 0.021413427
0.047048606 -0.04755546 -0.24119863 -0.039997645 0.1057288 0.09794418 0.08559106 0.020786285
00000000: eb7f 40be cd54 71bd 6ab9 7abe 0895 163e
00000010: c1a4 583e d1ab 5dbd 954c 913e 366b af3c
00000020: 0ab6 403d 84c9 42bd c6fc 76be 92d4 23bd
00000030: 5788 d83d f596 c83d 5e4a af3d 0048 aa3c

linear1.weight f4 [64, 32]
-0.15217544 0.16229755 -0.27688244 -0.032425687 -0.1933558 -0.123064116 -0.10738229 0.23546009
0.08250724 0.018412013 -0.051089834 -0.039375436 0.13908309 -0.18216883 0.030769287 -0.035243534
-0.23038594 -0.03134662 0.07844733 0.00010580956 0.04279465 -0.054416496 -0.08332601 0.14762813
-0.08030985 -0.109292775 -0.2041003 0.043554667 0.03665206 0.13082379 -0.14788881 0.17180638
0.24466501 -0.124117784 -0.11275499 0.14423627 -0.09024821 0.06842662 0.035938043 -0.046341397
-0.0049954737 -0.03825138 -0.24018036 -0.103608936 -0.12919022 -0.015573647 -0.113191046 0.2002485
-0.1587524 0.05407383 -0.060078785 0.19097398 0.15836357 0.097271524 -0.09830681 -0.08622509
0.06959841 -0.028714638 -0.15285937 0.11387847 -0.10610598 0.0049927635 -0.111752965 0.02247141
0.21695136 0.10423207 0.17146672 -0.19168438 -0.048114285 0.028058095 -0.0679128 0.01411495
-0.14195372 -0.022023592 -0.05981902 0.108022854 -0.13885185 -0.15363349 0.03181074 0.18522401
-0.13723479 -0.04528211 0.13276324 0.07221675 0.11238067 0.14103556 -0.11333146 -0.07507092
0.11034809 0.07316304 -0.11710267 0.15158233 0.09777084 -0.04804351 0.010977119 -0.11290382
-0.047190435 0.118149534 0.028490243 0.16259961 -0.1715868 0.1128287 -0.11660603 0.069503285
0.03861316 -0.089964785 -0.13037659 -0.15710816 0.009358858 -0.19944139 -0.19500767 0.1561568
-0.25215435 -0.18815216 -0.13005869 0.192218 0.17336656 -0.046951294 0.02279372 -0.14804994
0.11598051 -0.13242398 -0.12091186 0.18068664 0.21996747 0.23847908 0.1591943 0.21932544
0.21819316 0.06128095 0.20473137 0.02239193 0.08536902 0.17316957 -0.20978525 0.0526662
-0.08409946 0.102905236 -0.15808162 -0.035329383 -0.1231162 -0.2406619 -0.22947301 0.06780893
-0.15781264 -0.06316536 0.009513017 0.04078618 -0.014810101 -0.0075312904 0.03140197 0.11993448
-0.008731538 -0.032144736 -0.21694611 -0.057711463 -0.06202616 0.23525707 -0.14576335 -0.03852538
-0.02744079 -0.09548705 -0.036742352 0.004934391 0.2496476 -0.23342063 0.10232846 -0.08721459
0.08966956 -0.027885774 0.100431584 -0.07425552 0.23356996 -0.13583747 -0.057619646 0.06343772
-0.19962285 -0.0068436465 0.093234666 0.14764684 0.04000645 0.08784083 0.06994091 -0.10037127
-0.031903975 -0.14751907 -0.22010833 -0.08607073 -0.09272564 0.23872288 -0.014793024 0.13248362
0.21488696 -0.028368229 0.21046385 0.072677955 0.06368198 0.13586967 0.14016303 -0.082844295
-0.17061065 0.11661493 -0.0796885 -0.042549685 0.020960882 0.0333223 0.116031915 0.16711508
-0.1618661 0.047727082 -0.020163542 -0.0251643 -0.12512049 0.051494893 -0.077005245 0.049975067
-0.1216261 0.09100666 -0.13064657 -0.03261888 0.0022874565 -0.0048958226 -0.037270498 0.16040567
0.22026727 -0.16656002 0.21194665 -0.010585681 0.019650117 -0.09057416 0.0009101635 -0.050118055
-0.041794963 0.12500626 0.05973036 -0.18645445 -0.03322918 -0.2543679 0.12931152 0.19954625
-0.19210456 -0.13553618 -0.024176765 0.17601973 0.073298395 0.102218926 0.09310174 -0.003168596
0.23107222 -0.026021415 -0.020897416 0.21064512 0.047871508 -0.023995185 -0.13572115 0.0779922
00000000: e1d3 1bbe 5431 263e 89c3 8dbe ccd0 04bd
00000010: 10ff 45be 0a09 fcbd 3feb dbbd 731c 713e
00000020: 8ef9 a83d cad4 963c 9343 51bd 2348 21bd
00000030: cc6b 0e3e 778a 3abe df0f fc3c 865b 10bd
00000040: 4bea 6bbe 5065 00bd fea8 a03d 13e6 dd38
00000050: 7149 2f3d d5e3 5ebd d4a6 aabd d42b 173e
00000060: 7e79 a4bd e4d4 dfbd abff 50be 6166 323d
00000070: 7820 163d acf6 053e 2a70 17be 03ee 2f3e
00000080: 7789 7a3e 7731 febd 17ec e6bd acb2 133e
00000090: 0ed4 b8bd 4123 8c3d c533 133d 7ad0 3dbd
000000a0: 12b1 a3bb 7bad 1cbd d7f1 75be ec30 d4bd
000000b0: 714a 04be 9c28 7fbc b5d0 e7bd f10d 4d3e
000000c0: fd8f 22be 857c 5d3d 2c15 76bd af8e 433e
000000d0: 0f2a 223e 4b36 c73d 1555 c9bd c896 b0bd
000000e0: 9c89 8e3d f63a ebbc 2b87 1cbe 1e39 e93d
000000f0: 184e d9bd 569a a33b bdde e4bd f615 b83c
00000100: 7f28 5e3e a077 d53d f994 2f3e e948 44be
00000110: 7c13 45bd 17da e53c de15 8bbd 6442 673c
00000120: 515c 11be d26a b4bc ca04 75bd 163b dd3d
00000130: 2e2f 0ebe 1952 1dbe fa4b 023d 5dab 3d3e
00000140: 4787 0cbe bc79 39bd 16f3 073e 60e6 933d
00000150: d627 e63d a06b 103e 531a e8bd c8be 99bd
00000160: 2efe e13d 81d6 953d 86d3 efbd 6638 1b3e
00000170: 143c c83d 46c9 44bd 60d9 333c 1e3a e7bd
00000180: c24a 41bd 62f8 f13d 5f64 e93c 8380 263e
00000190: 73b4 2fbe bc12 e73d 24cf eebd bd57 8e3d
000001a0: d528 1e3d 753f b8bd 7181 05be f6e0 20be
000001b0: e555 193c 5d3a 4cbe 17b0 47be 91e7 1f3e
000001c0: 601a 81be f6aa 40be 1b2e 05be ccd4 443e
000001d0: 0187 313e 0050 40bd e5b9 ba3c 679a 17be
000001e0: 3187 ed3d 279a 07be a3a0 f7bd eb05 393e
000001f0: 273f 613e dc33 743e d503 233e d996 603e
00000200: 076e 5f3e bc01 7b3d 1aa5 513e 486f b73c
00000210: f4d5 ae3d 5d53 313e f2d1 56be 83b8 573d
00000220: 563c acbd fbbf d23d 26e0 21be 8bb5 10bd
00000230: 5924 fcbd 1370 76be f9fa 6abe 69df 8a3d
00000240: a399 21be d75c 81bd 7cdc 1b3c 690f 273d
00000250: 11a6 72bc 0bc9 f6bb 5a9f 003d 35a0 f53d
00000260: ba0e 0fbc 33aa 03bd 1f27 5ebe db62 6cbd
00000270: 250f 7ebd 3be7 703e fd42 15be cacc 1dbd
00000280: 82cb e0bc b78e c3bd 267f 16bd acb0 a13b
00000290: 9fa3 7f3e d105 6fbe 9591 d13d 909d b2bd
000002a0: ada4 b73d b570 e4bc 13af cd3d 4713 98bd
000002b0: f72c 6f3e fa18 0bbe 9402 6cbd a3eb 813d
000002c0: ef69 4cbe ab40 e0bb d1f1 be3d bc30 173e
000002d0: cedd 233d e5e5 b33d 2e3d 8f3d 748f cdbd
000002e0: bead 02bd 3d0f 17be 1464 61be da45 b0bd
000002f0: f1e6 bdbd c573 743e 715e 72bc c9a9 073e
00000300: 540b 5c3e 7d64 e8bc d683 573e 2ed8 943d
00000310: b36b 823d 6b21 0b3e e686 0f3e 45aa a9bd
00000320: 8fb4 2ebe cfd3 ee3d b933 a3bd 9448 2ebd
00000330: 28b6 ab3c f77c 083d 24a2 ed3d 3720 2b3e
00000340: 3ac0 25be 797d 433d 032e a5bc 5d25 cebc
00000350: 961f 00be 4fec 523d edb4 9dbd a8b2 4c3d
00000360: 1b17 f9bd b361 ba3d 37c8 05be 609b 05bd
00000370: 27e9 153b 236d a0bb f3a8 18bd 6241 243e
00000380: be8d 613e b68e 2abe 8b08 593e 906f 2dbc
00000390: 48f9 a03c f27e b9bd 0a98 6e3a 9748 4dbd
000003a0: 3231 2bbd a401 003e d2a7 743d eaed 3ebe
000003b0: 521b 08bd 823c 82be 3d6a 043e da55 4c3e
000003c0: 0fb7 44be ffc9 0abe 5a0e c6bc 843e 343e
000003d0: 781d 963d 2858 d13d 20ac be3d 38a8 4fbb
000003e0: 329e 6c3e dd2a d5bc 0f31 abbc 5bb3 573e
000003f0: ea14 443d 8d91 c4bc 7cfa 0abe 60ba 9f3d

linear1.bias f4 [64]
-0.02827963 0.09589695 -0.025447104 0.1418993 0.050317287 0.15495995 -0.024171375 0.07243345
0.12680137 0.1425095 -0.09299982 0.13189681 0.20332752 0.11286646 0.22561844 -0.12191435
0.05551663 0.24166156 -0.049091205 -0.09083636 -0.044597007 -0.14643824 -0.037029352 -0.0154676065
-0.08733442 0.14004037 -0.0548332 0.074025325 0.046392065 0.17295328 0.15751112 0.086747736
0.12226951 0.054068014 0.007373497 0.03663157 0.113052756 0.053560667 0.053511254 -0.05199876
0.08972828 0.14280419 0.24575467 0.14607482 0.0037930128 -0.09761583 -0.06951779 -0.07887093
0.03164267 -0.040077634 0.13111375 0.06898495 -0.0250669 0.005410772 -0.016674766 0.04686731
-0.18840703 0.16080499 0.23001808 0.046835694 0.07750123 -0.019061595 -0.064221814 0.13059519
00000000: afaa e7bc 9f65 c43d 7276 d0bc 0d4e 113e
00000010: 8019 4e3d d2ad 1e3e 0c03 c6bc fd57 943d
00000020: 38d8 013e 03ee 113e b176 bebd f50f 073e
00000030: 1735 503e 8826 e73d 8508 673e 3bae f9bd
00000040: 6865 633d 2176 773e dc13 49bd 6a08 babd
00000050: 5aab 36bd e8f3 15be 17ac 17bd d86b 7dbc
00000060: 63dc b2bd be66 0f3e c798 60bd 979a 973d
00000070: 9b05 3e3d aa1a 313e 984a 213e cca8 b13d
00000080: 7068 fa3d 6c76 5d3d 609d f13b fc0a 163d
00000090: 3488 e73d 6e62 5b3d 9e2e 5b3d a7fc 54bd
000000a0: 76c3 b73d 433b 123e 1da7 7b3e a394 153e
000000b0: 3294 783b cfea c7bd 585f 8ebd 1587 a1bd
000000c0: bf9b 013d 7228 24bd af42 063e fb47 8d3d
000000d0: 1959 cdbc d84c b13b 8599 88bc f0f7 3f3d
000000e0: c6ed 40be 10aa 243e dc89 6b3e c9d6 3f3d
000000f0: f7b8 9e3d 1027 9cbc ba86 83bd bfba 053e

linear2.weight f4 [16, 64]
0.030762115 -0.10462538 -0.13895929 -0.015368862 -0.14900936 0.09137382 0.02509331 0.1941905
0.03946163 -0.07131895 -0.023208652 0.0006687704 0.15755202 0.022113796 -0.046292715 0.051727436
-0.022436317 0.029717628 0.1836234 0.16192581 0.116427876 -0.041028112 0.107919656 0.07255822
-0.041528873 0.15004545 0.022324909 -0.03815107 -0.027364055 0.15041922 0.07039968 -0.06372673
0.031372104 0.17581168 -0.015172398 0.06363619 -0.13434717 0.083271526 0.095926724 -0.05726246
0.19686057 0.03179622 0.012054827 0.030950371 0.1839566 0.13885938 -0.056263957 0.1090895
-6.261994e-05 0.091092594 -0.032181095 0.016378885 0.0012696129 0.16444457 -0.08197224 0.114577815
-0.02274152 0.03492431 0.056152333 0.17906967 -0.15986344 -0.111569814 0.062134493 -0.056841873
-0.10463077 -0.010532525 0.07714058 -0.121880256 0.104005896 0.06752427 -0.031547133 -0.03281092
0.0017693352 -0.06077726 0.005986862 -0.11414686 0.059608664 -0.08197606 0.096063845 0.055694263
-0.042097133 -0.09587462 -0.079371884 -0.07862374 0.11241659 -0.036873024 -0.08562892 0.07528812
-0.06411389 -0.057304695 0.01754119 0.08421697 -0.08791237 -0.028754748 0.001463422 -0.026063208
-0.12066279 -0.06737351 -0.026322268 -0.06887244 0.004334895 0.036555495 -0.0646193 0.05232605
0.11159003 0.118220985 0.058875725 0.02357108 -0.034315836 0.05637605 -0.022352982 0.08132099
0.025120728 -0.055859435 0.10603828 -0.07012705 -0.10133587 -0.121929914 -0.06738351 0.0055030347
-0.021863773 -0.11151819 -0.049759828 -0.027639383 -0.036090977 -0.0039226525 0.021259047 -0.10497868
0.049848508 0.0857595 0.118552715 0.120044574 0.07852868 -0.0779561 0.061478056 0.19215725
-0.08409026 0.040505152 0.1223379 0.11285391 0.09189518 -0.01395142 0.18293317 0.0072935955
0.05468037 0.03040747 -0.045254476 -0.059874453 0.14475064 0.008610043 -0.036167562 -0.08975284
0.10898823 -0.05793017 -0.052621014 0.104709804 0.12706956 -0.114593625 0.11391234 0.024412725
0.14398661 -0.043389432 -0.065414235 0.038245328 0.05535053 -0.07144042 0.1857483 -0.024451956
-0.112022676 0.19504932 0.15489939 0.15204203 0.06752334 0.021144599 0.119961165 0.062612765
-0.12690364 0.06441062 0.11760877 -0.0034769108 0.21140589 -0.19194044 0.16401601 0.10352883
0.07370095 0.021394964 0.10283639 -0.15806174 0.20697412 0.023080915 0.029633455 0.08246437
-0.0054155425 0.20587328 0.0347915 0.11892038 0.1539605 0.022562891 0.002753079 0.20159085
-0.13771152 0.035964992 0.02144772 0.024581542 -0.09226516 -0.057253662 0.16093479 -0.044542365
0.14264032 0.15633897 0.01812592 -0.10893642 -0.027611978 -0.04379513 -0.018412832 -0.16037203
0.17684895 0.027391884 -0.10650318 0.05443842 0.14948496 -0.1512553 -0.035205834 -0.027536895
-0.031702448 0.115399465 -0.07984458 0.10365807 0.17547324 -0.07546622 0.011254898 0.058678225
-0.05023067 0.17312175 0.1511468 0.15046762 0.09676412 -0.034201995 0.1817855 0.17434585
-0.0062710643 0.17903757 0.16674979 -0.06713606 0.08623805 -0.1930405 0.12842736 0.0003479138
-0.100848 0.06003631 0.14618985 -0.1092776 0.14123724 -0.002408741 -0.04294125 -0.0015462352
00000000: d500 fc3c d545 d6bd 584b 0ebe aecd 7bbc
00000010: e995 18be 3322 bb3d 7c90 cd3c e0d9 463e
00000020: 85a2 213d ab0f 92bd 1220 bebc 6c50 2f3a
00000030: 5155 213e fe27 b53c 6e9d 3dbd 26e0 533d
00000040: 5ecc b7bc 6272 f33c c607 3c3e e1cf 253e
00000050: bd71 ee3d 180d 28bd fb04 dd3d 6799 943d
00000060: 2e1a 2abd 84a5 193e bae2 b63c 4c44 1cbd
00000070: 952a e0bc 7f07 1a3e b52d 903d 2983 82bd
00000080: 0980 003d fa07 343e a695 78bc b153 823d
00000090: 4e92 09be 438a aa3d 3b75 c43d 0b8c 6abd
000000a0: d195 493e c13c 023d 9c81 453c a28b fd3c
000000b0: 1e5f 3c3e 2731 0e3e 0975 66bd 516a df3d
000000c0: d352 83b8 c18e ba3d 53d0 03bd 032d 863c
000000d0: 2469 a63a 2864 283e 10e1 a7bd c6a7 ea3d
000000e0: 6d4c babc cb0c 0f3d fdff 653d 0a5e 373e
000000f0: 3eb3 23be b77e e4bd bd80 7e3d 06d3 68bd
00000100: a848 d6bd 9d90 2cbc e1fb 9d3d 5b9c f9bd
00000110: 0b01 d53d 2a4a 8a3d 9137 01bd be64 06bd
00000120: 0ae9 e73a 94f1 78bd 702d c43b d4c5 e9bd
00000130: 3728 743d 11e3 a7bd 1fbd c43d ab1f 643d
00000140: 0b6e 2cbd ea59 c4bd ba8d a2bd 7c05 a1bd
00000150: ab3a e63d 2b08 17bd 375e afbd a830 9a3d
00000160: 254e 83bd 54b8 6abd 8bb2 8f3c f279 ac3d
00000170: 670b b4bd 148f ebbc 4bd0 bf3a 8282 d5bc
00000180: 0e1e f7bd 1ffb 89bd cca1 d7bc fe0c 8dbd
00000190: bc0b 8e3b 37bb 153d 2057 84bd d753 563d
000001a0: 5089 e43d d81d f23d ac27 713d 2318 c13c
000001b0: c38e 0cbd 93ea 663d 9a1d b7bc 9f8b a63d
000001c0: fcc9 cd3c ddcc 64bd 992a d93d c59e 8fbd
000001d0: 2e89 cfbd 64b6 f9bd 5e00 8abd cd52 b43b
000001e0: a81b b3bc a663 e4bd f6d0 4bbd fd6b e2bc
000001f0: 22d4 13bd 9889 80bb 7427 ae3c 10ff d6bd
00000200: f32d 4c3d ada2 af3d c4cb f23d eed9 f53d
00000210: a5d3 a03d 73a7 9fbd 6ad0 7b3d dfc4 443e
00000220: 8437 acbd bbe8 253d 4b8c fa3d f31f e73d
00000230: 8a33 bc3d 7f94 64bc d552 3b3e 1dff ee3b
00000240: 86f8 5f3d 1619 f93c c25c 39bd ea3e 75bd
00000250: 8339 143e 2311 0d3c 7024 14bd 56d0 b7bd
00000260: 3935 df3d 3048 6dbd 2289 57bd 1872 d63d
00000270: 861e 023e 10b0 eabd df4a e93d 32fd c73c
00000280: 3a71 133e 1eb9 31bd e6f7 85bd 22a7 1c3d
00000290: 3db7 623d 5b4f 92bd cd34 3e3e 784f c8bc
000002a0: 256c e5bd 02bb 473e f29d 1e3e e8b0 1b3e
000002b0: ad49 8a3d 7037 ad3c 33ae f53d 1f3b 803d
000002c0: 07f3 01be b7e9 833d dedc f03d e2dc 63bb
000002d0: c97a 583e 098c 44be d0f3 273e ec06 d43d
000002e0: 86f0 963d 7e44 af3c e39b d23d f0da 21be
000002f0: 06f1 533e 3014 bd3c dcc1 f23c 14e3 a83d
00000300: dd74 b1bb 72d0 523e 8881 0e3d 878c f33d
00000310: d2a7 1d3e d0d5 b83c 006d 343b d56d 4e3e
00000320: 4004 0dbe 0750 133d 21b3 af3c 3b5f c93c
00000330: 84f5 bcbd d182 6abd 17cc 243e 0e72 36bd
00000340: 4e10 123e 5317 203e cf7c 943c 0f1a dfbd
00000350: 8432 e2bc 8662 33bd 82d6 96bc 9138 24be
00000360: e417 353e f264 e03c 571e dabd d2fa 5e3d
00000370: 9612 193e abe2 1abe fe33 10bd 0e95 e1bc
00000380: 6dda 01bd 8e56 ec3d 8e85 a3bd af4a d43d
00000390: 42af 333e 098e 9abd 7766 383c 9458 703d
000003a0: adbe 4dbd d446 313e 3ac6 1a3e 2f14 1a3e
000003b0: 442c c63d 6417 0cbd fa25 3a3e b887 323e
000003c0: 807d cdbb a055 373e 75c0 2a3e a17e 89bd
000003d0: 939d b03d 69ac 45be 7682 033e 3368 b639
000003e0: 6589 cebd a2e8 753d cbb2 153e efcc dfbd
000003f0: 7fa0 103e f8db 1dbb 2ae3 2fbd 0bab caba

linear2.bias f4 [16]
0.1306711 -0.07183378 0.16301937 0.09459772 -0.036055285 0.08186939 0.006008479 -0.020465257
-0.036796365 -0.037737444 0.063655265 -0.04093481 -0.0061542685 0.06704899 -0.036378838 -0.019163229
00000000: a5ce 053e 971d 93bd 8dee 263e 73bc c13d
00000010: b5ae 13bd 24ab a73d c6e2 c43b c1a6 a7bc
00000020: c9b7 16bd 9492 1abd b15d 823d 42ab 27bd
00000030: bfa9 c9bb fb50 893d fa01 15bd 34fc 9cbc

linear3.weight f4 [2, 16]
0.29472905 -0.19900575 -0.14624663 -0.25864458 -0.19213389 0.30164105 0.018166915 -0.2559145
0.2675416 -0.20559296 -0.29725122 0.24874052 -0.22839531 -0.2106865 -0.24466248 0.12446016
0.13282743 0.192915 -0.36169723 -0.3514355 0.2967509 -0.057492487 0.33249035 0.22780022
0.17878267 -0.16646007 0.044287864 -0.038892977 -0.036281656 0.13516101 -0.08516309 0.31006575
00000000: bae6 963e 2ac8 4bbe adc1 15be 106d 84be
00000010: bfbe 44be b270 9a3e c8d2 943c 3a07 83be
00000020: 36fb 883e f686 52be 5031 98be d6b5 7e3e
00000030: 76e0 69be 34be 57be cd88 7abe f8e4 fe3d
00000040: ea03 083e 828b 453e 6130 b9be 5bef b3be
00000050: bcef 973e 3e7d 6bbd 2d3c aa3e 7644 693e
00000060: ce12 373e 8274 2abe 3167 353d 3e4e 1fbd
00000070: 139c 14bd a667 0a3e fc69 aebd f0c0 9e3e

linear3.bias f4 [2]
-0.05147831 -0.0228916
00000000: ecda 52bd 2a87 bbbc
