gym_pybullet_drones/examples/models/critic_gnn_32drones.pkl (torch, 24452 bytes, 13 tensors)

self_encoder_1.weight f4 [32, 8]
00000000: 1f67 b0be b53c 8a3f 3235 a2bd eb53 4a3e
00000010: 372e 0cbf c1f2 723e e43a dc3e 1553 933f
00000020: d1ac 09bf a310 4f3f 5485 a0bc f331 ce3e
00000030: 65eb 05bf 764c 863d 5b71 fcbe 94e5 b83e
00000040: 0ed5 e7bd eb23 3e3f 3e22 efbe a78d b6be
00000050: bb78 17bc 74df 563f 6b0c aabe 67cc babe
00000060: 3815 82be 8044 0f3f 56c9 44bf 791b e93e
00000070: 4798 17bf 43b1 c33e 1171 94be 8adf 963e
00000080: 5adc 1b3f a764 0bbf 5981 d03d f770 6f3e
00000090: 52ba 62be a033 1cbf f860 8ebe dc40 a93e
000000a0: 99e7 b1bf 9d69 85bf e9a6 f6be 2257 64be
000000b0: a7d4 963d 0cbd cbbe 2354 24bf 630f 173f
000000c0: 7a5a b53f df86 18be 5989 253f d98c 9f3e
000000d0: 506a ba3e 6458 f3be fa0f 0c3f fe90 97bd
000000e0: 0c6a 503e 5959 debd 3971 79be 9f95 d63d
000000f0: 0124 d73e 7f7c 03bf 84a7 51be ceef f23d
00000100: 26e4 48bf f4a3 563e 73f9 81bf 29ff 103d
00000110: 5568 72be 7b4c 20be 2a0c a53e 2c18 383e
00000120: 85a9 883d 0fcf 393f 88df 8f3f d506 613f
00000130: 8981 b8bf 3e24 b73e a59f 2ebe d624 af3e
00000140: 7fe4 09be a04c 2dbd 1528 0ebf 2aa7 a7be
00000150: 6c1e 463f 5f7c 60bf 6001 083e d30f 073f
00000160: edee 103e b935 cd3e c803 4c3c 13ff 8f3d
00000170: 680f d43e 4f39 6a3f 17a5 bb3f dc58 d43e
00000180: 9112 17bf 6035 063e c3e9 69be 3b36 a83d
00000190: 215b e33f 4e86 d13d 1d6f b4bd 0e70 03bf
000001a0: 7516 113f 6256 3ebe 27a8 b73c 3572 a83e
000001b0: e35c 273e a722 b2b9 5353 cdbe 2ec3 c2bf
000001c0: c16a 37bf 3bf3 6b3f bb44 4c3e 2df1 2dbe
000001d0: bf4e 41bd f29b 15be 02b4 cebf fe17 0bbf
000001e0: b914 3bbf 6573 28bf fafa 323f b0fe 21bf
000001f0: dbc8 f43e 9ee1 57bf 4b11 74be 75de 083e
00000200: 822b b3be 8df0 633f 5b5a 103f a89a a13e
00000210: 47d9 a5be 3867 d0bf edaf 983e 4b1c babf
00000220: 01f1 5e3f 2c24 503f 5ab8 f9bd 2451 02bf
00000230: ef7d cbbd d3c3 10bf 3693 233e 2d26 5b3f
00000240: 603f 1ebf d8ce ff3e e0d9 e53e 1a91 a93e
00000250: 6b8f 093f b91d c63d 2949 6abf b3b5 8b3f
00000260: 1e23 553e 3244 fe3e df97 1abe dc90 df3a
00000270: d13a 2a3f 24c7 5fbe b727 7abe b5b5 04bf
00000280: 2d31 90bf d349 b6bd 5e49 42be 7d51 69be
00000290: 220d 41bf 9497 6c3a fc4e 92bd 428d 83be
000002a0: f1d7 44bf e140 723f 4a7b ce3d 2719 83be
000002b0: fb11 9c3e 46f7 a73e b397 aebf abdd 393f
000002c0: 079d 033f 3709 023f 1d31 adbf 0153 0e3f
000002d0: d8ce 8f3e 5922 613f 0662 e9be d6a7 c73e
000002e0: 43da e0bc b661 18bf c9e5 d23d d638 f8be
000002f0: 6087 c3be 19bd 833f c3da c5bd 0faf 7b3f
00000300: d8b5 74bf b355 68bf 21d3 43be a404 3abf
00000310: 1ca6 86bf 9e02 773f cdaf 993f 49bb 763f
00000320: 6700 2fbf 1f68 9a3f 670f 903e b807 82bd
00000330: e9d5 593c 93a6 f0be f3bc b63d a442 123e
00000340: f5fc 7fbf 815c 353e 05b6 e9bd 9361 0dbe
00000350: 7d3a 14be 7e70 d4be 2838 96bf cbc4 d3be
00000360: f282 23bf 7d4d 5f3f d48c 06be 745e c8be
00000370: 85c7 833e d1eb eebe eeb3 e0bd f3b3 31bf
00000380: 08cf 84bf bc05 0abf 16e3 10bf ae21 023f
00000390: 0275 9e3e 1732 83be 9737 d4be 31f6 543f
000003a0: 5530 a6be 9ba1 bb3f 7496 57bf c05f 973d
000003b0: 3dbe 0dbd 2803 26be 502c 013f fa13 05be
000003c0: fca9 6c3e ae91 873e ed12 ecbe 854e d7bd
000003d0: 3c0a d2bd b91c a43e 7029 06bf c440 4c3f
000003e0: ef00 a6ba 7f42 d8bd a523 9ebf 177f d93d
000003f0: dd51 d7be c2f8 3b3e 74f2 223e 5210 8c3f
-0.34453675 1.0799776 -0.079203025 0.19758575 -0.5475802 0.23725416 0.4301368 1.150973
-0.5377932 0.8088476 -0.019594826 0.40272483 -0.5231231 0.065575525 -0.49305233 0.36112654
-0.11319934 0.74273556 -0.46705812 -0.35654947 -0.009245093 0.8393471 -0.332126 -0.36484072
-0.25406814 0.559639 -0.76869714 0.45528772 -0.5921673 0.38221177 -0.28992513 0.29467422
0.60883105 -0.5445046 0.10180921 0.23382936 -0.22141388 -0.61016273 -0.27808356 0.33057296
-1.3898803 -1.0422856 -0.48174217 -0.22298864 0.07364779 -0.3979267 -0.6419088 0.59007853
1.4168236 -0.14895199 0.646627 0.31162146 0.36409235 -0.47528374 0.5471188 -0.07400702
0.20352954 -0.108568855 -0.24359597 0.10477757 0.42019656 -0.5136184 -0.20474058 0.11862145
-0.78473127 0.2096098 -1.0154251 0.03539959 -0.23672612 -0.15654175 0.32235843 0.17977971
0.06672958 0.7258157 1.1240091 0.8790105 -1.4414531 0.35769838 -0.17053087 0.3420779
-0.1346607 -0.042309403 -0.5552991 -0.32744724 0.7739017 -0.87689775 0.13281775 0.5275852
0.14153643 0.4008005 0.012452073 0.070310734 0.41418004 0.91493696 1.4659756 0.41474044
-0.59012705 0.13106298 -0.2284308 0.08213469 1.7762185 0.10230695 -0.08810256 -0.51342857
0.5667489 -0.1858764 0.022419048 0.32899633 0.16344027 -0.00033976624 -0.40102634 -1.5215814
-0.7164727 0.92168015 0.19948094 -0.16986533 -0.04719424 -0.1461027 -1.6148684 -0.54333484
-0.73078495 -0.6580108 0.6991421 -0.6327925 0.4780949 -0.8432864 -0.23834722 0.1336611
-0.3499413 0.89038926 0.5638787 0.31563306 -0.32392332 -1.62815 0.2982172 -1.4539884
0.8708649 0.81305194 -0.121933654 -0.5090506 -0.09936129 -0.56548804 0.15974125 0.85605127
-0.6181545 0.49962497 0.44892788 0.33118516 0.53734463 0.09673638 -0.91517884 1.0914825
0.20814177 0.49661404 -0.15096997 0.0017056721 0.66495997 -0.2185331 -0.24429213 -0.5183976
-1.1265007 -0.089007996 -0.189733 -0.22784992 -0.75410664 0.00090252724 -0.07143971 -0.2569371
-0.76892 0.9463025 0.10082109 -0.25605127 0.30482468 0.32805842 -1.3640045 0.72603863
0.5141148 0.5079531 -1.3530613 0.55595404 0.28087497 0.87943035 -0.45582598 0.38995236
-0.027447825 -0.59524095 0.10297734 -0.48480862 -0.3818922 1.0292083 -0.09660866 0.98313993
-0.9558997 -0.90755767 -0.19123508 -0.7266333 -1.0519443 0.9648837 1.2006775 0.96379524
-0.6835999 1.2063025 0.2813675 -0.063491285 0.013295629 -0.47002086 0.08922758 0.14283234
-0.99995357 0.17711069 -0.114116706 -0.13806753 -0.14475437 -0.41492075 -1.1735888 -0.4136108
-0.6387168 0.8722761 -0.13139659 -0.39134562 0.2573816 -0.4666429 -0.10971819 -0.69415206
-1.0375681 -0.53915 -0.56596506 0.5083264 0.30948645 -0.25624153 -0.41448662 0.8318816
-0.3245875 1.4658693 -0.8421395 0.0739131 -0.034605253 -0.16212142 0.5045824 -0.12995902
0.23111719 0.26478332 -0.4610819 -0.10513023 -0.10255858 0.32053164 -0.5240698 0.79786325
-0.0012665073 -0.10559558 -1.2354628 0.106199436 -0.42054644 0.18356612 0.15912801 1.094248

self_encoder_1.bias f4 [32]
00000000: 5729 fa3d 71ce 403f 6cf2 84bf c21d d53f
00000010: f895 483f efd4 1ebf 5e23 963e 6e8d b43d
00000020: de80 85bf 5be9 00c0 487f 3c3f 1250 873f
00000030: c481 e8bb 3a4c 103e 3dd3 563f 388e 9c3e
00000040: 4b68 d63f 1fb7 1ebd 3e64 2ebf dc79 c9be
00000050: aa02 913f 7646 063e 34bd 67bf 02e4 87be
00000060: 70fd 9a3f 958d 71bf 35f6 2a3f 3be0 133f
00000070: 7eae f2bd 7cb9 1fbe be66 b13d da6a 8ebf
0.12214916 0.75315005 -1.0386481 1.6649706 0.78353834 -0.6204366 0.29323858 0.08816038
-1.0429952 -2.014243 0.73631716 1.057131 -0.0070955474 0.14091578 0.83916074 0.30577254
1.6750578 -0.038748857 -0.6812171 -0.39350784 1.1328938 0.13112816 -0.90523076 -0.26541144
1.2108593 -0.9435666 0.6678193 0.57764024 -0.11849688 -0.155981 0.08662175 -1.1126359

self_encoder_2.weight f4 [16, 32]
00000000: 70c7 f33d caba 9d3f 79f8 5ebf daf1 663f
00000010: 505c 34bd 43e4 95bf 27fc 873f 7ff9 0c3e
00000020: 69c8 0d3e 3143 6cbf 4e2d e43c 0d2b 883f
00000030: 3380 3d3f cf25 563e 82f3 cdbd 04ba ae3d
00000040: f6af 663f 47c5 bb3e b59c babc 79d9 78be
00000050: 8ca5 433f 2850 8c3f 501a 543e c729 f93f
00000060: 1c94 b73e 3457 14bf b23f a33e 1c16 0ebe
00000070: 825e ac3f 029f 24bf 21d2 5c3e f62f e63d
00000080: 9f24 89bd c402 283f 1784 1abf 9335 b03d
00000090: 6ae7 c2bd a5a4 6ebf b01c 39be fc9a bb3f
000000a0: 5ca3 433f dd71 953e fa86 25bf 5e76 813e
000000b0: 203d 623f 42cb c6be 5417 8e3d 6188 3e3b
000000c0: b226 883f 7122 81be 370b 2dbf f545 06bf
000000d0: d4dd 1f3f 2ad3 1e3f 33a7 e33e 3888 883f
000000e0: 90ab c53e 2e82 5fbf f005 70be e705 b2be
000000f0: eb64 503e 7a2a 57be 698c afbd be89 fb3e
00000100: e047 afbd bd82 3b3f a05b 74bd 7614 323f
00000110: 8d9a babe 8f01 27bf c65f bb3e edae 95be
00000120: dfea cc3e b2a3 773e 977b 0f3f 4f3d 053e
00000130: ebd8 dcbe b55c 133f 8e1f 8b3e 3019 0ebf
00000140: 0d2c ccbe a5eb 36bf e1d6 58bf a43c 7ebc
00000150: 2c49 043f a4a9 85bf 7c67 423f 0a44 24bf
00000160: fd03 25bf 8533 5ebe 8eec 13bf 7424 673f
00000170: 66df 2bbf fc3f 8bbe 19e0 043f 5c00 adbe
00000180: 701f 1ebf 7dff 473f c00b 153d 24bc 203f
00000190: 069f 62be 3bbf b4be 8b6d 683e 03b7 a6be
000001a0: b5e2 8dbf c83a 95be e868 cb3e 2462 afbe
000001b0: 354c b4be 63fe afbe 6e6d 5f3f af21 80be
000001c0: a2cb 24bd f387 04bf 746f 27bf cfa7 e9be
000001d0: e4f8 a63f b7e2 433f 4604 79bf 4b13 073d
000001e0: 11cd 1a3f 127f 5dbf 01ec bc3f c72d c63d
000001f0: aa78 3b3f 3f4f f9bd ce04 0e3f b3ae 0a3f
00000200: 1728 1b3e 43f7 923f ad8d aabf 6646 a73f
00000210: 819d 0bbf 2134 06bf 2ada 963f fb87 9dbe
00000220: 499d a6bf 7f08 33bf 06e1 363e b775 e33f
00000230: 24e0 ed3e d75b 663e 3f23 bdbc 8f33 b1bd
00000240: 6213 2e3f d89a ec3e 1a64 f2be cf9a 91be
00000250: 66b0 873f 55fd 193f 1528 d5be 91cd 813f
00000260: 410c 6c3f e98c 0ebf 4758 0e3f 1077 f83e
00000270: 5bb5 d13e d1cd 24bf f7a0 38be bcd0 ffbe
00000280: f0da 63bf 13d7 9f3f fb0e 8abe c024 af3e
00000290: 4950 84bf fba7 fcbe 6c01 743f cd53 533f
000002a0: b25d ccbe e15b de3e e344 5bbe bb32 c0be
000002b0: c247 b9be c4f2 18bf b85e a23f 43fd d6be
000002c0: d9c4 863e 12ed 78bf c577 76bf 1092 64bf
000002d0: 23d1 ee3e 400a 023f 4730 7abf 5334 ed3e
000002e0: 5bf0 06bf e6aa 80bf 17ac 5e3e 238c 7a3e
000002f0: d8e4 e23e cf0c 6fbf 8391 403f c31e bd3e
00000300: 9946 bd3e c49c 36bf d18a 063f c62d 9bbf
00000310: 8265 843f 5908 2a3f 317d d3be 18de 1b3f
00000320: 59af 3b3f 7990 533f e707 edbe ccbe c4bf
00000330: b8f5 c23e 36ae 913e 14a8 ab3e 4034 043f
00000340: 2352 e93e ead8 3f3f 56f4 253f 1911 8dbe
00000350: 7065 92bf 0bb6 f23e 4705 133f 0de1 39be
00000360: 4083 3ebf 454f 333f ce04 353e bafa 50bf
00000370: 61ad 1e3f 56ab 0c3f a0b9 73bf 36a6 34bd
00000380: 4fa5 9cbf fe28 ac3e b499 c9be 2886 823f
00000390: 1295 94bd 71d3 89be 30c6 473f 7718 1a3e
000003a0: df2d 44bf dcbd 3ebf 7c4a 1b3f 4435 f1bd
000003b0: 10a8 1f3f ec9f 203f 009b 843f 93c8 493f
000003c0: a562 ee3e cc53 16bf 618c dabe 5528 68be
000003d0: 77b4 43bc 6e6c 273f 0d18 84be f100 2c3f
000003e0: 8384 7fbf b2bf b5bf e038 b13f ad12 2d3f
000003f0: 040b 683f 7bc4 abbf fec1 f73e ddd6 3fbe
0.11903274 1.2322628 -0.8709789 0.90212786 -0.04403335 -1.1710285 1.0623826 0.1376705
0.13845982 -0.92290026 0.027853634 1.0638138 0.7402374 0.2091286 -0.10056211 0.085315734
0.90112245 0.36673948 -0.022779802 -0.24301709 0.7642448 1.0961962 0.20713162 1.9465874
0.35855186 -0.5794556 0.31884533 -0.13875622 1.3466341 -0.64305127 0.21564533 0.112396166
-0.06696438 0.6562922 -0.60357803 0.086039685 -0.09516795 -0.9321998 -0.1807735 1.4656672
0.7642114 0.29188433 -0.6465908 0.2528562 0.8837452 -0.38826948 0.06938043 0.0029072987
1.0636809 -0.2522159 -0.6759524 -0.52450496 0.6244786 0.6204096 0.444635 1.0666571
0.38607454 -0.87308013 -0.23439765 -0.34770128 0.20350997 -0.21012297 -0.08571703 0.49128526
-0.08558631 0.73246366 -0.059657693 0.6956247 -0.36446038 -0.65236753 0.36596507 -0.2923502
0.40022942 0.24183539 0.5604796 0.13011669 -0.43134245 0.57563335 0.27172512 -0.55507183
-0.39877358 -0.71453315 -0.8470288 -0.015517388 0.5167415 -1.0442395 0.75939155 -0.6416632
-0.6445921 -0.2169934 -0.5778283 0.9029 -0.67137754 -0.27197254 0.51904446 -0.33789337
-0.6176672 0.7812422 0.03638816 0.6278708 -0.22130975 -0.35302147 0.22698037 -0.32561502
-1.108481 -0.2914641 0.39728475 -0.34254563 -0.3521439 -0.3437377 0.8727635 -0.250257
-0.040233262 -0.5176994 -0.6540444 -0.4563584 1.3044705 0.76517814 -0.97272146 0.032977384
0.60469157 -0.8652202 1.4759523 0.096767 0.73230994 -0.12173318 0.5547608 0.5417282
0.15152012 1.1481708 -1.3324486 1.3068359 -0.54537207 -0.5242329 1.1785328 -0.30767807
-1.301675 -0.6993484 0.17859277 1.7770299 0.46460068 0.22495972 -0.023088096 -0.08652412
0.67998326 0.46211886 -0.47341996 -0.28438422 1.0600708 0.6015218 -0.41632143 1.0140859
0.922062 -0.5568376 0.5560345 0.48528337 0.40958676 -0.6437655 -0.18030153 -0.4996394
-0.8900595 1.248751 -0.26964554 0.34207726 -1.0337001 -0.4934691 0.9531467 0.82549745
-0.39915234 0.43429473 -0.21412997 -0.37538704 -0.3618756 -0.5974543 1.2685156 -0.41990098
0.26322058 -0.9723674 -0.96276504 -0.89285374 0.46643934 0.5079689 -0.97729915 0.46328983
-0.52710503 -1.0052154 0.21745335 0.2446752 0.4431522 -0.9337892 0.75222033 0.36937532
0.36967924 -0.71332955 0.5255557 -1.2123344 1.0343478 0.6641899 -0.4130645 0.60885763
0.73314434 0.8264232 -0.46295092 -1.5370727 0.38078094 0.28453225 0.3352667 0.5164223
0.45570478 0.7494036 0.6482595 -0.27552107 -1.1437206 0.47404513 0.5742993 -0.18152256
-0.7441902 0.7004283 0.17677614 -0.8163258 0.61983305 0.5494894 -0.95205116 -0.044103824
-1.2237948 0.33625025 -0.3937508 1.0197191 -0.072549954 -0.2691913 0.78036785 0.15048395
-0.76632494 -0.7450845 0.6066053 -0.11777738 0.6236582 0.6274402 1.0359802 0.78821677
0.46559635 -0.58721614 -0.42685226 -0.22671635 -0.011944882 0.65399826 -0.257996 0.67188936
-0.9981157 -1.4199126 1.3845482 0.6760662 0.9064181 -1.3419336 0.48390192 -0.18734308

self_encoder_2.bias f4 [16]
00000000: bea6 713e d76e 64be 5465 a13f 1209 693e
00000010: f90e a63f 201e a2be 0897 d8bf 6226 35be
00000020: aeb7 2a3f 628d 45bf 02f0 fbbe 0487 8fbf
00000030: 2457 3e3f 64ab cebf 2d8c 70bf 6043 6a3d
0.23598763 -0.22307907 1.2609048 0.22757366 1.2973319 -0.3166361 -1.6921091 -0.17690423
0.6668652 -0.7716886 -0.4920655 -1.1213078 0.74351716 -1.6146054 -0.9396389 0.05719316

neighbor_encoder_1.weight f4 [32, 4]
00000000: ac80 493f faf6 fb3e 60ea 17bf d3f9 f3bd
00000010: 4d12 2abf 941d 83be 14ea 52bf b122 d2bc
00000020: 90d3 bb3f 8844 ae3e 7335 66bc 211f 9d3e
00000030: 75cf c4be 5fef 19bf b11a 4bbe ba72 713e
00000040: 8028 3d3d d16e 583d e52a 82be 99fe a8bd
00000050: 7765 b63e 6efc 443f fe5c 363e 4641 973d
00000060: 26cf 6dbe c235 ccbe d117 663e 16aa a9bd
00000070: 50c2 193f a847 75be 97ae c9bd f1f0 8fbd
00000080: 0228 283f f5ca 90be 25a1 063d c6f4 d5be
00000090: 27c5 51bc 2d61 80bc ef1b 3abe b40e 78be
000000a0: 6bee 3b3d 9619 223d a7ca b53e ce49 55bc
000000b0: c394 af3e e54d 9a3d 95e7 893d acb4 15bd
000000c0: ece7 5e3f 6f95 fbbe 0315 1c3e 9903 8a3d
000000d0: e0e2 2139 15e0 2fbe 2f77 c93e d474 91be
000000e0: 97c1 5abe 9717 babe 28c2 833e 6e47 903e
000000f0: c9e3 cabe 14f8 3e3c 2992 da3e cb1b 78be
00000100: d461 613f 9806 74bf 7e9c 003e 184b f53d
00000110: 910c df3e b054 993e c086 423f 8ea8 0c3d
00000120: ffe0 113e a50e b53e 626a 8bbe 21e4 fcbe
00000130: a058 923d ba25 eabd 411e 86be a129 e43d
00000140: 11c5 d4bd 43ba 99be 61d6 c2be 2c25 14bf
00000150: ebfd 673e d9a5 103f 604b e0bd a9f1 ab3e
00000160: 594b c7bd 7704 aabe 455d 3ebe 05cb ebbe
00000170: def9 803e 6ae6 9ebd 5ae3 763e 38c2 173f
00000180: 5ab8 1cbf e785 413f 870b 28be de95 f2bd
00000190: 1dee 9c3e f1c1 913e f62f 263e c781 b2bd
000001a0: 9bc9 e73d 0d34 a43d de06 b03d 3d65 013f
000001b0: 3017 033d 4835 58be 84ac 58bd ed72 f53e
000001c0: 2581 e6bd 0e0d 82bf 9830 223d 3734 3ebe
000001d0: 29ac 263e 934a b83e 0d45 14be a12f 3c3e
000001e0: 3e6b 013d fdbc f83d 3d8a 45be 7de4 f13d
000001f0: 1ba3 68be 42d1 b2bd 7516 173e b748 993f
0.7871196 0.49211866 -0.59342 -0.119128846 -0.66434175 -0.25608504 -0.82388425 -0.025651308
1.4673939 0.3403666 -0.014050829 0.30687812 -0.38439527 -0.60130876 -0.198344 0.23578921
0.046181202 0.052840058 -0.2542335 -0.08251686 0.35624287 0.7694768 0.17808911 0.07385497
-0.23223552 -0.39884764 0.22470023 -0.082843944 0.6006212 -0.23953116 -0.098477535 -0.07028378
0.6568605 -0.28279844 0.032868523 -0.4178831 -0.012803352 -0.015671337 -0.18174718 -0.24224359
0.04588167 0.039575182 0.35506174 -0.013018085 0.34293184 0.075343885 0.06733624 -0.036549255
0.87072635 -0.49137446 0.1524239 0.067389674 0.00015438674 -0.17175324 0.39348742 -0.28409445
-0.21362911 -0.36346123 0.25734067 0.28179497 -0.3962691 0.011655826 0.42689636 -0.24229352
0.880399 -0.9532256 0.12559697 0.119772136 0.43564275 0.29947424 0.7598686 0.034340434
0.14245985 0.35362735 -0.272296 -0.493928 0.0714581 -0.11432977 -0.26194957 0.111407526
-0.1038915 -0.3002492 -0.38054183 -0.5786922 0.22655456 0.56503063 -0.10951877 0.3358281
-0.09731168 -0.3320653 -0.18590267 -0.4605333 0.25190634 -0.07758792 0.24110165 0.5928073
-0.612188 0.75594944 -0.16410647 -0.11844991 0.30650416 0.28468278 0.16229233 -0.08716159
0.1131775 0.080177404 0.0859506 0.505451 0.032004535 -0.21114075 -0.0528989 0.47939244
-0.11255101 -1.0160234 0.039597124 -0.18574606 0.16276611 0.35994396 -0.14479466 0.18377544
0.031596415 0.12145422 -0.19291015 0.11811159 -0.2271847 -0.08731319 0.1475466 1.1975316

neighbor_encoder_1.bias f4 [32]
00000000: de3c 16bf e214 db3d 8643 ca3e 4bf3 03bf
00000010: 4c84 1940 2707 723f 609c 8dbf 9812 953f
00000020: ab12 773f 55c3 afbf 98b4 f43f a269 a23f
00000030: 0d95 96bf efcf 2e40 bc04 debf 1f5a 1e40
00000040: 1eb7 183d 909c e4be ae3c 1d40 b1b8 3640
00000050: 5cf7 e0be 05b5 1d40 c126 973f 5e12 0a3d
00000060: c3a6 e33e e997 0240 daf7 1540 ffe8 4240
00000070: a9fb 93be 9bee 95bc 3e2e 0240 61cf 383f
-0.58686626 0.106973425 0.3950464 -0.5154311 2.3986998 0.94542164 -1.1063347 1.1646299
0.9651286 -1.3731486 1.9117613 1.2688487 -1.1764237 2.7314413 -1.7345195 2.4742506
0.03728401 -0.44650698 2.4568286 2.8550227 -0.4393872 2.4641736 1.1808702 0.033708923
0.44463167 2.0405219 2.3432527 3.045471 -0.2890294 -0.018302253 2.0340724 0.72191435

neighbor_encoder_2.weight f4 [16, 32]
00000000: 69c3 fa3e 9cef e43e 08a5 b13f 0b88 8ebf
00000010: 32aa 1abe 3db0 6b3f 5530 33bc efc4 51bd
00000020: 006b 323f d779 ac3d 81a7 edbe 00dd a93d
00000030: 58d3 1ebd 6bda 123f 1942 6d3d 0817 9d3e
00000040: e4b0 cf3f c23f 64be bc6d 13be 493c ee3e
00000050: 2a68 e23d d1b7 073f f804 d2bc eadb 1d3f
00000060: 07bf 593f c1b5 f4be 6844 9bbe 6462 2b3f
00000070: e2ba 563f 6c81 ad3e ee7e fbbe 2d39 d93e
00000080: a903 e8be 67c9 453f dcca a33f 0c7a 80bf
00000090: 6732 87bf 14c7 3bbe 08ef ee3d b2cd 57bf
000000a0: b1c9 94be 6387 46bf 76bc 7dbf 7494 2cbf
000000b0: 752e abbf 5dae 00bf 82f1 1e3e a52b fcbe
000000c0: 1583 983f 537f 18bf bd05 9bbf 0125 1fbf
000000d0: 71dc e53e be6c f7be 7208 7dbf bb83 343d
000000e0: 928f 403e 7559 8abf b41d a7bf 7ee8 33bd
000000f0: 9901 2a3e e865 08bf 0b9f 53bf 126f 043e
00000100: c3ef a93f 82ed d6be f05f 0b3f b79a e3be
00000110: 80cf 77bf d3e7 88be 8df6 a93e 8e24 5bbf
00000120: 7b10 23be 9a7e 26be f7bf 7ebf 0230 bfbe
00000130: 56d4 423f 990e bdbf d211 043f 27b6 8cbf
00000140: 0c3d 713f 7d60 203e 34a6 8cbf 3e2b a0bf
00000150: 1b9e 4d3e 5e09 02bf 0036 dcbe 0b94 c53e
00000160: a747 073d 41d8 21bf 6678 8ebf d0c3 aebf
00000170: e303 413d 48ea 0a3f 44b0 81bf 4de1 d7be
00000180: 0031 773f 7a39 0d3f 2edc 5b3e 1657 3cbe
00000190: 1b0b 59bf 47bb 323e 1fb0 183f 4456 1cbf
000001a0: 3aa1 303e fd4e d43d 0a65 84bf 5d38 f4be
000001b0: aa2a 553f 3fd8 65bf 5050 383f 5b99 1dbf
000001c0: 2945 463f c716 18bd aeba 94bf ae77 21bf
000001d0: ca13 cf3e 1057 9fbf 7a91 57bc c6d3 c63d
000001e0: b52c 013f 4042 65bf b545 9bbf b397 45bf
000001f0: 7da4 4b3f fc0c 40bd 4326 25bf 7f01 34bf
00000200: c679 c03e dc30 c5bf 6ca9 3ebf 3f8b 70bf
00000210: 045d e0be e69e 8dbf f642 95bf 45ae b33e
00000220: 1c00 74bf 4141 9ebf 7721 64be b7e3 fc3e
00000230: ad77 95bf 3431 36bf 09b8 94bf 21ad 48bf
00000240: 099d 6fbf 0873 013e 00cf 81be 5b7f 62bf
00000250: 51d0 b6bf abe2 743e c9c5 52be 7944 55be
00000260: 58c7 a1bf daf3 68bd f498 c9be 7500 69bf
00000270: 72d2 bebf 42b0 f8bd ebbc f3bd bb2d af3c
00000280: af96 14bf 0e67 2abf 57ff afbf 61dd ac3f
00000290: 1ff8 b43d 27f2 afbf 9c2a c83c 4483 c93e
000002a0: 12c2 0ebf 5a79 f13e c2cc 343f e6f9 8e3e
000002b0: 5bb8 d33e 96f3 42bf b4d0 0a3d 6901 13bf
000002c0: 952a 8fbf 623f d33e 0204 fa3d 37d2 1bbf
000002d0: 8549 883e 3e00 0bbf e8f4 e23e 28b9 00be
000002e0: 029a b3bf 120c 213f 70de 5c3e 899d ebbe
000002f0: cbf8 3fbf 4dff 34bf 40ba d03e 67c1 63bf
00000300: 73c0 58be 93b9 35bf b76c 34bf a728 a1bd
00000310: d1ed 063c c2cd 1fbf 2bf6 08bf ab8a 383f
00000320: fb9e e8be 495f 18bf 0f74 823e 6814 2b3f
00000330: ac87 00bf 03fc 14bf 6909 0bbf dd78 9dbe
00000340: 8af9 c7bf 6d19 f33e de2d 8e3d 0cef 0dbf
00000350: e65d 70bf 4066 1abd 81ba d1bb 834c b9be
00000360: 3ac7 7ebf 23d6 243d 3052 db3d 5cb3 15bf
00000370: 788f 7cbf 61eb 143e bdb8 9e3e 904d a03e
00000380: e235 fbbe b526 41be 176b b3be 70de 113f
00000390: 30d1 9e3f a268 873e 9b3b bebd 049e 8c3f
000003a0: d358 493e ab6b 23bd 5f14 8e3f fcf4 4e3f
000003b0: c25d 68bf 9cad ae3f b3d7 04bf 7a23 823f
000003c0: 8741 a0bf a9ea c43e e8aa bb3f 5b82 af3f
000003d0: 1bb4 f1be 7de4 8d3f 2fa8 443f 577e d6bd
000003e0: 29f8 b0be dd70 843f 3b05 9b3f 6831 8a3f
000003f0: c6fd 4abf 39d1 863d 08d9 673f 7a38 443f
0.4897721 0.44714057 1.3878489 -1.1135267 -0.15103987 0.92065793 -0.010936816 -0.0512132
0.6969452 0.084216766 -0.46416858 0.082941055 -0.03877577 0.5736453 0.057924364 0.30681634
1.6225858 -0.22289947 -0.14397329 0.4653037 0.11055024 0.53014857 -0.025637135 0.6166369
0.8505711 -0.47794917 -0.30325627 0.6694701 0.8387891 0.33887804 -0.49120277 0.42426434
-0.45315292 0.7726044 1.2796283 -1.0037246 -1.0562257 -0.18337661 0.11666685 -0.8429824
-0.29060128 -0.77550334 -0.99115694 -0.6741402 -1.3373553 -0.5026606 0.15521815 -0.49252048
1.1915003 -0.5956928 -1.2111126 -0.6216584 0.44894746 -0.4832515 -0.9884101 0.04407094
0.18804768 -1.080855 -1.305594 -0.043922894 0.16602172 -0.53280497 -0.82664555 0.12932995
1.3276294 -0.4197808 0.54443264 -0.44453976 -0.96800995 -0.26739368 0.33195916 -0.85602653
-0.15924256 -0.16259232 -0.99511665 -0.37341315 0.7610525 -1.477008 0.5158969 -1.0993088
0.94233775 0.15661807 -1.0988221 -1.2513196 0.20079844 -0.50795543 -0.4300995 0.3858951
0.033027317 -0.632206 -1.1130493 -1.3653507 0.047122847 0.54263735 -1.0131917 -0.42164078
0.96559143 0.5516583 0.2147071 -0.18392596 -0.8478257 0.17454253 0.5964374 -0.6106913
0.17249003 0.10366628 -1.0343335 -0.47699252 0.83268225 -0.8978309 0.7199755 -0.61562127
0.7744928 -0.037131097 -1.161947 -0.6307324 0.40444785 -1.2448444 -0.013157243 0.09708361
0.5045884 -0.89554214 -1.2130648 -0.771846 0.79547864 -0.046887383 -0.6451151 -0.7031478
0.37592906 -1.5405536 -0.7447727 -0.9396247 -0.43820965 -1.1064117 -1.166106 0.35093895
-0.95312667 -1.2363664 -0.22278391 0.49392483 -1.1677147 -0.7116883 -1.1618663 -0.78389174
-0.9359899 0.12641537 -0.2535324 -0.8847558 -1.4282323 0.23914592 -0.20583262 -0.20826901
-1.263896 -0.05687318 -0.39374506 -0.9101632 -1.4907973 -0.121429935 -0.119012676 0.02138411
-0.58042425 -0.665635 -1.3749799 1.350506 0.08836388 -1.3745774 0.02443438 0.3935796
-0.5576488 0.47162896 0.70624936 0.27925032 0.4135159 -0.7615293 0.03389044 -0.57424027
-1.118487 0.41259295 0.12207796 -0.6086764 0.2661859 -0.54297245 0.44327474 -0.12570632
-1.4031374 0.6290904 0.21569228 -0.46018627 -0.74989 -0.7070206 0.40767097 -0.88966984
-0.21167164 -0.7098629 -0.70478386 -0.07869082 0.008235411 -0.62423337 -0.5350062 0.7208659
-0.45433792 -0.59520394 0.2547917 0.6682801 -0.5020702 -0.5819704 -0.54311234 -0.30756274
-1.5623028 0.47480336 0.06942342 -0.5544288 -0.9389328 -0.03769517 -0.006400407 -0.36191186
-0.99522746 0.04024328 0.107090354 -0.58476806 -0.98656416 0.14542915 0.3100032 0.31309175
-0.49064547 -0.18862422 -0.3504264 0.5698004 1.2407589 0.26447016 -0.092887126 1.0985723
0.1966279 -0.039897602 1.1099967 0.80842566 -0.90768063 1.3646731 -0.5189163 1.0167077
-1.2519997 0.38460281 1.4661531 1.3711656 -0.47207722 1.1085354 0.7681913 -0.10473316
-0.3456433 1.0346943 1.2110971 1.0796328 -0.7929348 0.06582875 0.9056554 0.76648676

neighbor_encoder_2.bias f4 [16]
00000000: 284b 523f ef0a 8abf 346b 06c0 0acc c1bf
00000010: 47e2 c8bf d9f6 65bf 0704 50bf 625a 0e40
00000020: 8110 423f bc39 dbbf af1e a63e b922 0fc0
00000030: 1773 0840 bc0a a23e 0bde cbbf 4f12 3cbf
0.8214593 -1.0784587 -2.1002932 -1.5140393 -1.5694054 -0.89829785 -0.81256145 2.2242665
0.7580643 -1.7126994 0.32445285 -2.2364943 2.1320245 0.31648815 -1.5927137 -0.73465437

linear1.weight f4 [64, 34]
00000000: 8efa 1f3f 5088 793f 3a16 4bbe f9c4 503e
00000010: 4be4 273f 71d8 723f d95e 7cbd e038 dd3e
00000020: c6d0 c2be 4708 efbd 6cf3 3b3f c568 913e
00000030: 803a 25bf db5a 81be 46a1 fd3e 7833 7c3f
00000040: 9a23 8c3f 46bf 2d3e 6cbe 0dbf 2fdf 2cbe
00000050: 5f08 42bf dd59 91bf 36cd 08bf f7b8 943e
00000060: 355f cf3d ed87 1bbf 2963 11be 9af2 fabe
00000070: ce52 733e b844 db3e 418b 86be 5d8c 14bf
00000080: 7cb7 003f 5908 27be 9ee6 c73e 5194 8f3f
00000090: 2427 f7be c9d8 ca3e 2aa5 8ebd 40c9 733f
000000a0: 90d8 4f3e 96be b53e 4164 83be 3232 943e
000000b0: 827a 883e 5f91 bcbe 1902 dbbe b3d8 55be
000000c0: 9efb 603e 7398 e43e 25d4 383f ad2c b13e
000000d0: 38f6 ec3e 5673 703e 4ad4 893d 1054 cbbe
000000e0: 01df 48be be20 18bf c9dd 2fbf ca10 8f3e
000000f0: 4dfb 473d 5b77 1f3f 1fe6 3bbf 8d60 243f
00000100: 043c e73e 2882 d7be 849b 973d b170 f9bb
00000110: f08b e73c afaa 273f a00a 873f c9cf 96ba
00000120: 9596 0a3e ec67 373f f878 4cbf c55f 05bf
00000130: 0648 8dbe 183b 5dbf d25b 28bf 2fa7 473e
00000140: 27a8 893e c7a9 313e 262c 08bf 688c c13d
00000150: 1d88 453e 0a36 1cbf 7992 4f3e 4db9 bbbe
00000160: eb6c 573e 839a 98be a3dd 7bbc 6793 323e
00000170: 6526 36bd 174a e73e 6f1a 843e 4207 c13e
00000180: 5d05 6fbe 6b7d af3f 4b0a 1dbe 8047 08bd
00000190: 370f 81bc bb07 81be a600 453f d10c 893f
000001a0: 1601 453c b33f 883f 2f9c 753f 7151 ea3e
000001b0: 43f6 b2be f8c4 653f 2197 1abf cab9 fcbd
000001c0: a194 0e3f 560d b13d 0935 4fbf 95c7 7cbf
000001d0: ad7b 163e df84 a03f 02e8 4d3f e54d 343e
000001e0: 81b1 9cbd cb74 12bd 2366 2fbe e217 77bf
000001f0: 0607 81bd 654d c93e 1bb3 613e fced 34bf
00000200: bde4 d8bd fc83 a23d 0b95 d03c 2a4a 22be
00000210: fd20 333d 154c 0dbf 80ec 8d3d fc03 673e
00000220: f8c3 17bf ee15 82be 0b79 903f 521f 28bf
00000230: d5fb 5abd 62e1 23be 2b91 c2bd 4e77 f0be
00000240: 977f 903e 14cb dcbe 08c8 dabe bb6a 293e
00000250: df6a c93e 1f4d 4cbe 058f bbbe f889 58bd
00000260: 4731 c73b ad95 49be e467 153e 4df7 26be
00000270: 8aae 483f a22e e83e 496a 473f 8998 08be
00000280: 0645 c4bb 1043 3b3e 9111 2d3e 2b8d 2f3d
00000290: fe34 d3bc 65b7 403e 0332 313e 00c1 083f
000002a0: 0589 813c 9bbd 92be 7365 75bd d649 b33e
000002b0: c3d3 1e3f a22b 21be 6001 b3bd ac18 8e3e
000002c0: a3fb c0be 70b3 9d3b e947 603e 2826 fbbe
000002d0: e007 2d3e a9fa 673e 5b21 fa3c f1ce 8abd
000002e0: 1933 59bd 12c7 6abd ed44 40be c8c3 adbe
000002f0: ac57 723e 1712 64bc b9ba 503f 2ddd 8a3e
00000300: 3657 293f ea41 9e3d 65cf 383e f84f f43e
00000310: 6a3e 193e a94f 91bd 41b9 343d 6129 493f
00000320: 2120 8dbc bf89 8c3d 2b8e 1fbc d191 69bd
00000330: b0a9 763e 5ddc 0cbe 96a4 183f f9e1 84bd
00000340: f04f 373f b74a 14be 96ae e3be 7582 113e
00000350: ca40 35bd 0297 23bf 7cab 1bbf af20 a6bc
00000360: c973 313e 3d47 fd3d 6a47 90be d223 563d
00000370: bb30 363f dbba 99be 3501 adbe 4bfe c4be
00000380: 42fe 06bf 7d55 22bf 1cf6 5cbf 151a 2e3f
00000390: 8691 ba3e 899a 7ebf b715 adbd d292 0fbf
000003a0: d81b e93e 0eb3 213f d1fe cabe 0ca6 11bf
000003b0: 94d7 43bf 9f34 c8be 1d9b 75bf fca8 193d
000003c0: f72d 423e 56f6 c6bd cc8c 21be d749 ab3e
000003d0: 9840 e2bd f588 e33d d4ee bdbc 597b cbbb
000003e0: 2a71 cabd dc7c 16be 235e 413f e3f7 823f
000003f0: 7336 923c cb68 0abf 78b4 e0be 5e88 2d3f
0.6249169 0.9747362 -0.19832698 0.20387639 0.6558272 0.94861513 -0.06161389 0.43207455
-0.38049906 -0.11671501 0.7341831 0.28400245 -0.6454239 -0.2526463 0.49537104 0.98516035
1.0948365 0.16967496 -0.55368686 -0.16882013 -0.75794023 -1.1355549 -0.5343813 0.29047367
0.10125581 -0.6075428 -0.14197983 -0.49013215 0.23762056 0.42825866 -0.26278117 -0.5802668
0.50279975 -0.16311778 0.39043134 1.1217138 -0.4827205 0.3961852 -0.06965096 0.9522896
0.20297456 0.35496968 -0.25662425 0.28944546 0.26655966 -0.3682966 -0.42775038 -0.20883445
0.21970984 0.4464756 0.72198707 0.34604397 0.462816 0.23481497 0.06729944 -0.39712572
-0.19616319 -0.5942496 -0.6869779 0.27942497 0.048823643 0.62291497 -0.7339801 0.64209825
0.45162976 -0.4209149 0.07402709 -0.007612311 0.02826497 0.6549482 1.0550117 -0.0011506017
0.13534005 0.7164295 -0.79872084 -0.5209926 -0.27594012 -0.86418295 -0.65765107 0.19497369
0.26886103 0.17349921 -0.53192365 0.094506085 0.19290204 -0.6101996 0.20270719 -0.3666481
0.21037643 -0.29805383 -0.0153726665 0.17439042 -0.04447021 0.45173714 0.25801417 0.3770085
-0.2334189 1.371015 -0.15335958 -0.033271313 -0.015754325 -0.2520121 0.76954114 1.0707036
0.012024185 1.064444 0.9594144 0.4576526 -0.34953508 0.89753675 -0.60386854 -0.12340124
0.5569554 0.08645122 -0.809403 -0.9874204 0.14695616 1.2540549 0.8043214 0.1760784
-0.07651044 -0.035755914 -0.17128806 -0.9652082 -0.06300168 0.3931686 0.2204098 -0.70675635
-0.10590503 0.0793533 0.025461694 -0.15848604 0.043732632 -0.55194217 0.069298744 0.22560114
-0.592834 -0.25407356 1.1286939 -0.6567279 -0.053462822 -0.16003945 -0.09500345 -0.46966022
0.28222343 -0.43123686 -0.42730737 0.1654462 0.3933935 -0.19951294 -0.36632553 -0.052865952
0.0060788724 -0.19686003 0.14590412 -0.16305275 0.78391325 0.45348078 0.77896553 -0.13339438
-0.0059896735 0.18287301 0.16901232 0.042859238 -0.025782105 0.1881996 0.17304234 0.53419495
0.015812406 -0.28660282 -0.059911203 0.3501727 0.6204187 -0.15739301 -0.08740497 0.27753198
-0.37691984 0.0048126504 0.21902432 -0.49052548 0.16897535 0.22654213 0.030533483 -0.06777752
-0.053027246 -0.057318754 -0.18776293 -0.33938432 0.23666257 -0.013920329 0.81534916 0.2712187
0.661487 0.07727416 0.18047865 0.4771726 0.14965215 -0.07095272 0.044121984 0.78578764
-0.017227234 0.068622105 -0.009738485 -0.057023827 0.24088168 -0.13755937 0.5962614 -0.06488413
0.7160635 -0.14481626 -0.44469136 0.14209922 -0.04425124 -0.63902295 -0.6080854 -0.020279257
0.17329325 0.12367103 -0.28179485 0.052280255 0.71168107 -0.30025372 -0.33789983 -0.3847526
-0.52731717 -0.63411695 -0.86313033 0.6800855 0.3643915 -0.9945455 -0.084514074 -0.56083405
0.45529056 0.6316384 -0.39647534 -0.5689399 -0.7650082 -0.39102647 -0.9593981 0.03751467
0.18962847 -0.097149536 -0.15776366 0.33454773 -0.110474765 0.11110107 -0.023185171 -0.0062097725
-0.098848656 -0.14696068 0.75534266 1.0231899 0.017848229 -0.5406615 -0.43887687 0.67786205

linear1.bias f4 [64]
00000000: 0036 a13f 378c 70bf 20c8 1c3e 00c7 5c3f
00000010: 468c a53e 55dc 69be 7f4b f63f 6878 233f
00000020: 819a 37be 05bf 97bf 0fa4 273e 0a8b 153e
00000030: 7990 23bf f162 54bf fb1c 983e 44cd 10be
00000040: 42bc 86bf 6ba3 d3bd 8865 60bf f2f0 7c3d
00000050: db40 213f 704d b03d 9bf5 07bf 986b efbe
00000060: cacd 86be 3df8 ae3f f7c6 843f e62b 92bf
00000070: 3f94 45bf fd0c e63e b82e 813f 136c a43e
00000080: 2124 2e40 d3a3 243e bcee b4be 38e5 853d
00000090: 9b9d 2cbe 6cc9 7e3e be14 75bf bc88 34bf
000000a0: dc29 eebe ec89 803f 7599 0a3f a97f 0ebf
000000b0: 00dc 933f 57f2 a8bb 4c9d 7dbf 5d40 61bd
000000c0: ae66 1f3e 154c b13f c677 08bf 5128 6abf
000000d0: aac6 5abf 95e8 89bf 5054 673e 8896 81be
000000e0: e083 3d3f ad2b 95be fd58 333f b6e8 16bf
000000f0: 6f9a 3b3f e274 7f3f c5a0 1cc0 9cb6 fdbd
1.2594604 -0.9396395 0.15310717 0.8624115 0.32333583 -0.22837956 1.924179 0.638556
-0.17930032 -1.185517 0.16371177 0.1460382 -0.6389232 -0.8296347 0.2970961 -0.14140803
-1.0526202 -0.10333904 -0.87654924 0.06175322 0.62989587 0.0860852 -0.5310914 -0.46761775
-0.2632888 1.3669506 1.0373219 -1.1419647 -0.7717933 0.44931784 1.0092382 0.32113704
2.7209551 0.16078119 -0.3533839 0.06537861 -0.16856997 0.24881524 -0.95734775 -0.7052114
-0.4651631 1.004209 0.54140407 -0.55663544 1.1551514 -0.0051558423 -0.9906814 -0.054993022
0.15566513 1.3851343 -0.5330776 -0.9146777 -0.8545939 -1.0774103 0.22590756 -0.2531016
0.7402935 -0.29134884 0.7005766 -0.5894884 0.7328252 0.99787724 -2.4473126 -0.123883456

linear2.weight f4 [16, 64]
00000000: 0991 80be 28fb 8dbe e7d1 95bd 86c2 1fbe
00000010: d277 2a3e 595f 353e 1ce2 aebe 6a37 d33d
00000020: 51e4 963b e48b d8be bc85 41be a2ee c13c
00000030: 871b d2be 331e aabd 3a07 91bd b15c f03d
00000040: 6dd1 34bf 4163 d8be dc49 32bf 5baa fa3d
00000050: d20a 8bbe ad58 e53d f0ab 8dbe 9be3 abbd
00000060: 221c 3fbe ea2a f0be ddb9 4c3d b964 41be
00000070: eba9 fd3d c33a 25be bc63 97be 0687 49ba
00000080: 624f 02bd 4a2f 90bd 5d2d 6dbd ef4d de3c
00000090: a9d7 cb3e 7acf 523e 7ed5 9abf 7a6e a3be
000000a0: a76e 48bf 03b9 cd3d 501d d33d b0c9 e2be
000000b0: 02e8 f9bd 24d5 263d a15c 80be 1d1b d3be
000000c0: e011 c33d 80ef 7ebe ebf1 22bf f84b 8dbe
000000d0: eed7 a3be 0d4a 0fbf 9223 db3d 00fa 603e
000000e0: 2fea c7bd f5c8 d03d 7c3b 8fbe 4bc8 0abf
000000f0: 8d4c a8be 8fae a23c e265 b6be c3cc ac3e
00000100: a140 cdbe 7741 bcbe 3641 29be 8c85 59be
00000110: 2c6d c93e 1de0 853e 5422 b7be 3a11 af3e
00000120: 692e d23d 8b5c 8abe 3862 e93d f937 9e3e
00000130: 3ecc 41bf ccc8 0dbe 4c86 9e3e 94db a13e
00000140: e416 01bf ac6b b7bc 6d07 56bf 8210 113e
00000150: c4db 7bbe 6536 523e 2bf8 95be 9ff3 173e
00000160: 1823 c3be 7808 0dbf 4faa b53d dd95 fdbe
00000170: 891d 3bbf 9577 46bd ec35 b6be 5f9b 8b3e
00000180: ecb7 a83d cabf 963e eb01 1cbe 9922 5f3e
00000190: 6b90 0a3f e4f6 74be 96de 98bf 197f 30bf
000001a0: 2d06 9bbe 67fb ab3e 8e60 ee3e 1d7a abbe
000001b0: da12 2cbe 611b 4f3e add0 40be 81c8 5b3e
000001c0: 7cef b03e 6237 913d 2848 8bbe b012 cabe
000001d0: 3139 f3bd ca9e e9be 610e c43e 905e 9a3e
000001e0: f6ae 35be 2a07 4cbf 5cd3 8e3d 0c95 dabe
000001f0: 9bd8 96be 913c 6c3e 8aad afbe 1f86 1f3f
00000200: 03c3 2fbe d281 82be e0dd 81bd 2aab a1be
00000210: 6047 e0bc 2007 71be c0a6 fe3d 34dd 623e
00000220: 3ef3 b03d 38a0 aabe 2259 b4bd 56c1 1ebe
00000230: 24b3 6a3e cc2a eebd 5128 853d ecaf 8bbd
00000240: 15dc 5fbe 84a2 aebd a812 76be 3918 2fbe
00000250: 56c3 403c 8fb4 32be a657 a4bd 2178 d63e
00000260: 6080 a53d d899 36be ee46 b63e b939 91be
00000270: bd4e b83d 3950 49be 10f3 e33c 8b17 3ebe
00000280: 1e0a cebe e7ef 183a 0038 0dbe 65e8 133e
00000290: a6fd fbbd 0e6b 88bd 7670 abbd 0490 0abf
000002a0: 29d5 8ebd f67a c7bc 477c 8ebe 7b88 1fbd
000002b0: 9631 3bbe a670 6cbe 0029 3ebd 91b3 063d
000002c0: bc94 383c 8b62 b1be feb0 6ebc 9e71 b5be
000002d0: 5d94 e83b b312 2a3d 5a3d 2abe bb93 35bd
000002e0: cb73 4fbe 61d0 8abd dfd6 3bbe bec8 4d3d
000002f0: 614c 5ebe 47b7 403d cadb 3abe 5174 babd
00000300: 454e 83be 8ac1 cf3b e1a7 d63e 16c0 7fbd
00000310: 9fa6 88bd 60cd 63bd 2d80 463e fe53 b4be
00000320: c195 473d 9e00 873d f68f 953d 99f7 c7bc
00000330: 1676 9abe b576 67be cc7f 25be 83a3 0dbe
00000340: 45ca 7ebd 0f41 d8be 30aa 95bd 6c6c 89be
00000350: 7010 aebc 6c07 58bd 6b1f 26be e87a 90bb
00000360: a745 f1bd f32d b0bd 03c8 303e 60bf d4bd
00000370: 5155 c93e c1e1 983d 15a2 f8be 8e03 ce3c
00000380: d019 2ebe 1976 19be d773 db3d 278c 79be
00000390: 7538 b3bd db89 a0bd d73b 11be 4242 953e
000003a0: 02db 8bbd 7e98 d7be e604 82bd 456c 033e
000003b0: 16b4 68be 6164 e1bc ae49 22be 829c 47bd
000003c0: 1b2d 58bd fe80 13be c0ea 6bbe 9509 5abb
000003d0: 7d1c 553d 3d52 ecbe ca60 283e dba7 10be
000003e0: af1c 883e fb96 03bf 8ec9 00be d959 3fbd
000003f0: a4d1 80be 3644 93be 6979 21be 863e cdbe
-0.25110653 -0.2773068 -0.07315426 -0.15601549 0.1664727 0.17712153 -0.34156883 0.10313304
0.004604854 -0.42294228 -0.18898672 0.02367336 -0.41036627 -0.08306541 -0.070814565 0.117364295
-0.7063206 -0.42263225 -0.6964395 0.12239524 -0.27156693 0.11198554 -0.2767024 -0.08393022
-0.18663076 -0.4690774 0.04998194 -0.18886079 0.12385925 -0.16135697 -0.2956828 -0.00076876616
-0.031813987 -0.0704027 -0.05790459 0.027136771 0.39812973 0.20586959 -1.2096403 -0.31920224
-0.7829384 0.10045054 0.10308325 -0.442945 -0.12202455 0.04073061 -0.2507067 -0.41231623
0.09524894 -0.2489605 -0.6365039 -0.27597022 -0.3200068 -0.5597237 0.10700144 0.21970367
-0.09761464 0.101945795 -0.2797507 -0.5421187 -0.32870904 0.019858627 -0.35624605 0.3374997
-0.4008837 -0.36768696 -0.16528782 -0.2124235 0.39341104 0.26147547 -0.35768378 0.3419283
0.10262758 -0.2702373 0.11395687 0.3090208 -0.75702274 -0.13846129 0.30961835 0.31612837
-0.50425553 -0.02239021 -0.8360508 0.14166453 -0.24595553 0.20528562 -0.292909 0.14839028
-0.38112712 -0.5509105 0.088703744 -0.495284 -0.7309194 -0.048453886 -0.35588014 0.27266976
0.08238205 0.29443198 -0.15235107 0.21790542 0.54126614 -0.23922306 -1.1942928 -0.68943936
-0.3027815 0.33590242 0.4655804 -0.33491603 -0.16804066 0.20225288 -0.18829603 0.21463205
0.34557712 0.070906416 -0.27203488 -0.39467382 -0.11876143 -0.4562896 0.3829222 0.3015027
-0.17742524 -0.7969843 0.06973907 -0.4269184 -0.29462132 0.23069979 -0.34312087 0.6231403
-0.17164235 -0.2548967 -0.063411474 -0.315759 -0.027377784 -0.23537874 0.12434149 0.22154695
0.08640145 -0.33325362 -0.08806063 -0.1550344 0.22919899 -0.116292566 0.0650183 -0.06820664
-0.21861298 -0.08527091 -0.24030554 -0.17099084 0.011765322 -0.1745169 -0.0802453 0.41888526
0.08081126 -0.17832124 0.3560099 -0.2836435 0.08999393 -0.19659509 0.027825862 -0.18563668
-0.40242094 0.0005834088 -0.13790894 0.1444412 -0.12304239 -0.06661044 -0.083710596 -0.54126
-0.06974251 -0.024350625 -0.2782919 -0.038948517 -0.18280634 -0.23089847 -0.04642582 0.03288609
0.01126593 -0.34645495 -0.014568565 -0.35438246 0.0070977644 0.04152174 -0.16624966 -0.04433034
-0.20259015 -0.06778026 -0.18343686 0.05024027 -0.21708824 0.047049787 -0.18247905 -0.09104217
-0.25645652 0.0063402103 0.41924956 -0.062439047 -0.066724055 -0.055615783 0.19384833 -0.3522033
0.0487268 0.065919146 0.07302849 -0.024410056 -0.30168217 -0.22603877 -0.16162032 -0.13831906
-0.062204618 -0.42237136 -0.07307851 -0.26840532 -0.021248072 -0.052741453 -0.16222923 -0.004409183
-0.11780863 -0.08602514 0.17263798 -0.103880644 0.39322904 0.07464934 -0.4856116 0.02514818
-0.17002034 -0.14986457 0.10715454 -0.2436987 -0.08751003 -0.07838794 -0.14182983 0.29152113
-0.06828882 -0.4210853 -0.063485906 0.1283427 -0.22724947 -0.027513685 -0.15848419 -0.04873324
-0.05277739 -0.14404675 -0.23038769 -0.0033269871 0.05202912 -0.46156493 0.16443172 -0.14126532
0.26584384 -0.5140225 -0.12576887 -0.046716545 -0.25159943 -0.28762978 -0.1576897 -0.40086764

linear2.bias f4 [16]
00000000: 7df7 a23e 7798 303f 9e5f 95bd d9b2 a4be
00000010: e3da 2cbd abf5 973f 6e94 13bf e07c bb3b
00000020: 981f 023f 00f4 093f d9ec 40bf b636 463f
00000030: c6a0 773f 23b7 f93f 400f 14bf 3780 e9be
0.31829444 0.6898264 -0.07293628 -0.321677 -0.042200934 1.1871847 -0.5764836 0.0057216734
0.5082946 0.5388794 -0.753614 0.7742723 0.96729696 1.9509014 -0.5783577 -0.45605633

linear3.weight f4 [1, 16]
00000000: 43d6 7a3b e83e aa3e b599 b7be a147 fdbd
00000010: 42e0 38bf ee54 15bd d54b dabd 7c53 78be
00000020: f5dc 433f f03b 853e 876a 23bd c505 1d3d
00000030: d11b cf3e f969 2f3e e2f9 84bf 5d9c bc3d
0.0038274683 0.3325112 -0.35859457 -0.12367178 -0.7221719 -0.03645795 -0.10658995 -0.24250597
0.7650903 0.2602229 -0.039896514 0.03833558 0.4045091 0.17130269 -1.0388758 0.092095114
