gym_pybullet_drones/examples/models/critic_gnn_4drones.pkl (torch, 24434 bytes, 13 tensors)

self_encoder_1.weight f4 [32, 8]
000000 66 20 7c be ab 1b 49 3f 27 46 c5 3d 12 95 c9 3e
       -0.24621734 0.7855784 0.09632521 0.39371544
000010 ba 9a 4a bf d6 5a 03 bd b9 dc 8c 3e 78 5d 95 3f
       -0.79142344 -0.03206905 0.27512148 1.1669149
000020 31 3d 0d bf 40 31 93 3f 73 20 57 bd af f5 25 3f
       -0.55171496 1.1499405 -0.05252118 0.6482801
000030 76 c7 e2 be 4c 45 eb 3d ce 93 f4 be 2a 51 0a 3e
       -0.44292802 0.11487827 -0.47769016 0.13507524
000040 8b 3e 66 bd fb 45 29 3f d4 d0 7a be 4c 84 80 bf
       -0.05621199 0.66122407 -0.24493724 -1.0040374
000050 f0 e9 ee bd 48 b4 6c 3f 51 c6 8e 3d 93 90 aa bd
       -0.11665714 0.9246259 0.069714196 -0.083283566
000060 68 39 58 bf 73 23 f0 3e 7e ff 1a bf f4 b2 98 3e
       -0.84462595 0.46902046 -0.605461 0.2982403
000070 c6 be 51 bf 3f 97 b8 3e 47 42 4c bd 1d b7 3b be
       -0.8193172 0.36052892 -0.049867895 -0.18331571
000080 95 4d b7 3e 1c 16 87 3d cb 58 5e be 1b d1 7f 3e
       0.35801378 0.06596014 -0.2171356 0.24982111
000090 2c 33 6a 3e aa c0 96 be 44 49 d0 be 38 b6 4a be
       0.22871083 -0.29443866 -0.40680897 -0.19796073
0000a0 eb 9e 84 bf e4 3e 4b bf 79 5a ae be 06 ce d8 3e
       -1.0360998 -0.7939284 -0.340534 0.42344683
0000b0 88 2a 42 3f 1a 51 26 be 4b 40 d9 be c8 a9 4f be
       0.7584615 -0.16241875 -0.42431864 -0.2027961
0000c0 53 7b 02 40 37 35 fc be 4f 2b 37 3f f7 61 57 3f
       2.038777 -0.4925935 0.7155046 0.8413386
0000d0 d3 95 fc 3e c1 0a 18 bf 15 fc 8e 3e 6b be d1 be
       0.49333057 -0.5939141 0.27926698 -0.4096559
0000e0 9c 84 8a 3f 10 1d 09 bf c1 5a 8a bd 96 90 61 bd
       1.0821719 -0.5355997 -0.06755591 -0.05506953
0000f0 37 9a 7a 3f 83 79 c2 be 8f 29 76 bd a8 d6 36 be
       0.97891563 -0.3798333 -0.060098227 -0.17855322
000100 41 b3 2a bf ec 29 6b 3c b8 77 a6 bf e9 00 71 3e
       -0.6667977 0.014353257 -1.3005285 0.23535503
000110 7e 77 02 bf 0d 32 15 bf 9f cc d2 3e b3 94 25 3e
       -0.5096358 -0.58279496 0.41171739 0.16170006
000120 5e 2f de 3e 58 57 4a 3f 93 1a 80 3f 45 73 9e 3f
       0.43395513 0.79039526 1.000811 1.2378927
000130 6b 45 a6 bf c2 7f b2 3e ad aa bf bc 88 8f 0b 3f
       -1.2989935 0.34863096 -0.023396814 0.54515886
000140 12 b4 bc 3e 11 aa e6 be cf 8b 17 bf 21 53 9c be
       0.36856133 -0.45051625 -0.59197706 -0.30532172
000150 4b 81 33 3f a1 06 40 bf 88 0a 45 3f 15 9b 2a 3f
       0.7011916 -0.75010115 0.76969194 0.66642886
000160 38 15 1e 3e 49 50 86 3e 20 29 74 bf 33 0c 22 3e
       0.15437782 0.26233128 -0.9537525 0.15824966
000170 3a 5e 8e 3e a4 a4 43 3f c1 c0 94 3f 91 5b 69 be
       0.27806264 0.76423097 1.1621324 -0.22788836
000180 93 2f 5f bf d3 66 59 3e 6c cb 11 bf 89 b3 ab be
       -0.8718197 0.2123063 -0.5695102 -0.33535412
000190 65 58 8b 3f 49 84 6e bc c1 32 fc be a2 f7 53 be
       1.0886351 -0.014557906 -0.49257472 -0.20699933
0001a0 0d 14 c2 3e ea 38 87 be 68 61 e2 be 6e 57 86 3e
       0.37905923 -0.2641061 -0.4421494 0.2623858
0001b0 5f df 97 3e 0f 3a 96 be c5 74 0c be 91 dd 51 bf
       0.29662606 -0.2934117 -0.13716419 -0.8197871
0001c0 77 ac 74 bf 44 7e af 3f 23 a1 b5 3e b0 cb 86 be
       -0.9557566 1.3710408 0.354745 -0.26327276
0001d0 db b8 54 be 8b fe c5 ba 9c 6b ac bf 41 70 27 bf
       -0.20773642 -0.0015105767 -1.347034 -0.6540566
0001e0 a6 20 31 bf c8 ff a0 be b3 80 91 3e 5e c0 c3 be
       -0.6919044 -0.31445146 0.28418502 -0.38232702
0001f0 61 e3 69 3f a1 30 ff be 18 9f 18 be c6 7d d2 be
       0.9136258 -0.49841788 -0.1490444 -0.41111583
000200 09 4c 26 bf a0 cf 79 3e 81 4b 8e 3e 3c 23 5b 3e
       -0.6495977 0.24395609 0.2779198 0.2140016
000210 dd ae da 3c c2 d7 f2 bf 40 ee fb 3d 84 97 80 bf
       0.02669471 -1.8972094 0.12301302 -1.0046239
000220 6b de 9b 3e 21 50 40 3f 91 67 ea be e3 3b cb be
       0.3044313 0.75122267 -0.4578214 -0.39694127
000230 a2 56 3a bf 8c 64 00 bf 0c 20 6f 3e 57 70 1d 3f
       -0.7278844 -0.5015342 0.23352069 0.6149954
000240 03 40 e4 be 24 41 9c 3e 2b 55 22 3d 94 06 4d 3f
       -0.44580087 0.30518448 0.039632004 0.8008816
000250 79 a1 18 3e 40 09 d4 be 11 18 9c bf 05 5d 21 3f
       0.14905347 -0.41413307 -1.2194844 0.6303256
000260 19 2d 86 be 12 45 ec 3e 80 3f e2 be dd ba 05 bf
       -0.26206282 0.46146446 -0.44189072 -0.52238256
000270 57 3d 61 3c 01 f2 89 be 21 cc 28 be 54 3c a8 be
       0.013747535 -0.26942447 -0.16484119 -0.32858527
000280 37 05 9f bf ed 90 3b be ce dd 41 be ed 2a ed be
       -1.2423466 -0.18317004 -0.18932268 -0.46321812
000290 f2 2d 24 bf b4 2f 3b ba ec 9d 30 be 1a 03 b9 be
       -0.64132607 -0.0007140592 -0.17247742 -0.3613518
0002a0 80 db 3e bf 58 8c 93 3f 9b b8 5f 3e 72 a5 4f 3e
       -0.7455368 1.1527205 0.21847765 0.20277956
0002b0 e7 a5 d2 3e 30 3d 40 3f dd b3 c7 bf d0 b8 0b 3f
       0.41142198 0.75093365 -1.5601765 0.54578876
0002c0 13 0a 23 3f 95 95 c8 3e e7 5c 15 bf 7f b0 ce 3a
       0.6368725 0.39176622 -0.5834488 0.0015769153
0002d0 7f 28 d3 3e c6 95 40 3f dc ca 18 bf 4d 84 eb 3e
       0.41241834 0.75228536 -0.5968454 0.45999375
0002e0 16 18 1a 3f ed 3c 8a be e7 dc 8f bc ab c1 06 be
       0.60193 -0.26999608 -0.01756139 -0.13159816
0002f0 6f c2 0a 3c 8a 4a 9a 3f c4 db 02 bd 9c 7b 8b 3f
       0.008469208 1.2053998 -0.031947866 1.0897098
000300 18 c8 2e bf 9a 2e b2 bf b9 ee 41 bd f4 75 d8 be
       -0.6827407 -1.3920472 -0.047346804 -0.4227749
000310 6f 60 e0 be 99 64 af 3e 1f 6b f3 3e c0 90 2e 3e
       -0.43823573 0.34256437 0.47542664 0.17047405
000320 ce 91 30 bf ca 26 88 3f 4f 07 1e 3e 12 c8 14 be
       -0.6897248 1.0636837 0.15432476 -0.14529446
000330 cc f8 53 be b5 d1 1f bf 83 27 e1 3e a3 e1 c8 3d
       -0.20700377 -0.6242936 0.43975458 0.09808662
000340 9a f5 b5 bf 68 79 05 3f b3 ab 18 3e cb 52 6d bc
       -1.4215577 0.52138376 0.14909248 -0.014485071
000350 aa e1 ec be 22 72 78 3a 36 4f 62 bf ca 7e 56 be
       -0.46265918 0.00094774563 -0.88402116 -0.20946804
000360 35 c7 89 bf 9e 14 80 3f f7 91 30 3e 8c cb 00 bf
       -1.0763918 1.0006292 0.17243181 -0.5031059
000370 c6 b6 b0 3d f7 be 8f be a5 5b 97 3d 30 fa 17 bf
       0.08628611 -0.28075382 0.07390527 -0.5936613
000380 6a 03 c2 bf a5 9a da bd 97 98 f7 be ab 7b 81 3e
       -1.5157292 -0.10674027 -0.48358604 0.25289664
000390 30 6c 3f 3c 68 c6 7e 3e 42 12 02 be 7a 0e 85 3f
       0.011683509 0.24880373 -0.12702277 1.0395043
0003a0 cc cf 10 bf 15 68 a8 3f dd f8 07 bf 2d 06 11 3e
       -0.5656707 1.3156763 -0.5311411 0.14162512
0003b0 75 90 5d be 67 c6 dc be 39 ff e1 3e 04 37 34 3b
       -0.21637137 -0.4312012 0.44140032 0.0027498612
0003c0 db d3 34 bd 24 42 a2 3e 3d 40 1d bf 65 4b 5c be
       -0.044147354 0.31691086 -0.61426145 -0.21513136
0003d0 a2 2b a4 3c 7c 78 a2 3e c5 17 bc bd b0 5b 8e 3f
       0.020040337 0.31732547 -0.09184221 1.1121731
0003e0 18 20 a8 bd 37 77 29 be 73 64 70 be 8e ae 0f 3f
       -0.082092464 -0.16549383 -0.23475818 0.56125724
0003f0 8d af 4f be 67 98 e4 3d a1 48 0a 3e 39 27 5a 3f
       -0.20281811 0.11161881 0.13504268 0.852161

self_encoder_1.bias f4 [32]
000000 2d 11 e4 3e 68 7f 8f 3e 07 14 e9 be 14 d7 94 3f
       0.44544354 0.2802689 -0.45523092 1.1628137
000010 3b ee b5 3d 20 af d7 be 8f d5 9a 3e c0 a4 06 3e
       0.088833295 -0.42125797 0.30241057 0.13148785
000020 4c ce 37 bf 04 d1 c0 bf 17 6e 49 3f a9 86 05 3f
       -0.7179916 -1.5063787 0.7868361 0.521586
000030 6f 66 ff be 89 5e 9f 3e 42 0f 5d 3f 7b 0e b1 be
       -0.49882838 0.31126812 0.86351407 -0.3458136
000040 64 2b 37 3f 48 68 6f bd 27 f1 a8 be b7 fe b8 be
       0.71550584 -0.05844906 -0.32996485 -0.36131832
000050 45 27 26 3f 24 68 f3 3c db 9c 86 bf ad ed 7c be
       0.6490367 0.029712744 -1.0516618 -0.24700041
000060 00 82 3a 3e 84 5c 72 be 24 9c 57 3f 17 76 bd 3e
       0.18213654 -0.23668104 0.84222627 0.37004158
000070 e1 62 a2 bd a6 9d 56 3e 7b 8b a3 3e d1 a6 a9 bf
       -0.07929016 0.20958576 0.31942353 -1.3254033

self_encoder_2.weight f4 [16, 32]
000000 c2 87 9c 3d 33 f1 a2 3f 55 e4 43 bf d7 1e 18 3f
       0.07643081 1.2729858 -0.7652028 0.5942206
000010 17 0b 3e 3e c9 ab 28 bf 1b 0e a2 3f 23 0f 1d 3f
       0.18558918 -0.65887123 1.2660555 0.6135122
000020 25 8d 18 be e2 28 81 bf 95 49 65 3f 8f bc 8a 3f
       -0.14897592 -1.0090601 0.895654 1.0838794
000030 e5 9d 2f 3e 99 24 a1 3d cf e3 24 3d f9 34 46 3f
       0.17150076 0.078683086 0.040256318 0.7742458
000040 29 d9 c1 3f 44 a4 21 3f 04 eb 27 3d 37 d4 7a be
       1.5144397 0.63141274 0.040995613 -0.24495016
000050 f1 fb 54 3f 12 1a a5 3f 28 ab ee 3e c5 42 f8 3f
       0.8319693 1.2898581 0.46614957 1.9395376
000060 7f 8d 13 3f 27 40 03 bf fb 91 ab 3e ef df ed bd
       0.5763778 -0.51269764 0.33509812 -0.116149776
000070 be c8 bd 3f 28 cf 1c bf a4 ff ce 3e fd 6d 4c 3e
       1.4826887 -0.61253595 0.40429413 0.19963832
000080 69 ab 93 be f4 2b f0 3e b5 c9 06 bf 2c 61 c5 be
       -0.28841713 0.46908534 -0.5265153 -0.385507
000090 c1 a7 f0 3d 22 df 1a be d3 39 ea 3e eb a4 dc 3f
       0.117507465 -0.15124181 0.4574724 1.7237829
0000a0 8f ee 2b 3f 70 2d 0b be d6 b5 5f 3d 4b 31 b6 3e
       0.67160887 -0.13591552 0.05461677 0.35584483
0000b0 51 36 cf 3e 88 20 e7 bd ac 20 39 3d 4a bf fd 3e
       0.40471128 -0.11285502 0.045197174 0.49560004
0000c0 90 1f ac 3f 43 09 70 3e 34 e5 40 bf ae b9 fc be
       1.3447132 0.23441033 -0.75349736 -0.49360412
0000d0 89 7c 0d 3f cb ae 43 3f cf 97 57 3f ed d2 91 3f
       0.5526815 0.7643859 0.84216017 1.1392494
0000e0 7f 9d f1 3e 2c 46 81 bf 93 5b c9 be 4c 1c 06 bf
       0.47190472 -1.009954 -0.39327678 -0.5238693
0000f0 54 b5 84 3e 96 73 91 be 32 5c ea ba 7e 99 46 3c
       0.25919592 -0.28408498 -0.001788026 0.012121556
000100 65 5f 3c be e1 af 19 3f 83 c0 31 be 93 89 d5 3e
       -0.18395765 0.60033995 -0.17358594 0.41706523
000110 c9 28 71 be 9a 34 ea be 40 e6 04 3e c5 c4 38 bf
       -0.23550715 -0.45743257 0.12978458 -0.72175246
000120 34 23 f4 3e 67 5d 53 3e fa 53 f0 3e 90 6a 14 be
       0.47683108 0.20641099 0.4693907 -0.14493775
000130 33 3b c8 be 5c 66 89 3e 39 7e 8c 3e 81 a2 3d bf
       -0.39107665 0.26835907 0.2744005 -0.74076086
000140 c7 35 c4 3c c7 43 4b bf 38 2a 1d bf 3d f8 af 3e
       0.023951424 -0.79400295 -0.61392546 0.34369078
000150 e0 5f 44 3f 5c 46 94 bf c4 c9 e6 3e 8e 1a 89 bf
       0.76708794 -1.1583972 0.4507581 -1.0711229
000160 c1 7e c2 be c0 9d 9e be 11 38 e2 be 34 ba 2a 3f
       -0.3798733 -0.3097973 -0.441834 0.66690373
000170 0d 6e 1c bf 05 86 98 be b6 8e d6 3d 27 f0 99 3c
       -0.61105424 -0.2978975 0.10476439 0.018791271
000180 94 d6 d8 be c8 a3 87 3f d1 b2 18 3e d5 a0 95 3f
       -0.4235121 1.0596857 0.14911963 1.1689707
000190 7a 4b 26 bf b5 c4 f8 be ca 7c 16 3f 01 1c dc bd
       -0.6495892 -0.48587576 0.58784163 -0.10747529
0001a0 9b c9 6a bf d2 c7 04 be 7e f8 4a 3e d9 41 6b 3e
       -0.91713876 -0.1296685 0.19821355 0.22974338
0001b0 7d 30 8b 3d 36 12 00 be f1 07 94 3f 50 ec d6 be
       0.06796358 -0.12506947 1.1564924 -0.41977167
0001c0 25 30 93 be b1 e8 2b bf b1 0a a8 be e8 31 82 be
       -0.2874767 -0.67151934 -0.32820657 -0.254287
0001d0 6f 5c 8f 3f d1 47 8a 3f b7 15 18 bf 28 97 d9 3e
       1.1200083 1.0803167 -0.59408134 0.42498136
0001e0 31 20 66 bd 52 77 0b bf f2 52 cb 3f 76 27 35 3f
       -0.056183044 -0.54478943 1.5884688 0.7076334
0001f0 28 e0 57 3f 41 dc 1a 3d 22 d9 8c 3f c7 b4 9a 3e
       0.8432641 0.037807707 1.1003764 0.30216047
000200 ee 4f 8e bd 8d a6 65 3f c1 24 be bf 8e ad 61 3f
       -0.06948839 0.8970726 -1.4854966 0.8815545
000210 a1 a1 00 bf 46 c1 29 bf 5e a6 58 3f 0b 4e 46 be
       -0.50246626 -0.66310537 0.84628856 -0.19365709
000220 bd 15 c1 bf 71 81 7f bf c9 68 16 3f f8 e3 ca 3f
       -1.5084759 -0.99806887 0.5875364 1.585082
000230 0c 33 e7 be 56 bb e9 be ac 19 58 be 51 fa c4 bc
       -0.45156133 -0.45650738 -0.21103543 -0.024045141
000240 cf 49 35 3f 63 32 b1 3e e5 16 29 bf e6 74 3a bf
       0.7081575 0.34608755 -0.6605056 -0.7283462
000250 be 88 5b 3f 6e 52 06 3f 2c b6 ec be 15 f5 7e 3f
       0.85755527 0.5246953 -0.46232736 0.99592716
000260 78 cd 5b 3f ea 99 59 bf f2 bd 86 3e b0 03 a0 3d
       0.85860395 -0.8500048 0.26316792 0.07813203
000270 e4 69 89 3e d4 a1 51 bf 56 94 74 bd 17 62 d4 be
       0.268386 -0.81887555 -0.059711777 -0.41481087
000280 c8 35 7a bf 66 34 9d 3f 59 99 08 be 8c 55 51 3d
       -0.97738314 1.2281616 -0.13339747 0.051106974
000290 5d aa ca be f7 b4 9e be cd 92 af 3f 93 59 9b 3f
       -0.39583102 -0.3099744 1.3716675 1.2136711
0002a0 13 0e b1 be 29 15 aa 3e ca 80 56 3e 6c 5e f3 bd
       -0.3458105 0.3321927 0.20947567 -0.11883244
0002b0 65 57 b9 3d 06 74 91 be a6 22 b2 3f f2 a4 0d bc
       0.09049872 -0.2840883 1.3916824 -0.008645283
0002c0 e8 c4 3a 3f 89 72 16 bf fd f5 60 bf 6c 62 ea be
       0.72956705 -0.58768517 -0.8787535 -0.45778215
0002d0 78 11 0a 3f ec bb 27 3f 7c 0c 25 bf 9e 63 a9 3e
       0.53932905 0.6552112 -0.64472175 0.33083814
0002e0 39 55 23 bf 69 73 83 bf 2a 41 ed 3e fc 03 a7 3e
       -0.63801914 -1.0269595 0.4633878 0.32620227
0002f0 d6 23 c7 3e 55 47 6c bf 5a f0 41 3f 26 03 a0 3e
       0.38894528 -0.92296344 0.7575737 0.31252402
000300 4e 73 18 3f cd 3a 11 bf 69 9a 34 3f f6 28 56 bf
       0.5955094 -0.5673035 0.7054811 -0.8365625
000310 16 4b 28 3f cc d4 bd 3e 9e 23 ef be a6 a7 2c 3e
       0.6573957 0.37076414 -0.4670686 0.16860828
000320 42 ab 82 3f 01 c7 6b 3f b8 6b 77 bf 77 68 b0 bf
       1.0208514 0.9210053 -0.9664874 -1.378188
000330 ed be cb 3e d8 f9 ab 3e 72 70 87 3e 00 14 23 3e
       0.39794102 0.33589053 0.26452976 0.15925598
000340 70 a6 e7 bc 3a 94 96 3f 91 ff 12 3f 1b da 24 be
       -0.028277606 1.1763985 0.57421213 -0.16098826
000350 16 ac 90 bf ea 3c 04 3f 9a 67 27 3f a7 74 a6 3d
       -1.1302516 0.5165545 0.6539246 0.081277184
000360 ae 7b 26 bf a9 c6 60 3f cf b8 11 3e a4 be 3b bf
       -0.6503247 0.8780313 0.14230655 -0.7333777
000370 91 81 32 3f 1a cf 48 3f ee e7 6e bf 5e 79 62 be
       0.6972895 0.7844101 -0.93322647 -0.2211661
000380 7f b3 66 bf c0 0f 1e 3f e4 fa bd bd cb 26 8e 3f
       -0.9011764 0.6174278 -0.09276369 1.1105589
000390 d0 9b 70 3d 18 4e 3f bf 1e d6 2a 3f e6 fc 00 bf
       0.058742344 -0.74728537 0.66732967 -0.5038589
0003a0 77 90 76 bf f6 94 dd be 37 f8 bc 3e bf 9a 5c bc
       -0.96314186 -0.4327771 0.36908123 -0.013464629
0003b0 71 02 fa 3d 2b c9 15 3d 5c d9 ad 3f f1 a9 7b 3d
       0.12207497 0.0365688 1.3581958 0.061441366
0003c0 34 74 be 3e 6d d4 be be f1 1a 88 be 38 4e c7 bd
       0.3719803 -0.37271443 -0.26583055 -0.09731716
0003d0 42 b2 63 3e 06 c7 77 3f 8f c6 7c be 06 17 66 3f
       0.22235969 0.9678806 -0.24685119 0.8987888
0003e0 fc 55 ab be b0 cc 8e bf ae e5 c8 3f 7c 46 33 3f
       -0.33464038 -1.1156216 1.5695093 0.70029426
0003f0 5c 95 78 3f c7 17 5f bf ac 91 2d 3f 7b 2d 94 3e
       0.97102904 -0.87145656 0.678004 0.2894095

self_encoder_2.bias f4 [16]
000000 7b 1b 00 bf fb 38 9b bf ec 54 9b 3f b5 10 a7 3e
       -0.5004193 -1.2126764 1.2135291 0.32629934
000010 65 18 c0 3e e9 33 98 be 0d 07 93 bf f6 12 ac bd
       0.37518612 -0.29727104 -1.1486527 -0.08402054
000020 52 e1 06 3f 90 ed 60 bf 54 63 b5 be 66 c4 5e bf
       0.5268756 -0.8786249 -0.35427344 -0.8701843
000030 f8 11 bd 3e 36 b6 5b bf 6b e4 f4 be a2 3b 00 bf
       0.36927772 -0.85824907 -0.4783052 -0.5009099

neighbor_encoder_1.weight f4 [32, 4]
000000 8d e2 54 3f e3 80 da 3e f1 87 20 bf 90 e3 14 bf
       0.8315819 0.42676458 -0.6270743 -0.5815973
000010 46 54 4c bf 59 7f 50 bd 2e 86 ea 3d 98 1e a4 be
       -0.7981609 -0.0509027 0.11451374 -0.3205459
000020 f6 82 e5 3f ee 90 5e 3e c2 39 a7 3e fd 39 a1 3d
       1.7930591 0.21734974 0.32661253 0.078723885
000030 59 49 ff be ca 80 1b bf e2 e2 af 3d e0 56 15 3f
       -0.49860647 -0.6074339 0.08588196 0.58335686
000040 aa ae 01 3a 0d 91 09 3d e4 6d fd be 23 6f d5 3d
       0.00049469864 0.033585597 -0.49497902 0.10421588
000050 95 07 6d 3e fa 25 6d 3f 9e 83 d5 3e 31 57 c0 3e
       0.23147424 0.9263607 0.41701978 0.37566522
000060 46 5b 3a bf f9 8f 0b bf 3c 62 e8 3e 6d 57 e5 be
       -0.7279552 -0.5451656 0.45387447 -0.44793263
000070 45 86 84 3e 7d 25 b2 be 9d a6 80 be 99 97 38 bd
       0.2588369 -0.34794226 -0.25127116 -0.04506645
000080 0c 10 10 3f bd 52 9f be f9 da d1 3d 0c 90 f2 bd
       0.56274486 -0.31117812 0.10246844 -0.11843881
000090 11 e1 b7 bd aa 37 73 3d ad 6e f1 bd 85 a3 99 be
       -0.08978475 0.059379257 -0.11788688 -0.30007568
0000a0 0f 41 33 3d 99 da 1e 3d b4 11 30 3e c1 3d 8f bc
       0.043763217 0.03878269 0.17194253 -0.017485501
0000b0 7c ea 70 3e 87 07 0e 3e d7 fb 93 be 2b d3 5a bd
       0.23526949 0.13870059 -0.28903076 -0.05342404
0000c0 13 2b 6a 3f ee a5 38 bf b6 4d a7 bc b5 56 c0 be
       0.91471976 -0.7212819 -0.020422798 -0.37566152
0000d0 5b 64 29 3e 13 48 85 3d 11 80 bf 3d 32 45 ae be
       0.16542189 0.06507888 0.093505986 -0.34037167
0000e0 43 57 f2 be 53 3a e5 be de 94 b5 3e cb f9 95 be
       -0.473322 -0.4477106 0.3546514 -0.2929214
0000f0 f9 2d a5 be b6 85 88 bd ea ec ce 3e 5f db df be
       -0.32261637 -0.06666128 0.40415126 -0.43722054
000100 c1 0f 99 3f 90 70 57 bf b4 41 5a 3e 7b b0 9c 3e
       1.1957933 -0.8415613 0.21314126 0.30603394
000110 9b 45 de 3e 3b 55 20 bd ca 84 fa 3e 73 6a 7c be
       0.4341248 -0.039143782 0.48929435 -0.24649982
000120 74 c7 2e 3e 5b a6 79 3e ee 05 cd be 71 2f b5 be
       0.17068273 0.24379866 -0.40043586 -0.35387757
000130 07 c8 f8 bd de 24 36 3d e1 dd 8e be 1e 13 3d 3d
       -0.12147527 0.044468753 -0.27903655 0.04616081
000140 5b bd fd be 37 bc bc be 2a d1 e2 3d 08 8e 50 bf
       -0.4955853 -0.36862347 0.11075051 -0.8146672
000150 63 f2 50 3e 3e 7b d5 3e e0 be 03 bf 72 5c 12 3d
       0.20404963 0.4169559 -0.5146313 0.035732694
000160 e2 e2 ef bd c2 e8 a7 be 39 b5 b6 3c e6 00 16 be
       -0.11713196 -0.32794768 0.02230321 -0.1464878
000170 da 56 d6 3e 99 9c 09 bf 14 b1 3c 3f 9b 89 97 3e
       0.41863137 -0.53754574 0.737077 0.29597172
000180 0d df 51 bf 3b 3d 81 3f 3b 82 f4 3d 5e 6c af bd
       -0.81980973 1.0096811 0.11938902 -0.08565591
000190 de 8f 5f 3e 43 61 d1 3e f7 a3 91 3d 07 98 37 3d
       0.21832225 0.40894517 0.07111352 0.04482272
0001a0 23 e7 7b 3d a9 ee 4e 3e bf e4 c9 bc f0 20 bc 3e
       0.061499726 0.20208229 -0.024645207 0.3674388
0001b0 5f fd 30 be b6 ae 91 bd c1 cb 62 be 7d fd 08 3f
       -0.17284153 -0.071134016 -0.22148038 0.5351179
0001c0 6f 50 04 be cc fc 86 bf 40 20 97 3e a3 2b 2b bf
       -0.12921308 -1.0545897 0.29516792 -0.6686346
0001d0 9f 35 e0 3e 07 79 50 3f e6 db de 3d 0d e6 2f 3e
       0.4379091 0.81434673 0.10881786 0.17177601
0001e0 5e 16 56 3c 88 55 24 3e bb 12 9b be 98 c6 13 3e
       0.013066856 0.16048253 -0.30287728 0.14431226
0001f0 9f 10 d2 3e c2 1d 58 3e 82 2a e7 bd b4 ed 4a 3f
       0.41028306 0.21105102 -0.112874046 0.79268956

neighbor_encoder_1.bias f4 [32]
000000 f4 8d d5 bd fc 27 8e be 83 45 8c 3c 20 f3 ec be
       -0.10427466 -0.2776488 0.01712299 -0.4627924
000010 ef f7 db 3f b6 8b 27 3f d6 54 63 bf 2e 89 57 3f
       1.7185038 0.65447557 -0.88801324 0.84193695
000020 d8 00 6c 3e b5 69 a5 bf bb cf a4 3f e3 2a 88 3f
       0.23047197 -1.2922884 1.2875894 1.0638088
000030 02 47 e0 be 7e 89 b3 3f ce 59 a2 bf 5f 8b 9a 3f
       -0.43804175 1.4026334 -1.2683656 1.2073783
000040 97 a9 81 be cd 09 ad 3e 32 9b de 3f 88 a8 d5 3f
       -0.253247 0.3379654 1.7391112 1.6692057
000050 23 fb e0 be 3c 6f b3 3f f4 d1 71 3f 52 a0 e7 3d
       -0.43941602 1.4018321 0.9446099 0.113098755
000060 d2 97 73 3d d9 eb c6 3f 0b 8e b3 3f 07 c6 c2 3f
       0.05947096 1.5540725 1.4027723 1.5216683
000070 e1 29 3a bf bb 4e 35 3f 83 5f bf 3f d3 2b f6 3e
       -0.7272015 0.7082326 1.4951023 0.4808031

neighbor_encoder_2.weight f4 [16, 32]
000000 74 e0 0e 3f a0 16 fc 3e 04 7a d3 3f 41 74 91 bf
       0.5581124 0.49236012 1.6521611 -1.1363603
000010 f2 cc 8d be b6 17 7c 3f fb 82 25 be d0 03 1f be
       -0.27695423 0.9847368 -0.16163246 -0.15528798
000020 53 cf 2a 3f 3c f8 fa 3d 78 6b a1 be 43 73 22 3e
       0.667226 0.12254378 -0.31527305 0.15864281
000030 23 dc 91 bd 5c 51 b6 3e 0a d1 6f 3d 50 04 61 3e
       -0.07122066 0.35608947 0.058548965 0.21974301
000040 f5 69 cd 3f bd 52 fc bd d1 95 1a bd 1d dd 85 3c
       1.604796 -0.123204686 -0.037740532 0.016340787
000050 b4 ab a7 3d 51 68 09 3f 10 14 7a be af ec 27 3f
       0.08187047 0.536748 -0.24421716 0.65595526
000060 eb 53 43 3f 8a 3c 91 be 25 2a 56 be 68 df 4f 3e
       0.76299924 -0.283665 -0.20914514 0.20300066
000070 0f 46 2c 3f 6a db 09 3f e1 80 b6 be 87 dd 54 3f
       0.672944 0.53850424 -0.35645202 0.83150524
000080 0f 6d 2f be f6 b5 24 3f 07 15 b7 3f 6d 7d 8c bf
       -0.17131446 0.6434015 1.4303292 -1.0975777
000090 a7 52 31 bf cc 73 fe 3e 89 4e 08 be 0b 1f 46 bf
       -0.6926674 0.4969772 -0.13311209 -0.7739112
0000a0 8e eb 17 be 2a 0d 3c bf cd 78 38 bf 93 6f ff be
       -0.1483595 -0.73457587 -0.7205933 -0.49889812
0000b0 31 93 a1 bf f7 f2 38 be 3e e7 f4 bd a3 d3 02 bf
       -1.2623044 -0.18061434 -0.119581684 -0.5110418
0000c0 f1 0e ab 3f 02 24 23 bf 5b 36 39 bf b3 7c b6 be
       1.3363935 -0.6372682 -0.72348565 -0.35642013
0000d0 9b 3d 22 3e 7b 82 99 3d 65 2d 7d bf f6 31 c7 3c
       0.15843813 0.0749559 -0.9889739 0.024315815
0000e0 74 dc 19 3f dd 0e 37 bf 58 df 1c bf 8f cb e7 bd
       0.6010201 -0.71507055 -0.61278296 -0.113181226
0000f0 89 a4 5b 3e 60 03 24 be eb 9b f7 be f8 ef 1b 3f
       0.21449484 -0.16016912 -0.48361143 0.6091304
000100 87 38 a4 3f de a2 8b bd 67 69 bb 3e ce fb ab be
       1.2829751 -0.06818174 0.36603853 -0.3359055
000110 5c 34 10 bf 53 06 79 3d 1f 66 09 3f 6e 41 3c bf
       -0.56329894 0.060797047 0.5367145 -0.7353734
000120 9d ba 79 bd 25 79 65 be ed 50 5b bf 89 e0 00 bf
       -0.060968984 -0.22409494 -0.8567036 -0.50342613
000130 0b 29 4b 3f 69 07 3d bf fa 22 26 3f 52 fc 0b bf
       0.793595 -0.7383943 0.6489712 -0.54681885
000140 78 17 7c 3f eb 6b c1 3d 4c e3 56 bf 9b c6 1d bf
       0.9847331 0.09444412 -0.8394058 -0.6163117
000150 51 67 0d 3f 9f a3 65 be 7d 73 1d be 3c 26 ae 3e
       0.55235773 -0.22425698 -0.15376087 0.34013546
000160 30 27 f9 3e a3 e8 1a bf 04 f7 38 bf 41 7f 39 bf
       0.4866271 -0.60511225 -0.72251916 -0.724598
000170 fe ea 3f 3e 84 57 09 3f a2 28 56 bf c9 74 bd 3c
       0.18741986 0.53649163 -0.8365575 0.023126977
000180 2f 50 99 3f 46 40 2b 3f ab cd be 3e b6 c9 07 be
       1.1977595 0.6689495 0.37266287 -0.1326054
000190 a8 e2 b0 be 8f 0e 53 3f 0b a2 1e 3f cb 82 cd be
       -0.34547925 0.8244409 0.6196601 -0.4013885
0001a0 56 97 cd 3e de 30 cd 3d 6b 08 ef be 76 e8 8c be
       0.40154523 0.10019086 -0.4668611 -0.27521104
0001b0 80 c0 89 3f 60 12 61 be 0f db 43 3f 1d 03 a1 be
       1.0761871 -0.21979666 0.7650613 -0.31447688
0001c0 49 8f 72 3f 6e 7d 28 3e 3c 26 f1 be 61 53 b1 be
       0.94749886 0.16454098 -0.47099483 -0.34633926
0001d0 56 4f 2f 3f 03 f0 10 bf 8b 97 39 3d 0a 5b 3f 3e
       0.6848043 -0.5661623 0.04531054 0.18687072
0001e0 fd 7e 77 3f 46 a7 fe be f8 30 e4 be bf cc 27 bf
       0.96678144 -0.49736995 -0.4456861 -0.6554679
0001f0 a3 55 61 3f 60 15 11 3f 20 1f 72 be c3 b9 07 be
       0.88021296 0.5667324 -0.23644686 -0.13254456
000200 86 ca b7 3e c8 0b d1 bf fe 95 67 bf 42 74 5f bf
       0.358967 -1.633172 -0.90463245 -0.8728677
000210 a0 4a 67 be 38 e7 63 bf 08 85 6c bf a7 79 12 3f
       -0.22587061 -0.89024687 -0.9239049 0.57216877
000220 d8 bc 45 bf fb 6a a4 bf 44 92 7e be 5b 5d fa 3e
       -0.7724128 -1.2845148 -0.24860483 0.4889935
000230 27 c4 8a bf ea a0 b5 be 1f 67 8a bf 22 1a 16 bf
       -1.0841111 -0.3547433 -1.081272 -0.58633626
000240 92 e4 51 bf 75 8c ef 3d 5a ad 24 be ac a7 d2 be
       -0.81989396 0.11696712 -0.16081753 -0.41143548
000250 aa 58 b4 bf 14 f1 f1 3e 41 36 7d 3d 4d ce 59 be
       -1.4089558 0.4725424 0.06181932 -0.21270104
000260 72 f7 89 bf 8b b1 fb bd 56 64 82 be da 3e 00 bf
       -1.0778639 -0.12289723 -0.25467175 -0.50095904
000270 44 0f a1 bf 4f 43 25 be 30 65 0b be 44 f6 d8 bc
       -1.2582784 -0.16138957 -0.13612819 -0.026484616
000280 cd ab 14 bf e4 a9 33 bf c1 9a c9 bf 86 c1 ab 3f
       -0.5807465 -0.7018111 -1.5750352 1.3418434
000290 8a a3 92 3e 0b 7d 9c bf 00 d8 7f 3e 1e 94 04 3f
       0.28640395 -1.222566 0.24984741 0.5178851
0002a0 66 bc f4 be 82 60 dc 3e 6b a1 23 3f 43 2b 5b 3e
       -0.47799987 0.4304238 0.6391818 0.21403222
0002b0 7c 06 eb 3e 6a b3 c5 be 65 ce 54 3d 60 f8 8f be
       0.45903385 -0.38613445 0.051954646 -0.28119183
0002c0 99 de 84 bf b9 20 90 3e 92 ae 68 3e 85 46 d2 bd
       -1.0380431 0.28149965 0.22722843 -0.10267357
0002d0 7a e0 82 3e ee 5d a4 be 45 bb 24 3f ba 3f 20 be
       0.25561887 -0.32102913 0.6434825 -0.1564931
0002e0 54 b1 9c bf 83 c3 0c 3f 13 34 ce 3e 0e 36 9a 3b
       -1.2241616 0.5498583 0.40274104 0.004706151
0002f0 47 98 0a bf d3 bc 3b bf c0 3a b9 3e b6 9c 74 bf
       -0.54138607 -0.73335 0.36177635 -0.9555162
000300 88 6d 5f be 1e 3a 6d bf 25 fb 5f bf 2e 27 d9 bd
       -0.21819127 -0.92666805 -0.8749259 -0.10603176
000310 c0 43 31 3e 07 e6 13 bf 60 a8 f2 be 7a 5b 5a 3f
       0.17311001 -0.5777287 -0.47394085 0.8529583
000320 90 15 c7 be d2 4d 24 bf 9e 04 2c 3e f0 c0 25 3f
       -0.38883638 -0.64181244 0.16798636 0.64747524
000330 70 db fd be e9 e8 ab be 89 70 29 bf 56 f9 a4 be
       -0.4958148 -0.33576134 -0.6618734 -0.32221478
000340 59 11 c7 bf 18 66 e5 3e 8d 06 69 3d 72 36 23 be
       -1.5552169 0.44804454 0.056891013 -0.15938738
000350 8a 2e 91 bf ed aa 17 3d 99 a3 fa 3d 3e 4c e8 be
       -1.1342328 0.037028242 0.12238235 -0.45370668
000360 ac 3a 76 bf ef 53 e0 bd f8 73 c5 3d a2 ce 76 be
       -0.96183276 -0.10953509 0.0964126 -0.24102262
000370 8c 76 79 bf 94 4a c8 3c b9 58 73 3e 3e ff 9a 3d
       -0.97446513 0.024449624 0.23764314 0.07568215
000380 b8 83 26 bf b9 8d 91 be 48 9c bc be 4b 93 ed 3e
       -0.65044737 -0.28428438 -0.36837983 0.46401438
000390 9e e6 34 3f bf 75 86 be 9f 81 37 be 2a 1d 6f 3f
       0.70664394 -0.26261708 -0.1792054 0.93403876
0003a0 68 aa 54 3d 23 b2 1f 3d eb 1e 56 3f 42 af 38 3f
       0.051920325 0.038988244 0.8364093 0.7214242
0003b0 ba 5e 81 bf 09 e0 20 3f 9f 8e 05 bf bc e5 28 3f
       -1.0107033 0.6284185 -0.5217075 0.65975547
0003c0 24 2a b1 bf 4c 5a c4 3e a0 36 7d 3f 55 22 4b 3f
       -1.3840985 0.3835014 0.98911476 0.7934926
0003d0 86 9b 1d bf c5 dc 28 3f 42 29 09 3f 7c 81 1d be
       -0.61565435 0.6596187 0.5357858 -0.15381426
0003e0 17 0c 65 bf 58 0c 52 3f 32 a0 25 3f 8b 32 2b 3f
       -0.8947157 0.82050085 0.64697564 0.66874
0003f0 e5 06 6e bf 7e 57 32 be 39 b9 19 3f 1e 7e 90 3e
       -0.9297927 -0.17416188 0.6004825 0.2822122

neighbor_encoder_2.bias f4 [16]
000000 27 01 c4 3d c9 34 17 bf 48 e4 8f bf d9 b0 82 bf
       0.09570532 -0.5906492 -1.1241541 -1.021022
000010 4c e9 3d bf 60 60 18 be 69 fe 00 be d1 9f a2 3f
       -0.7418411 -0.14880514 -0.1259705 1.2705022
000020 54 d4 0b 3f 7f cf 22 bf 52 38 4e 3f 73 c2 a2 bf
       0.5462086 -0.63597864 0.8055469 -1.2715591
000030 37 18 a2 3f bf 72 11 3e fc ba 75 bf 56 19 9f 3c
       1.266364 0.14203928 -0.9598844 0.01942126

linear1.weight f4 [64, 34]
000000 1a 35 68 3f 3b 6b ac 3f 00 e0 29 bf 26 47 91 3e
       0.90706027 1.3470224 -0.6635742 0.28374594
000010 9e 48 24 3f 32 12 5c 3f 51 50 31 3e 53 43 2c 3f
       0.64173305 0.85965264 0.17315795 0.6729023
000020 f5 c3 ca be d8 b7 ff 3e 95 1f 6a 3f ff 0d ae 3e
       -0.39602628 0.4994495 0.9145444 0.33995053
000030 33 dd 4b bf 3f a6 ce be 3b 49 50 3f f6 da 73 3f
       -0.796344 -0.4036121 0.8136174 0.9525598
000040 67 1d 8e 3f 5a 22 50 3f 11 8c a6 be a1 96 73 3d
       1.1102723 0.81302416 -0.32528737 0.059469823
000050 d0 9c 3b bf a6 dd 9b bf e2 9f 04 bf 74 e0 63 be
       -0.7328615 -1.2177017 -0.5180646 -0.22253591
000060 90 90 0e bf 76 c5 03 bf 04 cc 5c be bf 78 a2 be
       -0.55689335 -0.51473176 -0.21562201 -0.31732747
000070 8f c2 48 bd 74 5c 6b 3e 3e 69 a1 3d bc 41 17 bf
       -0.04901367 0.22984487 0.078814015 -0.5908468
000080 4e 7b 5a 3e 2b e3 bb bc 9f e9 40 3e b6 04 67 3f
       0.213361 -0.02293547 0.1883912 0.90241563
000090 e3 0d 78 be f6 91 b3 3e 8c 50 d7 be 11 98 8b 3f
       -0.24224047 0.35072297 -0.4205364 1.0905782
0000a0 11 83 77 3e 60 2e 7d 3e af d8 bf be ae 3b d3 bc
       0.24171092 0.24724722 -0.37470004 -0.025785293
0000b0 a8 d6 94 3e 2e 9a 0c bf 76 32 1f bf 19 1e 3e bd
       0.2907002 -0.5492276 -0.6218637 -0.046415422
0000c0 5b b7 98 3e a7 da 53 3f 06 6a 3b 3f 40 5b 0f bb
       0.2982739 0.8275551 0.73208654 -0.0021874458
0000d0 65 35 f7 3d af 32 b2 bc 7f a9 18 3d 19 da 51 bf
       0.12070731 -0.021752683 0.03727102 -0.81973416
0000e0 4b fb 31 be d3 8f 2c be c1 5c a4 be 9f a0 d3 3e
       -0.17381017 -0.1685174 -0.32102016 0.41333482
0000f0 f9 51 63 3e 2e 36 b2 3e 4a e6 dd be e4 e1 24 3f
       0.22199239 0.3480696 -0.4333976 0.6440718
000100 d0 0f 01 3e cc 9a d5 be 30 99 ec 3d d7 0f df 3d
       0.12603688 -0.41719663 0.11552656 0.10891693
000110 d2 c7 37 3e 59 4f 54 3f bb 5f 55 3f 44 81 9c bb
       0.17947319 0.82933575 0.833492 -0.004776152
000120 69 e8 c3 3d 76 35 63 3f 47 56 0c bf e2 fc 6f be
       0.09565813 0.8875345 -0.5481915 -0.23436311
000130 32 57 9e be af 39 c1 be 18 40 a8 be 81 d8 81 3e
       -0.309259 -0.37739322 -0.328614 0.25360492
000140 9c 3c e2 3d 90 3b 2a bc c8 d5 81 be db fe 94 3e
       0.110467166 -0.010390177 -0.25358415 0.2910069
000150 09 d9 29 3f 3f c0 be be c1 00 30 3e ce f0 81 bd
       0.66346794 -0.37256047 0.17187788 -0.06344758
000160 9e 04 28 be 6f 52 35 bf a7 49 e9 be c6 3d 5f 3d
       -0.16408011 -0.7082891 -0.45564005 0.05450227
000170 3d 85 20 bf fa 41 84 3e 78 c4 90 3d 4c df 95 3e
       -0.62703305 0.25831586 0.070687234 0.29271924
000180 34 08 af be ee 49 a3 3f 1e ca 0f 3e 53 05 fa be
       -0.34185946 1.2756937 0.14041945 -0.48832187
000190 1f 79 f9 be f4 81 11 be c1 ad 2e 3f d5 7d 94 3f
       -0.4872522 -0.1420973 0.6823388 1.1600901
0001a0 80 e9 02 bd d6 b8 91 3f 80 a3 64 3f 10 c2 9c 3f
       -0.031960964 1.1384532 0.8931198 1.2246723
0001b0 01 42 d2 be 7b 97 74 3f 10 f5 8c bf 52 a7 cd bd
       -0.41065982 0.9554364 -1.1012287 -0.100416794
0001c0 f9 68 a5 3f 29 b4 c2 3e 2b d6 83 bf 83 ef 28 bf
       1.292266 0.38028076 -1.0299734 -0.65990466
0001d0 55 68 70 3f 26 89 99 3f 4a cd 17 3f b3 32 72 3f
       0.939092 1.1994979 0.5929762 0.9460861
0001e0 a8 56 25 3e d0 3a 0d 3e d8 7b 72 3c c5 18 42 bf
       0.16146338 0.13791966 0.014800034 -0.75819045
0001f0 57 13 de 3d 8c 8a f8 bd 29 eb 7f be 84 9b ea be
       0.108435325 -0.12135801 -0.2499205 -0.45821774
000200 30 40 a4 bd 40 1c 53 3e b5 ad 63 be 40 6e ed be
       -0.08020055 0.20616245 -0.22234233 -0.46373177
000210 15 54 a3 3e 8d 78 b3 be c6 1c c8 be 04 55 11 3f
       0.31900087 -0.3505291 -0.39084452 0.5677035
000220 b3 6b 29 bf fe c4 b7 be 59 d8 84 3f 05 6e 1b bf
       -0.6617996 -0.3589248 1.0378524 -0.6071475
000230 97 ca 23 be 47 52 7e be ff b1 09 ba b8 56 0e bf
       -0.1599525 -0.24836074 -0.0005252659 -0.5560107
000240 4a 56 be 3e 3f 66 a9 be 34 77 03 bf a5 fb 64 3e
       0.37175208 -0.3308582 -0.51353765 0.2236162
000250 75 44 96 3e d2 6e dc bd 4f 05 e8 be 0d 2f ac bd
       0.29349104 -0.10763325 -0.4531655 -0.08407412
000260 d2 f9 2c 3d 1b 3f 8c be 59 f5 7d 3d aa ad 98 be
       0.042230435 -0.27391896 0.06200156 -0.29819995
000270 89 5a 3a 3f 9d 55 e0 3e 5f 23 51 3f 29 71 04 bd
       0.72794396 0.43815318 0.81694597 -0.03233448
000280 43 0b 34 3e d8 bc ea 3d 9c 42 8b 3e ec ca 40 bd
       0.17582421 0.114618 0.27199256 -0.04706852
000290 c1 b0 1b 3e 8e 27 51 3e 5c 8f 03 3d 66 77 fe 3e
       0.15204145 0.20425245 0.03211914 0.4970047
0002a0 c8 ba d8 bc bb 20 6c be c7 54 24 be 0d d3 e1 3e
       -0.026456252 -0.2305936 -0.16047965 0.4410633
0002b0 e1 61 c4 3e d9 3a 5b be 65 1e af bb 7d 5d 9e 3e
       0.38355926 -0.21409167 -0.0053441995 0.309307
0002c0 7f b3 e2 be ca 10 2d bd 64 1e 70 3e 9a 3d c8 be
       -0.4427757 -0.04225234 0.23449093 -0.39109498
0002d0 2f eb 3f 3e ce 4b 47 3d 83 6c 0b bd 84 70 09 be
       0.18742059 0.048656277 -0.03403903 -0.13421828
0002e0 b5 6b 46 bd 57 a0 d7 bb 4d 12 77 be b1 ed 1e bf
       -0.04844256 -0.0065803933 -0.24128075 -0.6208144
0002f0 50 f4 e0 3d 76 78 8a bd 8e a0 2d 3f c6 d2 9d 3e
       0.10984099 -0.06761257 0.6782311 0.3082487
000300 f0 26 16 3f 79 02 d9 3c f2 27 b6 3e c3 e9 08 3f
       0.58653164 0.026490437 0.3557735 0.5348169
000310 ec 5c 38 3e 21 fc 06 be 14 3d cf 3d ef b6 50 3f
       0.18004197 -0.13182117 0.101190716 0.81529135
000320 e6 3f 1e be 96 0c b6 3d 92 3c fd bd d7 00 95 3d
       -0.15454063 0.08889119 -0.123650685 0.07275551
000330 75 95 c3 3e a3 db 88 3e 6b 11 84 3e a4 81 7c bd
       0.38199964 0.2673007 0.2579454 -0.061647072
000340 8d 5c b7 3e 28 b5 4e bd 9f 0b a0 be 32 90 23 3e
       0.35812798 -0.050465733 -0.31258866 0.15972975
000350 35 db 08 be aa e1 97 be cb 38 d3 be 86 66 26 be
       -0.13364871 -0.29664356 -0.41254267 -0.16250047
000360 57 46 15 3d 30 aa cb 3d 56 8e 80 bd aa 45 04 be
       0.036444034 0.0994457 -0.062771484 -0.129172
000370 e6 2b 2d 3f e5 6b 14 3f d4 27 ca bd 78 09 ad 3d
       0.6764511 0.57977134 -0.09870878 0.08449072
000380 42 da 9c be 78 f0 46 bf c1 5e 35 bf 3c 86 48 bc
       -0.30635267 -0.77710676 -0.7084771 -0.012239035
000390 7f fe e7 be d1 49 f8 be 67 74 f8 bd 96 6d 06 bf
       -0.45311353 -0.48493817 -0.12131577 -0.52510965
0003a0 5a fc ff 3d d4 03 2a 3f 25 ba 22 3e 4c 1d f9 be
       0.12499304 0.6641209 0.15891321 -0.48655164
0003b0 db da f4 be c8 02 7d bc e9 a8 93 bf 3b 30 aa 3a
       -0.47823223 -0.015442558 -1.1535922 0.0012984345
0003c0 f4 e4 49 bd 3b 4e 01 3e 50 5c a9 be ea 33 04 be
       -0.049290612 0.12627499 -0.3307824 -0.12910429
0003d0 6f 91 a0 bc 2b 12 57 bd e8 99 bc 3e 83 6f 36 3e
       -0.019600598 -0.05250756 0.3683617 0.17815976
0003e0 f5 96 d8 be 60 3e b4 be 72 b2 38 3f 20 3d 41 3f
       -0.4230267 -0.35203838 0.72147286 0.75483894
0003f0 a9 28 90 be fb 3a 42 bf 6f 77 60 be 4b 17 fa 3e
       -0.2815602 -0.7587125 -0.2192056 0.48845896

linear1.bias f4 [64]
000000 c2 68 51 3d 15 c2 8d be 6c a5 6c bd 4f d3 ac be
       0.051125295 -0.27687135 -0.057774946 -0.33754966
000010 e8 e1 d2 3e ea 79 1c be 6a b2 d4 3e 17 d3 58 3f
       0.41187978 -0.15280882 0.4154237 0.846971
000020 79 4f 35 be 51 a9 77 be 6b 81 a5 3e d4 16 61 3e
       -0.17706098 -0.24185683 0.323253 0.21981364
000030 69 ff 2a bf cc 9d 10 bf bc e8 ae 3e fc 57 4b 3d
       -0.66795975 -0.5649078 0.34161937 0.049644455
000040 33 ca 9e be 85 28 19 3d aa 58 58 bf af 05 b4 3d
       -0.3101364 0.037392158 -0.8451029 0.087901466
000050 5c f7 43 bc 15 fb a4 3e 3c 79 4b be de d1 ec be
       -0.011960831 0.3222281 -0.19870466 -0.46253866
000060 7f 1e cc bd da 00 70 3e 3b 70 08 be 08 90 4a bf
       -0.09966754 0.23437825 -0.13324063 -0.79126024
000070 34 54 00 bf 42 f4 05 3f 3c 83 27 be 2f d4 d9 3e
       -0.50128484 0.5232583 -0.16358656 0.42544696
000080 6f 26 d1 3f fc 2a c1 3e 86 3e 8d be 0e 94 44 3f
       1.6339854 0.37728107 -0.27586764 0.76788414
000090 9b 9d 2c be 66 b7 95 3e 92 05 22 bf 3c 5d b4 bd
       -0.16856997 0.29241484 -0.6328975 -0.088068455
0000a0 92 76 b1 be 32 ba f9 3e 4d c3 36 3f 51 ba bf be
       -0.34660774 0.48774868 0.71391755 -0.37446836
0000b0 0d 50 23 3d 39 db 1d 3e a0 6e 85 bf 81 f9 7e 3d
       0.039871264 0.15415658 -1.0424385 0.062249664
0000c0 b5 83 5a 3e 05 a7 94 3e 1c cf 95 be c7 a1 3e 3e
       0.21339305 0.29033676 -0.29259574 0.186164
0000d0 a4 dd 59 bf b0 8b 7a bf a5 91 7d 3e a7 1e 42 be
       -0.8510382 -0.97869396 0.2476259 -0.18957005
0000e0 fe 79 27 be ef 9f 70 3e 68 32 7a 3f 0f ad 09 bf
       -0.1635513 0.2349851 0.97733164 -0.5377969
0000f0 86 24 0f 3f ba e5 07 3f cd 67 0e c0 32 a1 2d 3e
       0.55915105 0.5308491 -2.2250855 0.16956022

linear2.weight f4 [16, 64]
000000 09 91 80 be 28 fb 8d be e7 d1 95 bd 86 c2 1f be
       -0.25110653 -0.2773068 -0.07315426 -0.15601549
000010 d2 77 2a 3e 59 5f 35 3e 1c e2 ae be 6a 37 d3 3d
       0.1664727 0.17712153 -0.34156883 0.10313304
000020 51 e4 96 3b e4 8b d8 be bc 85 41 be a2 ee c1 3c
       0.004604854 -0.42294228 -0.18898672 0.02367336
000030 87 1b d2 be 33 1e aa bd 3a 07 91 bd b1 5c f0 3d
       -0.41036627 -0.08306541 -0.070814565 0.117364295
000040 6d d1 34 bf 41 63 d8 be dc 49 32 bf 5b aa fa 3d
       -0.7063206 -0.42263225 -0.6964395 0.12239524
000050 d2 0a 8b be ad 58 e5 3d f0 ab 8d be 9b e3 ab bd
       -0.27156693 0.11198554 -0.2767024 -0.08393022
000060 22 1c 3f be ea 2a f0 be dd b9 4c 3d b9 64 41 be
       -0.18663076 -0.4690774 0.04998194 -0.18886079
000070 eb a9 fd 3d c3 3a 25 be bc 63 97 be 06 87 49 ba
       0.12385925 -0.16135697 -0.2956828 -0.00076876616
000080 62 4f 02 bd 4a 2f 90 bd 5d 2d 6d bd ef 4d de 3c
       -0.031813987 -0.0704027 -0.05790459 0.027136771
000090 a9 d7 cb 3e 7a cf 52 3e 7e d5 9a bf 7a 6e a3 be
       0.39812973 0.20586959 -1.2096403 -0.31920224
0000a0 a7 6e 48 bf 03 b9 cd 3d 50 1d d3 3d b0 c9 e2 be
       -0.7829384 0.10045054 0.10308325 -0.442945
0000b0 02 e8 f9 bd 24 d5 26 3d a1 5c 80 be 1d 1b d3 be
       -0.12202455 0.04073061 -0.2507067 -0.41231623
0000c0 e0 11 c3 3d 80 ef 7e be eb f1 22 bf f8 4b 8d be
       0.09524894 -0.2489605 -0.6365039 -0.27597022
0000d0 ee d7 a3 be 0d 4a 0f bf 92 23 db 3d 00 fa 60 3e
       -0.3200068 -0.5597237 0.10700144 0.21970367
0000e0 2f ea c7 bd f5 c8 d0 3d 7c 3b 8f be 4b c8 0a bf
       -0.09761464 0.101945795 -0.2797507 -0.5421187
0000f0 8d 4c a8 be 8f ae a2 3c e2 65 b6 be c3 cc ac 3e
       -0.32870904 0.019858627 -0.35624605 0.3374997
000100 a1 40 cd be 77 41 bc be 36 41 29 be 8c 85 59 be
       -0.4008837 -0.36768696 -0.16528782 -0.2124235
000110 2c 6d c9 3e 1d e0 85 3e 54 22 b7 be 3a 11 af 3e
       0.39341104 0.26147547 -0.35768378 0.3419283
000120 69 2e d2 3d 8b 5c 8a be 38 62 e9 3d f9 37 9e 3e
       0.10262758 -0.2702373 0.11395687 0.3090208
000130 3e cc 41 bf cc c8 0d be 4c 86 9e 3e 94 db a1 3e
       -0.75702274 -0.13846129 0.30961835 0.31612837
000140 e4 16 01 bf ac 6b b7 bc 6d 07 56 bf 82 10 11 3e
       -0.50425553 -0.02239021 -0.8360508 0.14166453
000150 c4 db 7b be 65 36 52 3e 2b f8 95 be 9f f3 17 3e
       -0.24595553 0.20528562 -0.292909 0.14839028
000160 18 23 c3 be 78 08 0d bf 4f aa b5 3d dd 95 fd be
       -0.38112712 -0.5509105 0.088703744 -0.495284
000170 89 1d 3b bf 95 77 46 bd ec 35 b6 be 5f 9b 8b 3e
       -0.7309194 -0.048453886 -0.35588014 0.27266976
000180 ec b7 a8 3d ca bf 96 3e eb 01 1c be 99 22 5f 3e
       0.08238205 0.29443198 -0.15235107 0.21790542
000190 6b 90 0a 3f e4 f6 74 be 96 de 98 bf 19 7f 30 bf
       0.54126614 -0.23922306 -1.1942928 -0.68943936
0001a0 2d 06 9b be 67 fb ab 3e 8e 60 ee 3e 1d 7a ab be
       -0.3027815 0.33590242 0.4655804 -0.33491603
0001b0 da 12 2c be 61 1b 4f 3e ad d0 40 be 81 c8 5b 3e
       -0.16804066 0.20225288 -0.18829603 0.21463205
0001c0 7c ef b0 3e 62 37 91 3d 28 48 8b be b0 12 ca be
       0.34557712 0.070906416 -0.27203488 -0.39467382
0001d0 31 39 f3 bd ca 9e e9 be 61 0e c4 3e 90 5e 9a 3e
       -0.11876143 -0.4562896 0.3829222 0.3015027
0001e0 f6 ae 35 be 2a 07 4c bf 5c d3 8e 3d 0c 95 da be
       -0.17742524 -0.7969843 0.06973907 -0.4269184
0001f0 9b d8 96 be 91 3c 6c 3e 8a ad af be 1f 86 1f 3f
       -0.29462132 0.23069979 -0.34312087 0.6231403
000200 c9 3b 0f be d2 81 82 be e0 dd 81 bd 2a ab a1 be
       -0.1398765 -0.2548967 -0.063411474 -0.315759
000210 60 47 e0 bc 20 07 71 be 99 da 1f 3e 34 dd 62 3e
       -0.027377784 -0.23537874 0.15610732 0.22154695
000220 3e f3 b0 3d 38 a0 aa be 22 59 b4 bd 56 c1 1e be
       0.08640145 -0.33325362 -0.08806063 -0.1550344
000230 2e 9d 85 3e cc 2a ee bd 51 28 85 3d ec af 8b bd
       0.2609648 -0.116292566 0.0650183 -0.06820664
000240 15 dc 5f be 2d 28 5b bd a8 12 76 be ff 90 0e be
       -0.21861298 -0.05350511 -0.24030554 -0.13922499
000250 56 c3 40 3c 8f b4 32 be a6 57 a4 bd 21 78 d6 3e
       0.011765322 -0.1745169 -0.0802453 0.41888526
000260 ec e3 48 3d 9e 12 16 be 86 8a c6 3e b9 39 91 be
       0.04904549 -0.1465554 0.3877756 -0.2836435
000270 bd 4e b8 3d 39 50 49 be 69 16 74 3d 8b 17 3e be
       0.08999393 -0.19659509 0.059591684 -0.18563668
000280 1e 0a ce be e7 ef 18 3a 00 38 0d be 9f 6f 34 3e
       -0.40242094 0.0005834088 -0.13790894 0.17620705
000290 a6 fd fb bd 0e 6b 88 bd 76 70 ab bd 3b 6e 02 bf
       -0.12304239 -0.06661044 -0.083710596 -0.5094945
0002a0 29 d5 8e bd 2f fb f2 3b 5c 71 7c be 7b 88 1f bd
       -0.06974251 0.0074151973 -0.24652618 -0.038948517
0002b0 5c aa 1a be 6c e9 4b be 00 29 3e bd 91 b3 06 3d
       -0.1510405 -0.19913262 -0.04642582 0.03288609
0002c0 bc 94 38 3c f3 1e a1 be fe b0 6e bc 9e 71 b5 be
       0.01126593 -0.31468925 -0.014568565 -0.35438246
0002d0 5d 94 e8 3b c7 17 96 3d 5a 3d 2a be bb 93 35 bd
       0.0070977644 0.07328754 -0.16624966 -0.04433034
0002e0 91 ec 2e be 61 d0 8a bd df d6 3b be be c8 4d 3d
       -0.1708243 -0.06778026 -0.18343686 0.05024027
0002f0 61 4c 5e be 13 6a a1 3d ca db 3a be ca cb 72 bd
       -0.21708824 0.0788156 -0.18247905 -0.05927638
000300 58 15 66 be 0a 15 1c 3d 78 eb e6 3e 88 46 fb bc
       -0.2246908 0.038106002 0.45101523 -0.03067328
000310 9f a6 88 bd 60 cd 63 bd 66 07 67 3e fe 53 b4 be
       -0.066724055 -0.055615783 0.22561416 -0.3522033
000320 c1 95 47 3d 05 0f c8 3d f6 8f 95 3d 99 f7 c7 bc
       0.0487268 0.0976849 0.07302849 -0.024410056
000330 16 76 9a be 7c ef 46 be cc 7f 25 be 83 a3 0d be
       -0.30168217 -0.19427294 -0.16162032 -0.13831906
000340 e4 5a f9 bc 0f 41 d8 be 30 aa 95 bd 6c 6c 89 be
       -0.030438848 -0.42237136 -0.07307851 -0.26840532
000350 82 52 2c 3c 6c 07 58 bd 32 98 05 be e8 7a 90 bb
       0.010517718 -0.052741453 -0.13046339 -0.004409183
000360 40 37 b0 bd 17 3f 5e bd 3c 4f 51 3e f9 b0 93 bd
       -0.08604288 -0.054259386 0.20440382 -0.07211489
000370 51 55 c9 3e c1 e1 98 3d 15 a2 f8 be 8e 03 ce 3c
       0.39322904 0.07464934 -0.4856116 0.02514818
000380 97 92 0d be 19 76 19 be d7 73 db 3d ee 04 59 be
       -0.13825451 -0.14986457 0.10715454 -0.21193287
000390 75 38 b3 bd db 89 a0 bd d7 3b 11 be 42 42 95 3e
       -0.08751003 -0.07838794 -0.14182983 0.29152113
0003a0 02 db 8b bd 7e 98 d7 be e6 04 82 bd 45 6c 03 3e
       -0.06828882 -0.4210853 -0.063485906 0.1283427
0003b0 dd 2c 48 be 61 64 e1 bc ae 49 22 be 82 9c 47 bd
       -0.19548364 -0.027513685 -0.15848419 -0.04873324
0003c0 1b 2d 58 bd fe 80 13 be c0 ea 6b be 7f f8 e8 3c
       -0.05277739 -0.14404675 -0.23038769 0.028438805
0003d0 7d 1c 55 3d 3d 52 ec be ca 60 28 3e db a7 10 be
       0.05202912 -0.46156493 0.16443172 -0.14126532
0003e0 46 60 98 3e fb 96 03 bf 8e c9 00 be d9 59 3f bd
       0.2976095 -0.5140225 -0.12576887 -0.046716545
0003f0 14 1c 61 be 36 44 93 be 69 79 21 be 86 3e cd be
       -0.21983367 -0.28762978 -0.1576897 -0.40086764

linear2.bias f4 [16]
000000 7d f7 a2 3e 77 98 30 3f 7a a2 28 bd 42 6f 94 be
       0.31829444 0.6898264 -0.041170575 -0.28991133
000010 f7 80 a2 bd 1c ae c7 3f 98 42 8f 3e e0 7c bb 3b
       -0.07934754 1.5600009 0.27980494 0.0057216734
000020 98 1f 02 3f 7d 6f 0a 3f 4c b8 4b bf a9 48 4e 3f
       0.5082946 0.5407637 -0.7957809 0.8057962
000030 4a 4f 74 3f c7 29 19 3f 98 07 d0 be 37 80 e9 be
       0.95433486 0.5982937 -0.40630794 -0.45605633

linear3.weight f4 [1, 16]
000000 43 d6 7a 3b e8 3e aa 3e 1d 56 a7 be 09 2b 1f be
       0.0038274683 0.3325112 -0.32682887 -0.1554376
000010 b2 d6 0a bf a1 9e 53 3e eb 91 47 bf 7c 53 78 be
       -0.5423385 0.20665981 -0.7795703 -0.24250597
000020 f5 dc 43 3f b8 65 8a 3e 1b 75 28 be 96 fb b6 3e
       0.7650903 0.2703073 -0.16450922 0.3573882
000030 02 5d c1 3e 94 40 3c 3f 5d 67 c6 bf 5d 9c bc 3d
       0.37766272 0.7353604 -1.5500294 0.092095114
