gym_pybullet_drones/examples/models/critic_gnn_32drones_1.pkl (torch, 24488 bytes, 13 tensors)

self_encoder_1.weight f4 [32, 8]
00000000: 830b 97be 5498 4a3f d763 053e 7f0e c13e
00000010: 4c1b 4abf 1b6c cbbc e5d7 723e 83e0 8f3f
00000020: 1baa 03bf e1f0 913f da37 91bd e484 293f
00000030: f323 e7be 1d19 d83d 8bb6 ddbe c964 323e
00000040: 46c0 edbd 4a36 253f f9ee 6abe 9c32 6dbf
00000050: 9cd3 0abe 11b6 693f ab56 9cbc 247b 04bd
00000060: 2127 48bf 51e8 e43e ba42 23bf 2e52 9d3e
00000070: ae7a 4ebf 879c ad3e 513b bf38 dfbc 0ebe
00000080: 9e5d e53e 278f a43d dfbb 30be 071c 853e
00000090: 5eb1 b93e 3866 91be 9e32 bebe b58e 3cbe
000000a0: 768c 86bf 7ff5 4cbf d9c1 6abe 08d5 b13e
000000b0: a9cb 3f3f afc6 3bbe a107 c0be d9d3 97be
000000c0: d2e3 f83f af0b fdbe 3398 233f ed7d 433f
000000d0: 4df0 d13e ae68 18bf 9b49 873e 48c6 bebe
000000e0: ee0c 813f 4513 01bf 348f c0bd 2d1c 5ebd
000000f0: 5f70 723f 7382 b4be 2726 8dbd bad1 25be
00000100: 8fa0 34bf f225 e03d b357 9abf 162a 773e
00000110: 2d62 02bf 84c4 fdbe c414 e33e a138 213e
00000120: b6d6 c83e 7140 493f 1240 823f c207 9e3f
00000130: 469e a6bf 6872 b03e d048 d9bc 9eef 103f
00000140: f1b9 7a3e 20d5 edbe 0ca4 26bf 9c5e 99be
00000150: 4735 183f 5eef 43bf 1109 353f e965 333f
00000160: be8f 0b3e 0d64 a13e 94f4 66bf 7775 183e
00000170: bf74 6c3e c96e 523f fe71 9d3f df46 96be
00000180: 73c2 5fbf 20a9 743e 4aec 16bf fac9 d5be
00000190: 749a 8b3f f45e 033c e226 ecbe 7ce8 76be
000001a0: 29be f63e 2246 77be 11d4 bcbe 3e28 8f3e
000001b0: ac45 c63e eb13 8dbe 11eb fbbd 3f60 57bf
000001c0: f3a3 6abf 6518 ac3f 6b58 a83e a6c4 82be
000001d0: 9133 65be c38d f3bc 0653 a8bf 28f2 1fbf
000001e0: f821 17bf 0862 97be add2 b83e aaa7 bcbe
000001f0: 3f42 803f dfd0 f9be 0d72 07be 3be1 fbbe
00000200: 971b 1ebf 70fd c33e 9faa 753e 2f0f 9c3e
00000210: ce06 813d 56fd ddbf 82a0 503d a4b7 5fbf
00000220: da21 a93e 0e47 473f 7d2b ccbe 091d cdbe
00000230: 0390 31bf c41a f2be 7485 843e bce5 173f
00000240: cb5d 01bf 36df 9a3e aec1 bb3d 4a19 2d3f
00000250: dde9 fc3d 5ead d8be 4ba2 94bf 9e14 163f
00000260: 0644 9fbe 5dd9 d33e aebd efbe 0716 0bbf
00000270: c97f 51bc e257 a1be d9eb 23be 0257 a9be
00000280: 4d69 98bf cce3 63be 3f40 8abe 093e edbe
00000290: 669d 20bf 52ab 1ebd 4c36 2ebe 73e9 babe
000002a0: b04c 36bf f034 963f d186 513e a0a5 0a3e
000002b0: 212d dd3e f71f 403f 7b0f c4bf aae7 033f
000002c0: a8b0 263f 70a0 d43e b838 16bf 2b3e cfbc
000002d0: f729 e73e 03d1 483f d8f8 10bf b42f e93e
000002e0: 5d36 193f 84ba 89be 0b2d 2dbd 7da6 83be
000002f0: d34a 6d3c bc81 963f d61d f5bc cf01 823f
00000300: 33a5 24bf 2050 a2bf 8ebe a7bc 3279 c9be
00000310: 1997 c6be 2894 ea3e 2867 e43e 5038 b23d
00000320: 7658 3ebf fcf4 893f 9e2d 333e b427 2abe
00000330: 9329 56be 72c4 1bbf 676e db3e 5137 a23d
00000340: c235 b0bf 6e82 f03e 360b f33d 16bc 36bd
00000350: 7aeb eabe c878 46bd 5ff6 4fbf 1a37 2fbe
00000360: 1c0f 84bf 5a53 803f 9927 093e 07fd 02bf
00000370: 1d40 cf3d fe5a 8dbe 6631 6f3d 96b0 19bf
00000380: fc6b bbbf bb74 0cbe 63e6 02bf 5e30 8f3e
00000390: b719 cb3c 4c58 673e ccfa 87bd 1461 873f
000003a0: bad3 15bf 1a6c a83f 3c2e fdbe bfef 0a3e
000003b0: 8afb 45be 79ac ddbe 5415 c33e 618b a9bc
000003c0: 16c7 e7bc d18c a13e a195 1cbf 5616 57be
000003d0: 5bcb 9c3b 8825 9f3e 8469 abbd 0a32 8f3f
000003e0: 925e 80bd b49b 60be a42e 94be b391 093f
000003f0: 47fd 5abe 3d1c 6c3d 80a4 0a3e 2c5e 623f
-0.2950097 0.79138684 0.13026367 0.37706372 -0.789479 -0.024831822 0.2371517 1.124039
-0.51431435 1.1401635 -0.07090731 0.662184 -0.45144615 0.10551665 -0.43303332 0.17421259
-0.11608939 0.64535964 -0.22942723 -0.9265535 -0.13557285 0.91293436 -0.019084295 -0.032344
-0.78184706 0.44708493 -0.6377369 0.3072676 -0.80655944 0.33908483 9.118638e-05 -0.13939236
0.44797987 0.08035117 -0.17259167 0.25997946 0.36268133 -0.283983 -0.37147993 -0.18413813
-1.0511615 -0.800621 -0.2292551 0.34732842 0.74920136 -0.1833751 -0.3750582 -0.29653814
1.9444525 -0.49422976 0.6390411 0.7636402 0.41003647 -0.5953473 0.26423344 -0.37260652
1.0082071 -0.5042003 -0.09402314 -0.05422609 0.94702715 -0.35255775 -0.068920426 -0.16193286
-0.7055749 0.109447375 -1.2058014 0.24137148 -0.50931054 -0.49563992 0.4435178 0.15744258
0.3922631 0.78613955 1.0175803 1.2346117 -1.3017051 0.34462285 -0.026523978 0.56615627
0.24484994 -0.46451664 -0.65094066 -0.29954994 0.59456295 -0.7653712 0.7071696 0.7007738
0.13629052 0.31521645 -0.90216947 0.1488856 0.2309141 0.82200295 1.2300413 -0.29350945
-0.8740608 0.23892641 -0.589543 -0.41755658 1.090651 0.008018244 -0.46123415 -0.24112123
0.48191956 -0.24147847 -0.36880544 0.2796039 0.3872503 -0.2755426 -0.12300695 -0.84131235
-0.91656417 1.3444945 0.32879958 -0.25540656 -0.22382952 -0.029730683 -1.3150337 -0.62478876
-0.5903621 -0.2956698 0.36098233 -0.36846668 1.0020217 -0.48792168 -0.132271 -0.49195275
-0.6176085 0.38279295 0.23990868 0.30480334 0.06300126 -1.7342937 0.050934322 -0.8738959
0.3303364 0.77842796 -0.3987693 -0.40061215 -0.6936037 -0.47286046 0.25883067 0.5933492
-0.5053374 0.3024842 0.09167801 0.67616713 0.123492934 -0.4231977 -1.1612028 0.5862521
-0.31106585 0.41376773 -0.46824402 -0.54330486 -0.012786814 -0.31512362 -0.16007937 -0.33074194
-1.1907135 -0.22254866 -0.2700214 -0.46336392 -0.6274017 -0.038737603 -0.170129 -0.36506233
-0.71210766 1.1734905 0.20461585 0.13539743 0.43198493 0.75048774 -1.5317224 0.51525366
0.65113306 0.41528654 -0.58680296 -0.025298199 0.45149204 0.78443927 -0.56629705 0.45544207
0.59848577 -0.26900113 -0.042279284 -0.25712958 0.0144831715 1.1758342 -0.029921453 1.0156802
-0.64314574 -1.2680702 -0.020476606 -0.39350277 -0.38787153 0.4581616 0.44609952 0.08702147
-0.7435373 1.0777888 0.1749787 -0.16616708 -0.20914297 -0.60846627 0.42857668 0.07920707
-1.3766406 0.4697451 0.11867373 -0.044612966 -0.4588278 -0.04845503 -0.8123531 -0.17110863
-1.0317111 1.0025437 0.13394012 -0.5116734 0.101196505 -0.27608484 0.05839672 -0.60035074
-1.4642329 -0.13716404 -0.5113279 0.2796659 0.024792535 0.22592276 -0.066396326 1.0576501
-0.58526194 1.315799 -0.49449337 0.13568018 -0.19334236 -0.4329565 0.3810221 -0.020696344
-0.028293174 0.31552747 -0.61165816 -0.21004614 0.004784984 0.31083322 -0.08369735 1.1187146
-0.06268038 -0.21934396 -0.28941834 0.53737944 -0.2138568 0.057644118 0.13539314 0.88424945

self_encoder_1.bias f4 [32]
00000000: 177f b53e 8190 b43e c3cf 07bf b28d 993f
00000010: 6c7d 0b3e 1c40 d9be 6aa3 a33e 2ea0 2c3e
00000020: 0906 39bf eb05 c8bf 8975 483f 800c 073f
00000030: 6906 d8be 963f 9f3e 64d4 6c3f 24b3 a8be
00000040: 2b8f 413f 1365 70bd 6afd c3be 2c91 e7be
00000050: e454 333f e0ad c93d 03d3 87bf 18a5 2bbe
00000060: 93a5 e13d 2906 9ebe 68ba 613f da35 b53e
00000070: 3ef9 4a3c 9f2f 1a3e 7822 a83e 1fb9 a6bf
0.35448524 0.35266498 -0.53051394 1.1996367 0.13622063 -0.42431724 0.31960613 0.16857979
-0.72274834 -1.5626806 0.78304344 0.5275345 -0.4219239 0.311032 0.9251158 -0.32949173
0.7560908 -0.058690142 -0.38279277 -0.45227945 0.7005141 0.09847617 -1.0611271 -0.16762197
0.11017909 -0.30864075 0.8817506 0.35392648 0.0123885255 0.15057229 0.32838798 -1.3025244

self_encoder_2.weight f4 [16, 32]
00000000: 11c5 3a3d f313 9e3f 3550 48bf acdc 0c3f
00000010: 0864 8f3d 5b21 45bf 5d05 933f 5e84 003f
00000020: 4fe5 7fbe cb5e 86bf 774f 433f e607 913f
00000030: 7db0 8b3e 3a4a 67bd 4d8d ae3c 770f 233f
00000040: d8bf af3f dd4e 1c3f 0ea7 a7bb 8f9c a6be
00000050: 2e22 3d3f 3802 a13f 59fb e93e da39 f53f
00000060: 5927 ef3e 0aa9 12bf be59 8e3e 9fe6 1ebe
00000070: 330b b23f 6e08 28bf eeb5 ca3e a7ef 283e
00000080: eb8e 8ebe df94 e33e edaa 0ebf 5faf c5be
00000090: 096b 053e 525f 63be 0313 f33e 4f3f df3f
000000a0: 14f5 193f a1e5 23be 1708 8d3b 9bf9 bd3e
000000b0: e728 fc3e eb53 10be 01c0 463d f218 da3e
000000c0: e0f9 9f3f 5153 823e 0122 43bf cbf9 05bf
000000d0: 6e69 003f e74a 363f c848 513f 1602 8c3f
000000e0: 670b be3e bb83 81bf cc62 cbbe d893 05bf
000000f0: ba88 5f3e 8c80 9bbe 27e0 0bbd 2513 643b
00000100: 6a6b 4fbe 9331 0d3f 3b5f 48be 4e0a c03e
00000110: 4217 c1be fdd3 1abf 4cda 5ebc e272 58bf
00000120: 2474 c43e 066f 423e a9a9 ae3e 4fc2 32be
00000130: e5a7 c7be f53e dd3d 239c 533e b7af 67bf
00000140: d9ce 27be 40d5 46bf 4d4a 28bf 0a94 8c3e
00000150: c3e5 2f3f a8f6 9dbf 34c3 cf3e eabd 8ebf
00000160: ea68 fcbe 8af3 babe 6610 00bf a624 193f
00000170: 8f6d 2ebf 43f8 b2be 0d8e 9f3d 7cce 70b8
00000180: fa09 d5be 5e7b 893f ea6b 033e 43a1 993f
00000190: 6a17 2fbf b6b2 d3be 59c7 0d3f fdc2 0ebe
000001a0: aba3 51bf d90d 08be 2b87 793e 31c2 3d3e
000001b0: c327 19bd c940 e7bd d4a3 963f f664 b8be
000001c0: 04fc 4dbe aa3a 25bf 8407 9ebe d44d 46be
000001d0: 2417 993f 8a1a 8b3f 1aa4 22bf b7ae c53e
000001e0: 8083 503d 09e9 03bf bff3 cf3f 4ff5 3c3f
000001f0: ba84 663f 105e 823d a047 883f 38f7 ab3e
00000200: d07c f7bd e92e 573f c6fd c0bf 2c81 4e3f
00000210: ec92 25bf e7fb 54bf a2b2 333f 915d a9be
00000220: 12c6 d0bf 5884 84bf b677 d63e f936 cc3f
00000230: 5d9d ccbe ff5e 21bf c6f1 84be b256 5cbe
00000240: b02f 013f 8bdb aa3e b7b3 3abf b730 50bf
00000250: 868a 3b3f 5056 f43e b842 01bf 9b5c 733f
00000260: 2728 393f a8f8 6ebf e865 2f3e cd45 003c
00000270: 9373 1a3e 938a 60bf 4128 b9bd 190e e6be
00000280: 4ac3 75bf c4c7 9e3f 1a14 e1bd f84b 513d
00000290: a31a ebbe a021 97be e085 a63f cbba 943f
000002a0: 971f 95be a131 bf3e 50fa 553e d49f d9bd
000002b0: dd32 4f3d 48c1 a5be d1b1 af3f c9c1 bebc
000002c0: 7aea 383f 3af1 0bbf 0742 57bf 43ab f4be
000002d0: a462 0c3f 929e 283f 1014 25bf f107 a83e
000002e0: c3eb 12bf 8bf8 83bf 3f57 e43e 5e08 9c3e
000002f0: 9023 c43e fcda 69bf fb91 453f 1473 bb3e
00000300: db1c 183f 8426 13bf 2d70 283f 46ee 55bf
00000310: 1226 373f da32 a23e a7ee cdbe efa8 6c3e
00000320: 2e2e 713f ce46 663f ca78 73bf c3a1 b2bf
00000330: b7cb f23e 0fa9 c43e 2f40 8e3e e68d 2e3e
00000340: 166f acbd b575 933f b471 0e3f a7a4 31be
00000350: fda2 93bf a058 f13e 8cca 173f e15a c03c
00000360: 1509 42bf 3ddb 613f 930a 213e 3283 37bf
00000370: 5e24 323f fa4f 463f 7fce 75bf 68fb 77be
00000380: 0538 68bf ae4c 153f 1dac 04be 9efd 8c3f
00000390: c88a 313d 3e16 37bf feed 263f 4feb fcbe
000003a0: 20dc 70bf 9c68 e9be becb e33e 3e77 12bc
000003b0: 8e63 303e 39d2 8d3d 96ed aa3f 505a f63d
000003c0: 3e9b c73e fca5 babe e6ed 8dbe 17c3 16be
000003d0: 1910 753e 9789 6a3f 1bbc 9dbe 5f22 5b3f
000003e0: 18a9 a9be 3921 91bf 2014 c83f b8bb 2b3f
000003f0: 8864 783f 0699 67bf 3fd9 283f 92d8 9f3e
0.045598093 1.2349838 -0.78247386 0.5502422 0.07001501 -0.7700402 1.1486012 0.50201976
-0.24989818 -1.0497679 0.7629313 1.1330535 0.27283087 -0.056467272 0.021307612 0.6369547
1.3730421 0.61057836 -0.00511635 -0.3254132 0.7388028 1.2578802 0.45699576 1.915828
0.46709707 -0.57289183 0.27802843 -0.15517662 1.3909668 -0.6563786 0.39591926 0.1649767
-0.27843413 0.44449517 -0.5572956 -0.3861036 0.13029112 -0.2220433 0.47475442 1.7441195
0.60139585 -0.16005565 0.004303943 0.37104496 0.49249956 -0.14094512 0.048522953 0.42597157
1.2498131 0.2545419 -0.7622376 -0.5233428 0.5016087 0.7120804 0.8175168 1.0938137
0.37118074 -1.0118326 -0.39723814 -0.52178717 0.21829501 -0.3037151 -0.034149315 0.003480145
-0.20255819 0.5515377 -0.19567578 0.37507862 -0.37713057 -0.6047972 -0.013601851 -0.845503
0.38369858 0.18987665 0.34113815 -0.17456935 -0.3899528 0.10803024 0.2066503 -0.90502495
-0.163875 -0.77669144 -0.65738374 0.27456695 0.68709964 -1.2340899 0.40578616 -1.1151707
-0.49298793 -0.3651393 -0.5002502 0.59821546 -0.68135923 -0.34955034 0.07790766 -5.7412763e-05
-0.41609174 1.0740774 0.12834135 1.2002338 -0.683951 -0.41347283 0.55382305 -0.1394157
-0.8189036 -0.13286532 0.24367969 0.1853111 -0.037391435 -0.11291654 1.1768746 -0.36014527
-0.20115668 -0.6454264 -0.3086511 -0.19365627 1.1960187 1.0867474 -0.6353165 0.3860986
0.05090666 -0.5152746 1.624626 0.7381181 0.90046275 0.06365597 1.0646858 0.3358705
-0.12084353 0.84055954 -1.5077446 0.8066585 -0.6467731 -0.8319687 0.7019445 -0.33079198
-1.6310446 -1.0352888 0.41888207 1.5954276 -0.3996381 -0.6303558 -0.25965708 -0.21517447
0.5046339 0.33370623 -0.72930473 -0.8132433 0.73258245 0.477221 -0.5049243 0.9506318
0.7232689 -0.9334817 0.17128718 0.007829142 0.1508315 -0.8771145 -0.09040881 -0.4493263
-0.9600111 1.2404714 -0.10990162 0.05109784 -0.4591876 -0.2951784 1.3009605 1.1619505
-0.29125664 0.3734255 0.20896268 -0.10626188 0.050585616 -0.32374024 1.372614 -0.023285763
0.7223278 -0.5466496 -0.84085125 -0.47786912 0.54838014 0.6586696 -0.6448374 0.3281856
-0.57390994 -1.0310224 0.44597813 0.30475134 0.38308382 -0.9134977 0.77175874 0.36611235
0.5941903 -0.57480645 0.65796167 -0.835667 0.71542466 0.31679422 -0.4022114 0.23111318
0.9421109 0.8995179 -0.95106184 -1.3955616 0.47421047 0.3841023 0.27783343 0.17046317
-0.084196255 1.1520296 0.5564225 -0.17347966 -1.1534115 0.47137928 0.59293437 0.023480834
-0.7579511 0.88225156 0.1572669 -0.71684563 0.6958674 0.77465785 -0.96018213 -0.24216998
-0.9071048 0.5832013 -0.12956281 1.1014898 0.043345243 -0.71518314 0.652069 -0.49398276
-0.94085884 -0.45587623 0.4449138 -0.008939562 0.17225477 0.069248624 1.3353755 0.120289445
0.38985628 -0.3645476 -0.27720565 -0.14722858 0.23931922 0.91616195 -0.30807576 0.8559932
-0.3313682 -1.1338264 1.5631142 0.6708331 0.970284 -0.9046787 0.6595649 0.31219918

self_encoder_2.bias f4 [16]
00000000: 7dc8 d1be 9810 8dbf 7e14 9d3f d1dd 803e
00000010: 669f cf3e 8090 86be 700a 8bbf a787 02bd
00000020: fb57 e13e 4e3b 44bf ed9c a1be 1f5b 3ebf
00000030: 4147 e73e 8734 3fbf 767b 0bbf e774 00bf
-0.40973273 -1.1020689 1.2271879 0.25169232 0.405513 -0.2628212 -1.086256 -0.03186765
0.44012436 -0.7665299 -0.31565037 -0.7435779 0.4517155 -0.74689525 -0.5448526 -0.5017838

neighbor_encoder_1.weight f4 [32, 4]
00000000: f8b5 5a3f 2e6d 053f 266e 1bbf efd0 eebe
00000010: 536a 63bf a3a4 a1bc 1682 e93d 45ef 7abe
00000020: d37c e63f 98aa 463e 83cb 873e d15b 6b3c
00000030: 2411 c3be e366 15bf 9104 1d3e 89f7 143f
00000040: 0338 803d 7fe7 aa3c 1937 e0be ed60 8d3d
00000050: 2cbe 0b3e f7e3 7e3f d959 bf3e 9a34 cf3e
00000060: 4fa3 41bf d82e 11bf 0a9c cb3e 1b14 01bf
00000070: 7c65 973e 46fe 9bbe b77f 56be 4109 72bd
00000080: f165 143f 3323 b0be aa74 6f3d d804 25be
00000090: 48fd efbd 2944 953d 8463 e1bd 4596 75be
000000a0: 8daa b93d f708 d93a d62e 4a3e 1e2b 72bd
000000b0: 53dc 893e 6756 c13d 2426 8fbe 0e01 f1bd
000000c0: c86d 643f b941 32bf 35d0 fcbc 97b8 adbe
000000d0: 1db1 083e 7d93 ef3b 98e3 8b3d ae50 bebe
000000e0: 83c7 11bf a61c eebe 8ed0 873e ee4d a9be
000000f0: b36f 9bbe 9444 65bd 9163 d53e 1e1a c2be
00000100: 7051 9a3f 56fa 5abf 36ac 283e e932 9c3e
00000110: 14bb d93e e957 ea3b 3aa0 0c3f d2c8 36be
00000120: c7cf 3d3e a876 2d3e c429 b9be 6d52 d7be
00000130: b54f aabd 4345 1c3d 354f 82be 59dd e23c
00000140: 0f24 1bbf 5a8f a8be be7e d23d b473 41bf
00000150: b5f2 e93d 7240 db3e 2cd4 01bf 471d abbc
00000160: 7af1 8abd dc1c 80be f804 823d 8e1e 40be
00000170: 01b5 d03e b610 0bbf 400e 363f c910 983e
00000180: d08d 6ebf b508 883f 2886 393d 0f0a 0fbd
00000190: f149 6d3e 9d0e ad3e 5c58 dd3d 9fd0 e6bc
000001a0: 79b1 923d b971 fb3d 0bcd dd3b 01c5 983e
000001b0: 5792 dbbd 1c4b e4bd 1aa1 4fbe 2899 0c3f
000001c0: 3490 0bbe 53c4 8cbf 2ac0 963e 2aae 18bf
000001d0: c6f5 bd3e 7a52 5f3f 4732 6b3d 619c 853e
000001e0: b551 4e3d 04cf e93d 0c38 82be 9bc7 ad3d
000001f0: 4bb2 c83e fe40 803e 26cb d2bd 6f36 683f
0.8543391 0.5211972 -0.6071495 -0.4664378 -0.8883411 -0.019731825 0.11401765 -0.24505337
1.8006843 0.19401014 0.26522455 0.014365152 -0.38099015 -0.5836012 0.15333773 0.5819021
0.062606834 0.020862339 -0.43792036 0.06903253 0.13646764 0.99566597 0.37373236 0.4046982
-0.75639814 -0.567121 0.39767486 -0.50421304 0.29569614 -0.30467433 -0.20947157 -0.059090856
0.5796805 -0.34401855 0.05846087 -0.16115129 -0.117182314 0.07288391 -0.11005309 -0.23983105
0.09065733 0.0016558458 0.19744429 -0.05912315 0.26925907 0.09440308 -0.27958786 -0.11767779
0.8923001 -0.69631535 -0.030861 -0.33929893 0.13348813 0.007311283 0.068305194 -0.3717093
-0.56945056 -0.46506232 0.26526302 -0.33067268 -0.30358657 -0.055973604 0.41677526 -0.3791055
1.2056103 -0.8553823 0.16471943 0.3050759 0.42525542 0.007151593 0.54931986 -0.17850044
0.18536292 0.16939795 -0.36164677 -0.42055073 -0.08315984 0.03815199 -0.25451055 0.027693437
-0.60601896 -0.3292187 0.102780804 -0.75567174 0.11423246 0.42822605 -0.50714374 -0.020887984
-0.06784339 -0.25022018 0.06348604 -0.18761656 0.40763095 -0.54322374 0.71115494 0.29700306
-0.9318514 1.0627657 0.045293957 -0.034921702 0.23172738 0.33800212 0.10807869 -0.02817565
0.071627565 0.1227755 0.006768828 0.29837802 -0.107212715 -0.111471385 -0.20276299 0.549212
-0.13629228 -1.0997413 0.29443485 -0.59640753 0.37101573 0.87235224 0.057420995 0.2609587
0.05037089 0.11416438 -0.25433385 0.08485337 0.39198527 0.25049585 -0.10292654 0.9070806

neighbor_encoder_1.bias f4 [32]
00000000: eff4 fcbd 6021 41be 3dbd b63d 2888 f7be
00000010: 4b67 d93f 2ddb 3c3f ddb0 66bf 4a2d 533f
00000020: e924 8d3e 2cad a3bf e2cb a33f e5d8 883f
00000030: 6489 fabe 9787 c33f 7c2c 9dbf f4a7 a13f
00000040: ba12 71be 3433 893e b623 e43f 228b dc3f
00000050: f3d3 c0be e426 c13f e64d 573f 2a23 003e
00000060: c123 eb3d 3ef1 c63f a635 ba3f 45ba ca3f
00000070: 2055 31bf 631a 383f a252 be3f c5d0 fa3e
-0.12351405 -0.18860388 0.08922813 -0.48346066 1.6984648 0.73771936 -0.9011362 0.8249098
0.27567223 -1.2787223 1.2796595 1.0691191 -0.48932946 1.5275754 -1.22792 1.262938
-0.235423 0.26796877 1.7823398 1.722996 -0.37661704 1.5089993 0.8410324 0.12513414
0.11481429 1.5542371 1.4547622 1.5838095 -0.69270515 0.7191526 1.4868968 0.48987404

neighbor_encoder_2.weight f4 [16, 32]
00000000: 2e42 1c3f 8458 113f aaea d43f 96c8 8cbf
00000010: ddfa 22be b549 893f 81ae cebd 9843 12be
00000020: 3251 2d3f 6362 4d3e e4af 6abe 65e4 5a3e
00000030: 18d7 8ebd 1ad2 d23e c5e8 e43d c33e 973e
00000040: 47dd cd3f d800 ebbd 9337 553d bfc7 f43d
00000050: 95e8 0d3e 8d7e 243f 21b4 53be 27bd 273f
00000060: 1f49 5c3f df3d 44be 8f3e babd 6976 953e
00000070: 25c5 2f3f d620 1c3f d2fa 6dbe cb83 5f3f
00000080: 9a0d e2bd 417a 443f a126 bb3f 8fb5 7abf
00000090: 8b3e 0bbf 4983 153f 7226 85bc 5c91 33bf
000000a0: b6a9 bcbd dc75 1bbf 1f2d 1ebf 6151 dabe
000000b0: 69b4 9abf 3f01 c9bd 79dd 15ba fc95 ccbe
000000c0: 3fda b13f 0ceb 19bf 067e 1fbf ba0a 6fbe
000000d0: 7629 8d3e 4158 3f3e 3649 5fbf 3096 b63d
000000e0: 9b77 363f 67bb 1dbf 9b11 fcbe 5746 dc3a
000000f0: 1c17 ae3e 751a a9bd 2599 b4be 64c0 2a3f
00000100: 77d9 a83f fffa 08bd c387 cd3e 45c9 9ebe
00000110: f4a0 19bf e15d c23d 0b71 103f 889f 3bbf
00000120: cae9 72bd 15ee 5abe 7e77 64bf 78c3 f7be
00000130: 1707 4b3f 5389 43bf d817 2f3f f3c0 08bf
00000140: d4d2 7c3f 2b60 e33d cbc4 58bf 930e 22bf
00000150: 8951 153f 3bb1 56be fd6f 1abe db3d b13e
00000160: 8764 003f 2227 15bf c694 3bbf d46c 3ebf
00000170: 6a3b 4c3e 9be3 153f a5ea 5cbf 551a a93d
00000180: fa96 9c3f 5054 3f3f 25a1 c63e 40e0 ffbd
00000190: 551b b6be 22a6 5d3f 778c 243f 0248 d8be
000001a0: fbb7 c43e 440a 623e 170e 00bf eb1e 93be
000001b0: abaf 873f cb16 8cbe d1b6 4a3f b2d7 8dbe
000001c0: 86f7 6e3f 85b3 103e 9247 f7be 35ad a6be
000001d0: ff85 363f 52b0 0bbf 85fc e33c eff5 2f3e
000001e0: d577 863f 050b f7be 6d99 debe bd9a 27bf
000001f0: 58f7 5e3f 08b0 193f 0bef 68be 896d d2bd
00000200: 0334 a63e c382 d3bf a762 6abf ba31 5ebf
00000210: a7c5 a9be 15e3 6fbf 0143 6ebf 7fee 0f3f
00000220: f197 48bf 8e06 a9bf aeee a9be 2329 e43e
00000230: 7185 8abf 6d13 d5be c8da 89bf 3b0a 1fbf
00000240: 8fef 51bf dee0 d03d 6f1c 73be 7b90 fabe
00000250: 53b8 b4bf 38c7 cc3e 1057 513d 67d4 50be
00000260: a8d1 90bf 237a 3abe c65b b3be 2b1a 10bf
00000270: 31aa 9fbf 14cb 3ebe 89ce 77be b706 2fbd
00000280: cf4b 21bf fa54 4cbf 7a8d cbbf 37ad a23f
00000290: d50b 1c3e 3119 a7bf d9d6 233e a178 f53e
000002a0: 61ba 01bf aa6b ad3e 3907 0b3f 28fb 1c3e
000002b0: 459c de3e b443 eabe 0be2 12bd dc08 c0be
000002c0: 4700 88bf 7355 873e c006 043e 27fa 5fbe
000002d0: c0ec 2d3e bef9 dbbe 3783 123f f6f3 3bbe
000002e0: 877b aabf d8a7 e93e 04f9 8f3e cf7d d1bd
000002f0: 1590 19bf 510f 4dbf d3e1 6b3e a4df 7dbf
00000300: b8fb 79be 2ccd 74bf f7c7 60bf 7e8d f2bd
00000310: 0a3b 613d 2b27 1fbf 9d35 fcbe 2c96 543f
00000320: f729 cebe 3d02 2ebf 4560 a73d 6d71 1b3f
00000330: 83c8 ffbe e7e1 cbbe 2462 2bbf 1d3a bcbe
00000340: 87af c7bf c859 e03e eb33 9cbc fad0 7bbe
00000350: c809 93bf c747 11bd 4e86 b83d dbee e9be
00000360: 3d3e 82bf bc40 2bbe 61a7 3938 6a8f a3be
00000370: 93d8 7bbf 7efb 0a3b 75c3 033e 7e8c 883d
00000380: 92f9 29bf 1bac b1be 6f2d c1be 0d61 dd3e
00000390: 0cb5 373f 4b19 90be 2a60 5fbe bfd5 713f
000003a0: 0cf9 8b3d bc8e 7d3b cee3 613f a42e 3d3f
000003b0: 68f3 7fbf 1235 2e3f eaaf 10bf 5212 1f3f
000003c0: 11bd afbf 0217 d03e c17c 823f eb82 463f
000003d0: ad4e 28bf 139a 283f a526 063f e805 1abe
000003e0: 60de 6fbf 5b60 523f 08c6 283f 77f2 293f
000003f0: 779d 74bf c958 48be 31b3 1d3f 53cd 873e
0.6103848 0.5677569 1.6634114 -1.0998714 -0.15916009 1.0725619 -0.10091878 -0.14283597
0.6770202 0.20057063 -0.2291866 0.21376188 -0.069746196 0.4117592 0.1117721 0.2954007
1.6083153 -0.1147477 0.052054953 0.11952161 0.13858254 0.642556 -0.20674182 0.65523
0.86049074 -0.19164227 -0.09093963 0.29191902 0.68660194 0.60987604 -0.23240212 0.87310475
-0.110377505 0.76749045 1.4621164 -0.97933286 -0.5439231 0.5840345 -0.016253684 -0.70143676
-0.09212057 -0.60726714 -0.617876 -0.42640212 -1.2086307 -0.09814691 -0.0005716901 -0.3995818
1.3894728 -0.6012428 -0.6230167 -0.23343936 0.27570695 0.1868601 -0.87221086 0.08915365
0.71276253 -0.6161408 -0.49232182 0.0016805631 0.34002006 -0.082569994 -0.3527309 0.66699815
1.3191365 -0.033442494 0.4014264 -0.3101293 -0.6001122 0.09490562 0.5642249 -0.732903
-0.05930499 -0.21379884 -0.8924483 -0.48391318 0.79307693 -0.76381415 0.6839576 -0.5341942
0.987592 0.11102327 -0.8467528 -0.6330349 0.5832754 -0.20966046 -0.15081783 0.34617504
0.5015339 -0.58262837 -0.73273885 -0.7438481 0.1994454 0.58550423 -0.8629554 0.082569756
1.2233574 0.74738026 0.3879482 -0.12493944 -0.35567728 0.86581624 0.6427683 -0.42242438
0.38421616 0.22074229 -0.500215 -0.28734526 1.0600485 -0.2736114 0.79185206 -0.27703625
0.9334644 0.14130981 -0.4829679 -0.3255402 0.7129821 -0.5456592 0.027830372 0.1718366
1.050532 -0.48250595 -0.4347643 -0.65470487 0.87096167 0.6003423 -0.22747438 -0.102747984
0.32461557 -1.652428 -0.9155678 -0.86794627 -0.3315861 -0.93705875 -0.9307099 0.5622329
-0.78356844 -1.3205125 -0.3318991 0.44562635 -1.0821973 -0.41616383 -1.0769892 -0.62124985
-0.8200616 0.1019914 -0.23741315 -0.48938355 -1.4118751 0.39995742 0.05110842 -0.20393525
-1.1313982 -0.18210654 -0.35030955 -0.5628993 -1.2473813 -0.18632156 -0.2419988 -0.042731013
-0.630063 -0.79817164 -1.590255 1.2709111 0.15238889 -1.3054563 0.15999927 0.47943595
-0.50675017 0.33871204 0.54307896 0.15330184 0.434786 -0.45754778 -0.035860103 -0.3750676
-1.0625085 0.2643238 0.128932 -0.2187277 0.16984844 -0.42963976 0.5723147 -0.18354782
-1.3318948 0.45635867 0.2811967 -0.10229074 -0.59985477 -0.80101496 0.23035364 -0.99169374
-0.2441243 -0.9562557 -0.8780512 -0.11843394 0.054987945 -0.6216914 -0.49259654 0.83041644
-0.40266392 -0.67972165 0.08172659 0.6071995 -0.49957666 -0.39820787 -0.66946626 -0.36763087
-1.5600442 0.43818498 -0.019067725 -0.24591437 -1.148736 -0.035468843 0.090099916 -0.45690045
-1.0175244 -0.16723913 4.426332e-05 -0.31945354 -0.9837734 0.002120703 0.1286753 0.06667422
-0.6639644 -0.3470162 -0.37729976 0.43238106 0.7176063 -0.28144297 -0.21814027 0.94466776
0.06834611 0.0038689813 0.8823823 0.7389929 -0.99980783 0.6804973 -0.56518424 0.6213733
-1.3729573 0.40642554 1.0194322 0.77543515 -0.6574505 0.658601 0.52402717 -0.15041316
-0.9369869 0.82178277 0.6592717 0.66385597 -0.9555277 -0.19565119 0.6160155 0.26523837

neighbor_encoder_2.bias f4 [16]
00000000: b704 553e 094c ebbe f3c6 95bf 6c02 86bf
00000010: 9711 58bf 942e 8ebe e60a 76be 9c97 a53f
00000020: e742 d23e d343 3abf 0018 343f a54a abbf
00000030: 726b a83f 756f 1b3e cfe0 7abf 8dbf 9fbd
0.2080258 -0.45956448 -1.170134 -1.0469489 -0.8440184 -0.2776991 -0.24027595 1.2936893
0.41066667 -0.7275974 0.7034912 -1.3382155 1.315779 0.15179236 -0.9799928 -0.07800207

linear1.weight f4 [64, 34]
00000000: 69ed 503f cdf2 9e3f 525f 13bf fa52 7f3e
00000010: bf0f 173f aacc 573f ce1a 313e 3fb7 233f
00000020: cc27 e5be a59c b53e 8d30 623f 5b86 9d3e
00000030: 416b 41bf 9a69 a5be 4286 473f 8e3f 6e3f
00000040: 345a 8f3f affb 4b3f 8771 adbe c612 3d3d
00000050: 0b3e 43bf 8b45 9cbf abf9 08bf 9e53 60be
00000060: d079 08bf c858 16bf 6e19 55be 333a a5be
00000070: 5822 19bd 8834 813e 5953 663d 747d 19bf
00000080: f961 5d3e 67d3 41bc 145b 913e cb9b 813f
00000090: 3920 abbe 0fee c63e 5f63 babe 1606 8e3f
000000a0: 1b98 783e ff52 913e 8a7a a5be 76f0 fc3d
000000b0: a190 a63e bab8 03bf b362 2abf 9d0b 07be
000000c0: 46f6 ab3e 5b39 5a3f 7fce 393f 2abf 823c
000000d0: 168b 083e 9226 ebbb 81c7 833d 78a8 51bf
000000e0: 4835 24be 36a2 2cbe c1e1 b1be d97f fb3e
000000f0: 22d5 5d3e 639a b33e 3e71 e2be 8c1c 203f
00000100: 0adf 173e d4d5 d2be 0c53 ea3d a163 cc3d
00000110: 6b50 b33d 3ade 393f 43ed 6a3f 7b2a 33bd
00000120: c760 333d 61fd 5c3f 9357 0dbf a97d 8cbe
00000130: 11a4 b1be 9ca3 04bf 9f78 babe cf90 5c3e
00000140: c1b1 1d3e 3781 973d c6a8 95be 039c 873e
00000150: da63 2b3f f25e c8be 8c43 263e 1986 9abd
00000160: bd55 3fbe 2bbc 35bf 2ae9 eebe 210f 3a3d
00000170: cc67 1bbf a493 383e 8d6b 8c3d c2d5 953e
00000180: b356 abbe ba64 a53f 5e0f f23d 05d6 fcbe
00000190: 2539 f9be baed 09be c023 183f 4d16 873f
000001a0: d76c 5d3d a0f5 8d3f 00e9 573f 72fd 9a3f
000001b0: 4f48 d2be 0e7c 6d3f 38d2 93bf 13e9 78be
000001c0: 7023 a23f 3514 b33e 5a6a 7ebf 4363 15bf
000001d0: 30fb 683f 7424 973f c2e2 1a3f f0bf 6e3f
000001e0: 6556 183e 4045 003e 18bc 95bc 2c22 43bf
000001f0: d93f b23d 8cc3 efbd 7c49 6abe 7e6a 06bf
00000200: 04e7 93bd 75f3 4c3e d6c4 57be 9b1b e0be
00000210: e3e3 983e 1a40 b9be 5747 c6be ea3f 143f
00000220: b36b 29bf fec4 b7be 59d8 843f 056e 1bbf
00000230: 97ca 23be 4752 7ebe ffb1 09ba b856 0ebf
00000240: 4a56 be3e 3f66 a9be 3477 03bf a5fb 643e
00000250: 7544 963e d26e dcbd 4f05 e8be 0d2f acbd
00000260: d2f9 2c3d 1b3f 8cbe 59f5 7d3d aaad 98be
00000270: 895a 3a3f 9d55 e03e 5f23 513f 2971 04bd
00000280: 430b 343e d8bc ea3d 9c42 8b3e ecca 40bd
00000290: c1b0 1b3e 8e27 513e 5c8f 033d 6677 fe3e
000002a0: c8ba d8bc bb20 6cbe 48ab 2cbe 3cb4 e13e
000002b0: 0c58 c93e bc27 89be 41c7 87bc d7a3 913e
000002c0: 61db debe 335d bbbd 2e78 933e f71e cebe
000002d0: 9875 233e 3451 eb3c 0cf8 013b 8eea f2bd
000002e0: cbc2 a7bd ad0b d0bc cb60 8dbe 8bb6 20bf
000002f0: f848 e13d 3e3b 9cbd 6e6e 363f 4e71 a93e
00000300: e2af 1e3f a695 143d 58fa b43e b647 0a3f
00000310: b055 3a3e 549d 0dbe 0649 e53d dd33 473f
00000320: d42e 26be b618 fc3d f8fa 06be 7436 b53d
00000330: 8dd5 923e 8dca 243e 69e0 b13e 8e47 d5bd
00000340: 1956 9b3e fd65 9abd 292a a1be 3ab0 ec3d
00000350: 98b1 36be 7994 e2be 04e5 e7be 0c24 4bbe
00000360: ccba b03d 263f 3f3e e1ce d7bd ba78 22be
00000370: 47b4 2e3f 25fe 0d3f dfdd d9bd d42a 913d
00000380: 0159 a5be 8460 47bf dfd9 36bf e9f2 98bc
00000390: b7ce dabe cdb2 13bf a02e f1bd 0a6b 05bf
000003a0: 0911 053e 491f 2e3f d3ae 063e a1af fbbe
000003b0: f773 f4be 8cd1 d4bb e9a8 93bf 3b30 aa3a
000003c0: f4e4 49bd 3b4e 013e 505c a9be ea33 04be
000003d0: 6f91 a0bc 2b12 57bd e899 bc3e 836f 363e
000003e0: f596 d8be 603e b4be 72b2 383f 203d 413f
000003f0: a928 90be fb3a 42bf 6f77 60be 4b17 fa3e
0.8161226 1.2417847 -0.5756732 0.24933997 0.590084 0.8429667 0.17295381 0.63951486
-0.44756925 0.35471073 0.8835533 0.30766568 -0.7555428 -0.3230713 0.77939236 0.93065727
1.1199403 0.79680914 -0.33875677 0.046160482 -0.76266545 -1.2208723 -0.53505963 -0.21906897
-0.5331087 -0.5872922 -0.20810482 -0.32270965 -0.03738627 0.2523539 0.05623183 -0.5995705
0.21619405 -0.011830187 0.283898 1.0125669 -0.3342302 0.388535 -0.3640394 1.1095607
0.24276774 0.28383633 -0.32320052 0.12350552 0.32532218 -0.51453745 -0.66556853 -0.13188024
0.3358633 0.8524377 0.72580713 0.015960295 0.13334307 -0.007176229 0.06434537 -0.8189769
-0.1603595 -0.16858754 -0.3474255 0.49120978 0.21663335 0.35078725 -0.44227022 0.6254356
0.14831176 -0.41178763 0.11441621 0.0997994 0.08755573 0.72604716 0.9176828 -0.043741684
0.043793466 0.86324126 -0.5521175 -0.2743962 -0.34695485 -0.5181215 -0.36420152 0.21539615
0.15399839 0.07397693 -0.29230326 0.26486215 0.66949236 -0.39134938 0.16236705 -0.07545108
-0.1868505 -0.70990247 -0.46662265 0.045424584 -0.60705256 0.1802507 0.06856451 0.29264647
-0.33464584 1.2921364 0.11819337 -0.49382034 -0.4867641 -0.13469592 0.5942955 1.0553681
0.054058876 1.1090584 0.84339905 1.2108595 -0.41070792 0.9276742 -1.1548529 -0.24307661
1.2667065 0.34976354 -0.9938103 -0.58354586 0.9100828 1.1808 0.60502255 0.93261623
0.14876707 0.12526417 -0.018278167 -0.7622402 0.08703584 -0.117072195 -0.22879595 -0.52506244
-0.07221797 0.20014746 -0.2107118 -0.4377106 0.29861364 -0.36181718 -0.38726303 0.57910025
-0.6617996 -0.3589248 1.0378524 -0.6071475 -0.1599525 -0.24836074 -0.0005252659 -0.5560107
0.37175208 -0.3308582 -0.51353765 0.2236162 0.29349104 -0.10763325 -0.4531655 -0.08407412
0.042230435 -0.27391896 0.06200156 -0.29819995 0.72794396 0.43815318 0.81694597 -0.03233448
0.17582421 0.114618 0.27199256 -0.04706852 0.15204145 0.20425245 0.03211914 0.4970047
-0.026456252 -0.2305936 -0.16862214 0.4408282 0.39324987 -0.26788127 -0.016574504 0.28445312
-0.43526748 -0.09148636 0.28802627 -0.40258 0.15962827 0.028725244 0.0019831685 -0.11861144
-0.08191451 -0.025396192 -0.2761291 -0.6277854 0.11000246 -0.07628487 0.7126225 0.33094257
0.61987126 0.03627553 0.35347247 0.5401567 0.1819675 -0.13829547 0.11195569 0.7781351
-0.16228801 0.12309401 -0.13181674 0.08848277 0.2867855 0.16092892 0.34741524 -0.104140386
0.30339125 -0.07538984 -0.31477478 0.1155705 -0.17841184 -0.442539 -0.45291913 -0.1983797
0.08629379 0.18676433 -0.10537506 -0.15866366 0.6824383 0.5546592 -0.10638022 0.07088247
-0.32294467 -0.77881646 -0.71426195 -0.018670516 -0.42735836 -0.57694703 -0.11776471 -0.52116454
0.1299478 0.6801649 0.13152628 -0.49157432 -0.47744724 -0.0064947065 -1.1535922 0.0012984345
-0.049290612 0.12627499 -0.3307824 -0.12910429 -0.019600598 -0.05250756 0.3683617 0.17815976
-0.4230267 -0.35203838 0.72147286 0.75483894 -0.2815602 -0.7587125 -0.2192056 0.48845896

linear1.bias f4 [64]
00000000: 6846 313e 8049 ccbe b5bd 733d 9bc0 5cbe
00000010: e8e1 d23e 9aea 45be e469 073f 17d3 583f
00000020: 794f 35be 6b5b b8be 6b81 a53e d416 613e
00000030: fd83 2cbf 6e67 2cbf bce8 ae3e 1d38 213d
00000040: 6c49 debe 9117 1b3d aa58 58bf 400e b83d
00000050: b858 d03d 5c88 a33e f662 1dbe ded1 ecbe
00000060: 9194 65be cf31 b63e 2158 92bc 9656 61bf
00000070: 3454 00bf 42f4 053f 1249 31be 2fd4 d93e
00000080: 372a e03f fc2a c13e 863e 8dbe 9275 263f
00000090: 9b9d 2cbe 004c 903e 403d 3abf 0148 a9bd
000000a0: 9276 b1be c68e 063f 4dc3 363f 51ba bfbe
000000b0: b885 173e 39db 1d3e 9154 84bf 81f9 7e3d
000000c0: be1d 5e3e a4eb 873e 9ef1 95be 35b5 8c3d
000000d0: 32ae 5bbf f3f0 7abf a591 7d3e a71e 42be
000000e0: 51a2 4bbd fa25 1b3e 3ad5 793f 389a 0cbf
000000f0: 40b8 0a3f a7a6 033f ee19 0fc0 8cd0 283e
0.17312014 -0.39899826 0.05950709 -0.21557848 0.41187978 -0.19327775 0.5289595 0.846971
-0.17706098 -0.36007246 0.323253 0.21981364 -0.673889 -0.6734532 0.34161937 0.039360154
-0.4341539 0.03786427 -0.8451029 0.08987093 0.10173172 0.3193997 -0.15369782 -0.46253866
-0.22419955 0.35584876 -0.017864289 -0.88022745 -0.50128484 0.5232583 -0.1731303 0.42544696
1.7512883 0.37728107 -0.27586764 0.6502315 -0.16856997 0.28182983 -0.7274971 -0.08265687
-0.34660774 0.52561605 0.71391755 -0.37446836 0.14797103 0.15415658 -1.0338308 0.062249664
0.21691033 0.26546967 -0.29285902 0.068705 -0.85812676 -0.9802391 0.2476259 -0.18957005
-0.049715344 0.15151206 0.9759098 -0.5492282 0.54187393 0.51426166 -2.2359576 0.16485804

linear2.weight f4 [16, 64]
00000000: 0991 80be 28fb 8dbe e7d1 95bd 86c2 1fbe
00000010: d277 2a3e 595f 353e 1ce2 aebe 6a37 d33d
00000020: 51e4 963b e48b d8be bc85 41be a2ee c13c
00000030: 871b d2be 331e aabd 3a07 91bd b15c f03d
00000040: 6dd1 34bf 4163 d8be dc49 32bf 5baa fa3d
00000050: d20a 8bbe ad58 e53d f0ab 8dbe 9be3 abbd
00000060: 221c 3fbe ea2a f0be ddb9 4c3d b964 41be
00000070: eba9 fd3d c33a 25be bc63 97be 0687 49ba
00000080: 624f 02bd 4a2f 90bd 5d2d 6dbd ef4d de3c
00000090: a9d7 cb3e 7acf 523e 7ed5 9abf 7a6e a3be
000000a0: a76e 48bf 03b9 cd3d 501d d33d b0c9 e2be
000000b0: 02e8 f9bd 24d5 263d a15c 80be 1d1b d3be
000000c0: e011 c33d 80ef 7ebe ebf1 22bf f84b 8dbe
000000d0: eed7 a3be 0d4a 0fbf 9223 db3d 00fa 603e
000000e0: 2fea c7bd f5c8 d03d 7c3b 8fbe 4bc8 0abf
000000f0: 8d4c a8be 8fae a23c e265 b6be c3cc ac3e
00000100: a140 cdbe 7741 bcbe 3641 29be 8c85 59be
00000110: 2c6d c93e 1de0 853e 5422 b7be 3a11 af3e
00000120: 692e d23d 8b5c 8abe 3862 e93d f937 9e3e
00000130: 3ecc 41bf ccc8 0dbe 4c86 9e3e 94db a13e
00000140: e416 01bf ac6b b7bc 6d07 56bf 8210 113e
00000150: c4db 7bbe 6536 523e 2bf8 95be 9ff3 173e
00000160: 1823 c3be 7808 0dbf 4faa b53d dd95 fdbe
00000170: 891d 3bbf 9577 46bd ec35 b6be 5f9b 8b3e
00000180: ecb7 a83d cabf 963e eb01 1cbe 9922 5f3e
00000190: 6b90 0a3f e4f6 74be 96de 98bf 197f 30bf
000001a0: 2d06 9bbe 67fb ab3e 8e60 ee3e 1d7a abbe
000001b0: da12 2cbe 611b 4f3e add0 40be 81c8 5b3e
000001c0: 7cef b03e 6237 913d 2848 8bbe b012 cabe
000001d0: 3139 f3bd ca9e e9be 610e c43e 905e 9a3e
000001e0: f6ae 35be 2a07 4cbf 5cd3 8e3d 0c95 dabe
000001f0: 9bd8 96be 913c 6c3e 8aad afbe 1f86 1f3f
00000200: c93b 0fbe d281 82be e0dd 81bd 2aab a1be
00000210: 6047 e0bc 2007 71be 99da 1f3e 34dd 623e
00000220: 3ef3 b03d 38a0 aabe 2259 b4bd 56c1 1ebe
00000230: 2e9d 853e cc2a eebd 5128 853d ecaf 8bbd
00000240: 15dc 5fbe 2d28 5bbd a812 76be ff90 0ebe
00000250: 56c3 403c 8fb4 32be a657 a4bd 2178 d63e
00000260: ece3 483d 9e12 16be 868a c63e b939 91be
00000270: bd4e b83d 3950 49be 6916 743d 8b17 3ebe
00000280: 1e0a cebe e7ef 183a 0038 0dbe 9f6f 343e
00000290: a6fd fbbd 0e6b 88bd 7670 abbd 3b6e 02bf
000002a0: 29d5 8ebd 2ffb f23b 5c71 7cbe 7b88 1fbd
000002b0: 5caa 1abe 6ce9 4bbe 0029 3ebd 91b3 063d
000002c0: bc94 383c f31e a1be feb0 6ebc 9e71 b5be
000002d0: 5d94 e83b c717 963d 5a3d 2abe bb93 35bd
000002e0: 91ec 2ebe 61d0 8abd dfd6 3bbe bec8 4d3d
000002f0: 614c 5ebe 136a a13d cadb 3abe cacb 72bd
00000300: f8cc 68be c8c5 113d 7604 e63e c5d1 07bd
00000310: 9fa6 88bd 60cd 63bd 883e 653e fe53 b4be
00000320: c195 473d 3515 c33d f68f 953d 99f7 c7bc
00000330: e4c7 91be 6a05 49be cc7f 25be 83a3 0dbe
00000340: 5db8 04bd 0f41 d8be 30aa 95bd 6c6c 89be
00000350: bb04 cf3b 6c07 58bd 10fc 08be e87a 90bb
00000360: 8f52 b3bd 8196 67bd 190c 513e d8e6 98bd
00000370: 5155 c93e c1e1 983d 1057 f0be 8e03 ce3c
00000380: 812c 16be 1976 19be d773 db3d c1cb 59be
00000390: 7538 b3bd db89 a0bd d73b 11be 1d03 983e
000003a0: 02db 8bbd 7e98 d7be e604 82bd 456c 033e
000003b0: a834 4abe 6164 e1bc a774 1abe 829c 47bd
000003c0: 1b2d 58bd fe80 13be c0ea 6bbe 670e d63c
000003d0: 7d1c 553d 3d52 ecbe ca60 283e dba7 10be
000003e0: bfc0 973e fb96 03bf 8ec9 00be d959 3fbd
000003f0: 141c 61be 3644 93be 6979 21be 2275 c3be
-0.25110653 -0.2773068 -0.07315426 -0.15601549 0.1664727 0.17712153 -0.34156883 0.10313304
0.004604854 -0.42294228 -0.18898672 0.02367336 -0.41036627 -0.08306541 -0.070814565 0.117364295
-0.7063206 -0.42263225 -0.6964395 0.12239524 -0.27156693 0.11198554 -0.2767024 -0.08393022
-0.18663076 -0.4690774 0.04998194 -0.18886079 0.12385925 -0.16135697 -0.2956828 -0.00076876616
-0.031813987 -0.0704027 -0.05790459 0.027136771 0.39812973 0.20586959 -1.2096403 -0.31920224
-0.7829384 0.10045054 0.10308325 -0.442945 -0.12202455 0.04073061 -0.2507067 -0.41231623
0.09524894 -0.2489605 -0.6365039 -0.27597022 -0.3200068 -0.5597237 0.10700144 0.21970367
-0.09761464 0.101945795 -0.2797507 -0.5421187 -0.32870904 0.019858627 -0.35624605 0.3374997
-0.4008837 -0.36768696 -0.16528782 -0.2124235 0.39341104 0.26147547 -0.35768378 0.3419283
0.10262758 -0.2702373 0.11395687 0.3090208 -0.75702274 -0.13846129 0.30961835 0.31612837
-0.50425553 -0.02239021 -0.8360508 0.14166453 -0.24595553 0.20528562 -0.292909 0.14839028
-0.38112712 -0.5509105 0.088703744 -0.495284 -0.7309194 -0.048453886 -0.35588014 0.27266976
0.08238205 0.29443198 -0.15235107 0.21790542 0.54126614 -0.23922306 -1.1942928 -0.68943936
-0.3027815 0.33590242 0.4655804 -0.33491603 -0.16804066 0.20225288 -0.18829603 0.21463205
0.34557712 0.070906416 -0.27203488 -0.39467382 -0.11876143 -0.4562896 0.3829222 0.3015027
-0.17742524 -0.7969843 0.06973907 -0.4269184 -0.29462132 0.23069979 -0.34312087 0.6231403
-0.1398765 -0.2548967 -0.063411474 -0.315759 -0.027377784 -0.23537874 0.15610732 0.22154695
0.08640145 -0.33325362 -0.08806063 -0.1550344 0.2609648 -0.116292566 0.0650183 -0.06820664
-0.21861298 -0.05350511 -0.24030554 -0.13922499 0.011765322 -0.1745169 -0.0802453 0.41888526
0.04904549 -0.1465554 0.3877756 -0.2836435 0.08999393 -0.19659509 0.059591684 -0.18563668
-0.40242094 0.0005834088 -0.13790894 0.17620705 -0.12304239 -0.06661044 -0.083710596 -0.5094945
-0.06974251 0.0074151973 -0.24652618 -0.038948517 -0.1510405 -0.19913262 -0.04642582 0.03288609
0.01126593 -0.31468925 -0.014568565 -0.35438246 0.0070977644 0.07328754 -0.16624966 -0.04433034
-0.1708243 -0.06778026 -0.18343686 0.05024027 -0.21708824 0.0788156 -0.18247905 -0.05927638
-0.2273444 0.03558901 0.44925278 -0.033159036 -0.066724055 -0.055615783 0.22387135 -0.3522033
0.0487268 0.09525529 0.07302849 -0.024410056 -0.28472817 -0.19630972 -0.16162032 -0.13831906
-0.032402385 -0.42237136 -0.07307851 -0.26840532 0.0063177026 -0.052741453 -0.13377404 -0.004409183
-0.08755981 -0.056540016 0.20414771 -0.07465905 0.39322904 0.07464934 -0.46941423 0.02514818
-0.14665414 -0.14986457 0.10715454 -0.21269132 -0.08751003 -0.07838794 -0.14182983 0.29689875
-0.06828882 -0.4210853 -0.063485906 0.1283427 -0.1974665 -0.027513685 -0.15083562 -0.04873324
-0.05277739 -0.14404675 -0.23038769 0.026129914 0.05202912 -0.46156493 0.16443172 -0.14126532
0.2963924 -0.5140225 -0.12576887 -0.046716545 -0.21983367 -0.28762978 -0.1576897 -0.38175303

linear2.bias f4 [16]
00000000: 7df7 a23e 7798 303f 7aa2 28bd 4579 96be
00000010: f780 a2bd 1cae c73f 1fc9 2b3e e07c bb3b
00000020: 981f 023f 7d6f 0a3f ce00 4cbf 9935 6b3f
00000030: 4a4f 743f e008 363f 900f d4be 3780 e9be
0.31829444 0.6898264 -0.041170575 -0.29389396 -0.07934754 1.5600009 0.1677594 0.0057216734
0.5082946 0.5407637 -0.7968873 0.9187866 0.95433486 0.7110729 -0.41418123 -0.45605633

linear3.weight f4 [1, 16]
00000000: 43d6 7a3b e83e aa3e 1d56 a7be 8f28 1abe
00000010: b2d6 0abf a19e 533e adb2 48bf 7c53 78be
00000020: f5dc 433f b865 8a3e 889c 1dbe f036 9f3e
00000030: 025d c13e b84c 313f 1911 c5bf 5d9c bc3d
0.0038274683 0.3325112 -0.32682887 -0.15054534 -0.5423385 0.20665981 -0.7839764 -0.24250597
0.7650903 0.2703073 -0.15391743 0.310966 0.37766272 0.6925769 -1.5395843 0.092095114
