gym_pybullet_drones/examples/models/critic_gnn_1drones.pkl (torch, 24434 bytes, 13 tensors)

self_encoder_1.weight f4 [32, 8]
00000000: 29b2 96be d56f 5c3e f825 a73e e522 463e
00000010: 443a 22bf ca08 53bd d19b 063f 1219 f33e
00000020: afc9 28bf 311b 3a3e 69dc f73e ead5 ca3e
00000030: ccc2 b7be b95c 953d 61ed 2bbe 92e9 6cbe
00000040: 665a 45be 834f 05bf ce57 7bbe 77db 03be
00000050: e7ce 763c a798 263f 4e9a 8d3d f5bd 79be
00000060: 6317 a13c b9e3 443d cd35 9abe 86d2 bd3d
00000070: 1f44 13bf 7710 4bbc 95ac ad3e 9585 f3bd
00000080: b3b6 a53e a41b 603e 112d 8d3e 6a6a 7b3e
00000090: f388 c03d 9910 ccbe a5ef 023e b4cf 54bd
000000a0: 3f8b ccbd 4d3b fb3d dc5e 35be 2331 21be
000000b0: 78d8 233f 3730 33be d3ee 3f3c 3df6 933e
000000c0: 6f66 b83e 85c8 fdbe b926 323f 1702 b73e
000000d0: 4787 90be c13d babe 434e 50be 6f36 debe
000000e0: 31d2 443e 19ae d93e 1454 dbbd 865f 13be
000000f0: 2213 0e3f d45b 0e3e 0c5f 14bf a142 cebc
00000100: 9b87 d4be cd23 86be a352 16bf 80df 36be
00000110: 8e5d a0bd 2e8e 7d3e f321 3f3e 8095 80be
00000120: 6861 1b3d f331 ecbe 6609 d9bd 45fe 183e
00000130: ce76 38bf 4425 863e ab7a 8cbe c0d9 7b3f
00000140: bb33 30bd ee10 493e e7c4 8a3c 4b87 a1be
00000150: 697f 053e d3c4 c3be 955d 143e 27d2 103f
00000160: 35f2 f8be 87bf a43e 169f 81be 4d02 09be
00000170: 54e8 98be 4bd9 0c3f 3be2 523e 7d9e 2cbf
00000180: 6014 12be bd71 ab3e b743 8ebe 3e52 abbe
00000190: dd39 0f3f e295 1fbe f474 f9be 2653 bc3e
000001a0: 3744 993e 599d 473d 9bb7 79bc f78a 963e
000001b0: 344c a93d c272 5fbe 40c8 d53e c6c4 d6be
000001c0: 3772 083d c1a3 503e 5ecc 673d 9742 ae3d
000001d0: 3b5d 4d3e dc3d bcbe 167a 88bf e22c 88be
000001e0: fbf5 22bc ebd6 8b3e 10b0 00bd a01a d6be
000001f0: a0be 293f 6b6f b83c 51c1 d7be 4468 c73e
00000200: 78b1 153f bcd7 753c 2331 c13d 5a6d 023e
00000210: 6def 3b3e aa22 81bf 949b 58be c53b 2bbf
00000220: b14b 703e 08a9 5c3e 0545 013c f839 ebbc
00000230: d83a 3cbe 0854 32bf f5ed 553d fca4 343e
00000240: 96a9 adbe b3b4 963e 1b31 6cbd e3f0 823e
00000250: 05f7 033e 163d 26bd 11eb 4ebf c6fa bb3e
00000260: 4cff 63bf 4ee2 d73e 6845 173c 11f8 02be
00000270: d37f 0d3e fa87 b8be c0e1 02be 4c3e 33bf
00000280: 1dee 42bc 7519 c13d 13cf 11be f5c9 a2be
00000290: 7fdb 0dbf 733e 873d 52ee 01bf 72c1 e2be
000002a0: 299b 4d3b 2ee7 043f b2f6 c6be 2dcc d3bd
000002b0: 134f 043f 6afe 933e 5b03 60bf 7f68 afbe
000002c0: 5897 323e 514e 85be ece8 b3be 7bb6 d2bc
000002d0: 7e8b 0bbe 901b 1cbe e186 5fbe 87b3 823e
000002e0: 47f9 303e 9c6f ebbe b087 113f 4336 47be
000002f0: ebff 0bbd 99f8 0a3f 4f43 16bf 8c91 393f
00000300: 3587 20be f704 a5bd 8b4b 0ebe 6791 593e
00000310: aa42 dcbe 7657 ca3d c443 363e dc55 83be
00000320: e3fe 19bf cad9 0d3f fb3b a2be 0eac 79be
00000330: cc60 a53e 67ec e83c 12d3 06bf 8d32 303d
00000340: 6e43 3bbd 4317 20be 7f25 dcbe 42ca 79be
00000350: b822 3a3d 73a8 11bf f586 dbbe a82a 34bf
00000360: 4fe4 9fbe 2108 d43e f495 50bd 9aef 4a3e
00000370: 863b 15be 2691 4fbf b744 e83b 544b 1b3e
00000380: 2cd2 4dbf 395b 40be e09a 943e 1f41 fe3e
00000390: 9491 69be 646e f33d 522d 8f3e d94e 143f
000003a0: 409a 95be bdc9 563f 0840 95be e63a ba3e
000003b0: 17cd 033d 1610 a2be f62f f23e 170e cdbe
000003c0: e5fd bdbd a8a2 4d3f d882 08bf e02e 3dbe
000003d0: 392f 083e bf62 cb3e d9f5 9c3c 9c73 f23d
000003e0: 2288 03bf e181 bcbe b330 fdbe a336 713d
000003f0: 1edc aebe ec11 213e 6a35 6b3e bf90 2d3f
-0.294328 0.21527036 0.32646155 0.19349249 -0.63370156 -0.051522054 0.52581507 0.47480065
-0.65932745 0.18174435 0.48410347 0.39616328 -0.35890806 0.07293076 -0.16789772 -0.23135975
-0.19272766 -0.5207445 -0.24545214 -0.12876688 0.015063978 0.6507668 0.06914197 -0.24388869
0.019664472 0.048068736 -0.30119172 0.0926867 -0.5752582 -0.012394062 0.33920732 -0.11890713
0.3236595 0.21885544 0.27573445 0.24552312 0.09401121 -0.39856413 0.1278673 -0.051955894
-0.099874966 0.1226717 -0.17711967 -0.157414 0.6400218 -0.17498861 0.011714655 0.28898802
0.3601565 -0.49567047 0.69590336 0.35743782 -0.28228208 -0.3637524 -0.20342354 -0.43400905
0.19220807 0.42515638 -0.10709396 -0.14391908 0.55497944 0.13902217 -0.5795753 -0.025178256
-0.4150971 -0.2619919 -0.58719844 -0.17858696 -0.07830344 0.24761268 0.18665294 -0.2511406
0.03793469 -0.46131858 -0.10597496 0.14940746 -0.7205628 0.26200306 -0.27437338 0.98379135
-0.043018084 0.19635364 0.016939593 -0.31548533 0.13036884 -0.38236102 0.14488824 0.5657067
-0.4862229 0.32177374 -0.25316685 -0.13379784 -0.29864752 0.5501906 0.20594113 -0.67429334
-0.14265585 0.33485213 -0.27786037 -0.33461183 0.5594767 -0.1558452 -0.4872204 0.36782187
0.29934856 0.048734043 -0.015241529 0.29402897 0.08266488 -0.2182112 0.4175434 -0.41947
0.03331205 0.20374967 0.056591384 0.08508795 0.20055096 -0.36765945 -1.0662258 -0.26596743
-0.009946342 0.27312407 -0.031417906 -0.41817188 0.66306496 0.022514066 -0.42139676 0.38946736
0.5847392 0.015005048 0.094332 0.12737027 0.18353052 -1.0088704 -0.21153098 -0.66888076
0.23466374 0.21548855 0.007889991 -0.028714165 -0.18381822 -0.6965947 0.052228887 0.17641062
-0.33918446 0.29434738 -0.057664018 0.25574407 0.12887199 -0.0405856 -0.8082743 0.36714762
-0.8906143 0.42164844 0.009232856 -0.12789942 0.13818292 -0.36041242 -0.1278143 -0.7001693
-0.011897591 0.09428684 -0.14239149 -0.31794706 -0.5541305 0.06603708 -0.5075427 -0.44288212
0.0031373 0.5191525 -0.3886009 -0.10341678 0.5168316 0.2890504 -0.8750512 -0.34259412
0.17440546 -0.26036313 -0.35138643 -0.02572178 -0.13627431 -0.1524489 -0.21828796 0.25527593
0.17282592 -0.4598359 0.5684767 -0.19454293 -0.03417961 0.5428558 -0.58696455 0.7248771
-0.15676577 -0.080575876 -0.13896005 0.21246873 -0.4301961 0.09879963 0.17799288 -0.25651443
-0.6015455 0.55410445 -0.31686386 -0.2438204 0.32300413 0.028433038 -0.5266582 0.04301696
-0.045718603 -0.15633874 -0.42997357 -0.24393561 0.045443267 -0.5689766 -0.42876402 -0.7037759
-0.31228873 0.41412452 -0.050924256 0.19817963 -0.14573488 -0.81080854 0.0070882696 0.15165454
-0.8039882 -0.18784799 0.2902441 0.49659058 -0.2280944 0.1188629 0.27964264 0.5793281
-0.29219246 0.8390158 -0.29150414 0.3637306 0.03217801 -0.31652898 0.47302216 -0.40049812
-0.09276942 0.8032632 -0.5332465 -0.18474913 0.13299264 0.39723775 0.019160198 0.11838457
-0.513796 -0.3681784 -0.49451217 0.058889996 -0.3415231 0.15729493 0.22969595 0.6779899

self_encoder_1.bias f4 [32]
00000000: fbc5 933e 4cff 0f3e 832c 06bf 9b39 0c3f
00000010: fd2c 913e eb6e 213d 4fca e2be efa3 56be
00000020: 1abc 52bf db91 e0be fd79 af3e cdf8 8d3e
00000030: 5966 cfbe 21c3 483f 6155 c43e 3c16 8b3e
00000040: c2d5 e33e 02ca 8c3e d889 71be f034 0d3d
00000050: 3964 c03e ec2c 013e 1abd 7dbf 26c9 23bf
00000060: a571 3c3f b079 923d 46e7 f43e da90 d13e
00000070: b126 ecbe 9e3b 3e3e 5ce3 573e efda 8cbf
0.28861985 0.14062232 -0.5241167 0.547754 0.28354636 0.03941242 -0.44294974 -0.20960973
-0.8231827 -0.4386128 0.34272757 0.27728882 -0.40507773 0.78422743 0.3834639 0.271654
0.44499022 0.2749787 -0.2358774 0.034474313 0.37576464 0.12614793 -0.9911667 -0.63978803
0.7361091 0.07152116 0.47832698 0.40930825 -0.4612327 0.1857743 0.21082824 -1.1004313

self_encoder_2.weight f4 [16, 32]
00000000: b1e7 fc3c 3c9d 6a3f c9c6 b03e 8019 eabd
00000010: 2afa 68be bffc 36bf 6c5b 963e f77f c03e
00000020: 70a6 933e 507d 1fbe fd86 713e 868a f53e
00000030: 6d01 aabd d2c2 a3bd ff19 fc3d 1ad5 15be
00000040: 621d 0a3f 5dc4 1d3d 14b6 243e 640d de3c
00000050: 7bad 033f af89 283f 4329 7ebd 0227 e53e
00000060: 76d4 7cbd 8f8c 083e 7d3b 673e 42ab 37be
00000070: 6ab9 623f a277 86be 47bb 4e3f 1da4 d53e
00000080: 3554 47be 4e6a 733e 3011 e53d 3b54 cdbe
00000090: 70fa 53be 711f 8fbe 6595 5b3d 5a2e 153f
000000a0: fdc7 893e a07c f33d a003 c9bb d026 98bd
000000b0: 0009 c5be 07c9 c6be 506e adbe f8f2 ebbe
000000c0: 96a9 e23e 0459 a4be dec7 45bc 58d1 abbe
000000d0: f7d7 893c 73c3 263f 5c85 95bd c4b3 c53e
000000e0: 2aaa 92bd b5f9 d3bd 4931 a03c 8712 d4be
000000f0: 67e0 dd3e 46c1 a9be 34ec 493f 40f2 1d3f
00000100: c616 db3e d3a7 a8bd 7c0b e3be 7b93 ba3d
00000110: cbf5 303d 3fa6 653e e349 bbbd 3ec3 dfbe
00000120: bf57 843e cc49 d6be 1a37 ef3d d4b9 08be
00000130: 4554 603e 2f6e 4e3e 9b31 283e c319 003e
00000140: 34f3 c2be 82de 393d 6fab 46bd b57c c63e
00000150: e077 863e 4c8d f2be a839 fe3d b1e8 12bf
00000160: 201a 433c c5ba 0dbd aa41 82be 3286 f03e
00000170: b7d5 f6be 0e9f bd3e 9ebd 51bf 3b88 17bf
00000180: 2f4c 80be 2415 df3e 2e83 923e d7b1 41be
00000190: 20b0 27be 5bb4 a6bc fafa e93d e581 8c3e
000001a0: c536 12bf 8a5f 033f c2e3 f33d 5f1b dcbe
000001b0: 43dd 06be 324a 823d 62c8 07be 45c2 d93d
000001c0: e7b4 0f3f d8d5 c7bc 91f1 b7bd 18c8 32bf
000001d0: f200 c63d 6d69 bc3e d5c5 68be f14d ce3e
000001e0: e637 33be 6689 a0be 3962 073e 9f83 88be
000001f0: b48c 2cbe 3eb5 6fbe b267 103f a6db b93e
00000200: 988b be3c b263 5b3e e202 97be 978d 3e3e
00000210: f240 003e 54a2 a33c 9a2d 913e b3f0 f33e
00000220: 3297 dfbe f2a5 91bd 41ba 0d3f 0ad7 503f
00000230: 85f5 eabc ee62 fbbb e643 bb3e fa7d 053e
00000240: 359f ff3e 3a11 0a3f 5900 5ebd 3af5 73bc
00000250: 793b e63e d539 363f 6cb2 80be 8b35 42be
00000260: 69da 8c3e ba1a dabd d6de 1e3f bfc5 783e
00000270: a3bb ba3d 4f8c 11bf cfe4 3a3e ca82 ae3d
00000280: 6c85 10bf b737 d03e d980 f73e 9e92 09bf
00000290: 5ff2 cebe 8acc 6fbe 2425 993d 104f 093f
000002a0: 6273 893d 18f9 c73e b218 28bc e379 57be
000002b0: 6f42 e7be bd6d d4be 6cb6 46bd 0aa9 bfbe
000002c0: f82b 053f 6509 0dbe 163c 37bd 8b2a 0fbf
000002d0: d3bf 2d3d 8bf8 fe3e aa5a f9be ac08 ed3e
000002e0: 03d3 51be 0b07 62be a52f 793e b539 45be
000002f0: 5aa9 ed3d 61cb 09bf 1d6e 393f 647d a83e
00000300: 6f84 5b3e 768a 133f 3d9a 7b3e 60d0 e9bd
00000310: ddae b7bd fc66 58be 7d29 553d e886 08bd
00000320: a8d9 3e3f f2fc c63e 16e5 44bd ecd6 dbbe
00000330: 9aae 753e cbb5 da3d 62e2 1d3e d4f2 0bbe
00000340: 77c5 8e3d 23c1 d7be 3016 1c3e 4039 e7bd
00000350: c083 11bf 8708 713d ecfa d63e 5d31 063e
00000360: b8ce 35be bb7e 573f 84cf 80bd 61e4 edbe
00000370: 07ea 6c3e 8da5 e63e bc59 1d3d 343c 7c3e
00000380: 863f 38be e64d 793e b88f 0f3f 8b47 edbd
00000390: 6eb5 ab3d 8234 e9be 4a8a a23d e6e8 39be
000003a0: 0114 81bc af41 823e 1671 463e 601c 0cbe
000003b0: 49cd 1abe facd a23d e273 0b3e 23b5 6b3d
000003c0: a90b 0c3f 802e 38bd de3d 9cbd 495b 90be
000003d0: 6fd3 e8be 39a5 7dbe f0fe 063e 2678 463f
000003e0: 8785 fdbe a020 88be 7117 0f3d 88e1 bb3d
000003f0: 0d2c 533e f95f 2cbf d758 8b3e af0d 0f3f
0.030872198 0.9164617 0.3452666 -0.11430645 -0.2275168 -0.7147941 0.29366624 0.3759763
0.2883792 -0.15575147 0.2358665 0.47957247 -0.08301053 -0.079961434 0.12309646 -0.14632073
0.53951085 0.038517345 0.16085082 0.027105995 0.51436585 0.6583509 -0.06205107 0.44756323
-0.061726056 0.13334869 0.22581287 -0.17936423 0.8856417 -0.26263148 0.8075451 0.4172677
-0.19465716 0.23771021 0.11184919 -0.40103325 -0.20701003 -0.27953675 0.05360927 0.5827385
0.2691039 0.11889005 -0.0061344653 -0.07429278 -0.3848343 -0.38825247 -0.33873224 -0.46083808
0.4427001 -0.32099164 -0.012071578 -0.33558154 0.016826613 0.6514198 -0.07300827 0.38613713
-0.071613625 -0.10350362 0.019554751 -0.41420385 0.43335268 -0.33155268 0.7887604 0.6169777
0.42790812 -0.08235135 -0.443447 0.09110161 0.043203156 0.22426699 -0.09144952 -0.43703645
0.25848195 -0.41853178 0.11680432 -0.13352138 0.21907146 0.20159219 0.16425173 0.12509827
-0.38076174 0.045378216 -0.048503336 0.3876702 0.26263332 -0.47373426 0.12413341 -0.5738631
0.011908084 -0.034601945 -0.25440723 0.46977383 -0.48209926 0.37035412 -0.8192996 -0.59192246
-0.25058123 0.43570817 0.28615707 -0.18915497 -0.1637578 -0.020349672 0.11424823 0.27442852
-0.5711482 0.51317656 0.11908676 -0.42989632 -0.13170342 0.06361808 -0.13260034 0.10632757
0.5613541 -0.02439396 -0.08981622 -0.6983657 0.09668149 0.36799183 -0.22731717 0.4029384
-0.17501792 -0.31354827 0.13221063 -0.2666292 -0.16850549 -0.23408982 0.56408226 0.3630039
0.023259923 0.2142475 -0.29494387 0.186087 0.12524775 0.019974865 0.28355104 0.47644576
-0.4367004 -0.0711173 0.55362326 0.81578124 -0.028681526 -0.0076717054 0.3657524 0.13036337
0.49926153 0.53932536 -0.05419955 -0.01489001 0.4496725 0.71181995 -0.25136125 -0.18965738
0.27510384 -0.10649629 0.6205877 0.24294184 0.0911782 -0.5685472 0.18251346 0.0852104
-0.56453586 0.40667507 0.4834049 -0.53739345 -0.4041929 -0.23417869 0.07477787 0.53636265
0.06711461 0.3905723 -0.010259794 -0.2104259 -0.45167872 -0.41489974 -0.048513815 -0.37433654
0.52020216 -0.13773115 -0.044735037 -0.5592429 0.042419266 0.49798998 -0.48701984 0.4629568
-0.20490651 -0.22072999 0.24334581 -0.19260295 0.11604567 -0.53825957 0.72433645 0.32908165
0.21437238 0.5763315 0.24570556 -0.114166975 -0.089688994 -0.21133035 0.05204152 -0.03333178
0.7455087 0.38864857 -0.048070036 -0.4293741 0.23992386 0.106792055 0.1541839 -0.1366685
0.06971257 -0.4213954 0.15242839 -0.112902164 -0.5684166 0.058846023 0.41988313 0.13104768
-0.17754638 0.8417775 -0.062895805 -0.46463302 0.2313615 0.4504818 0.038415655 0.2463234
-0.17992982 0.24346122 0.5607867 -0.11585911 0.08384214 -0.45547873 0.07936533 -0.1815525
-0.015756609 0.25440738 0.19379076 -0.13682699 -0.15117373 0.07949443 0.13618425 0.057545792
0.5470529 -0.04496622 -0.07628988 -0.28194645 -0.4547381 -0.24770059 0.13183188 0.7752708
-0.49515936 -0.2658739 0.034934465 0.09173876 0.20622273 -0.6733394 0.27216217 0.55880255

self_encoder_2.bias f4 [16]
00000000: d47a 94be d3ce 86bf 584b 223f 26e2 8ebe
00000010: 7bd2 193f 54a1 53bf 9c42 10bf ed61 f7be
00000020: c586 4c3f 55ee d0be 3c03 61bf 7cd6 2ebf
00000030: 2de3 5e3f 8e42 37bf b851 83bf 380a 8abf
-0.2899996 -1.0531868 0.63396215 -0.27906913 0.6008679 -0.8266804 -0.5635164 -0.483169
0.7989314 -0.40806833 -0.8789556 -0.6829603 0.8706539 -0.7158593 -1.0259314 -1.0784369

neighbor_encoder_1.weight f4 [32, 4]
00000000: 4143 cf3e ae36 db3c 9e9b 793d 20d5 0bbe
00000010: a511 a0be 61ca 3c3e 324f 443f 8e52 01be
00000020: 7210 463f 43eb 843e b861 8d3e 90f1 2d3f
00000030: ae17 00bf fe9c b7be 5170 b63e 1624 523d
00000040: 7a53 d1bd a769 9f3c 2c52 f9be 2869 89be
00000050: e13b ebbe 57da 5a3e c2f1 4f3f a05c 433e
00000060: b273 20bf 321d 153d 2867 953e a83b 87be
00000070: 1da2 713d e2ac 9dbd 02f0 0dbf 95e6 1bbb
00000080: 4cb1 15be 889d 7cbd ed95 ad3e 9a48 793e
00000090: 821f 993d d7a7 fb3c 7abc 20be ba0b 29bf
000000a0: c9ff ffbd a593 7e3c f2a0 013d bbc6 c4be
000000b0: 6097 ef3d 6fbb 043e 648c b7be d2de 60be
000000c0: 1207 ba3d 32b4 24bf 1c61 0cbf 19df 12bf
000000d0: 4529 643d a6b1 d13d 6004 a53e d868 3f3e
000000e0: 1942 50bd 25af 6d3e 7fa7 133e 4d68 343f
000000f0: 53a9 e5bd e3f9 073c 14de fa3e f875 fdbd
00000100: 74a5 7d3f e47d 16be 7261 24be 3cb4 4abe
00000110: 0e56 0cbf b28c 68bd ab71 983d 3809 873e
00000120: 3539 c2bd 163e 303d 308c b3be 0762 f8be
00000130: 7a0e b6bd c355 cc3d 37b4 5dbc 1810 893b
00000140: d76e fdbe c075 c93d 2558 bfbe e596 8abe
00000150: 5199 8c3e 6861 c2bd b153 42bf 2327 913e
00000160: d2e8 0abd 2b87 aa3d e038 4a3e f69b 18bd
00000170: ecfb dc3d c614 e2be 3ee3 bf3e c2c8 373e
00000180: 4e14 30bd 735b c13e 0cce 31bf 9633 68bd
00000190: 5e71 3ebe 8e13 673d c0dc ce3e ccf7 183d
000001a0: c4b3 2dbe 6213 debc 8c18 2f3e f2fa d13e
000001b0: 1b0b 06be b201 54bc 3003 7fbe 6f27 e03e
000001c0: f2c5 f7be 8188 1d3e fca0 ca3d 3fab fe3e
000001d0: be42 2f3e 46fd df3e 8601 153f a4d7 a83e
000001e0: 7299 c2be 7eb8 eabd a3f2 79be e19a cdbd
000001f0: 7487 ed3e 0a33 12bd e578 9c3e c709 b73e
0.40480998 0.026759472 0.060939424 -0.1365552 -0.31263462 0.18436576 0.7668334 -0.12629148
0.77368844 0.2596074 0.27613616 0.6794672 -0.5003613 -0.35861963 0.35632566 0.051303945
-0.10221 0.019459559 -0.48695505 -0.2683804 -0.4594412 0.21372353 0.8122827 0.19078302
-0.6267654 0.036404796 0.29180264 -0.26412702 0.058992494 -0.076989904 -0.5544435 -0.002378856
-0.14618415 -0.06167367 0.33903447 0.24344102 0.07476713 0.03071968 -0.15696898 -0.6603352
-0.12499959 0.015538131 0.03164763 -0.3843287 0.11698794 0.12962125 -0.35849297 -0.21959999
0.0908338 -0.64337456 -0.5483568 -0.5737167 0.05570342 0.10238962 0.322299 0.18692338
-0.050844286 0.23211344 0.14419363 0.7047165 -0.11213937 0.008299324 0.48997557 -0.123760164
0.99080586 -0.14696461 -0.16052797 -0.19795316 -0.5481881 -0.056774803 0.074435554 0.2637422
-0.094835676 0.04302796 -0.35067892 -0.4851229 -0.0888948 0.09977295 -0.013531736 0.0041828267
-0.49498627 0.09836912 -0.37371936 -0.27068248 0.2746072 -0.09491235 -0.7590895 0.2835017
-0.03391344 0.083265625 0.19748259 -0.03725811 0.10790238 -0.44156474 0.3747806 0.17947677
-0.042988114 0.37765083 -0.6945503 -0.05668982 -0.18597934 0.056415133 0.40402794 0.037345693
-0.16963106 -0.027108852 0.17099208 0.4101177 -0.13090174 -0.012939857 -0.2490356 0.43780085
-0.48393208 0.15384103 0.098939866 0.49740025 0.17115304 0.4374792 0.5820545 0.3297702
-0.38007694 -0.1146097 -0.24408965 -0.100393064 0.46392405 -0.035693206 0.30560985 0.35749647

neighbor_encoder_1.bias f4 [32]
00000000: f932 733e b23d 1abf 2297 8ebe 39e7 3ebf
00000010: 1963 cb3f 30bb d53d d46a 21bf c93d 5f3f
00000020: c6b8 1b3f 4a0a 58bf 57f2 9c3f 517a 6c3f
00000030: 4a4e 33bd 69fb 7f3f c785 99bf ea3a 933f
00000040: 4846 01bf d048 fe3e c24c ca3f 7990 d23f
00000050: c5bb f2be db2c 123f f3dd 623f fea6 31be
00000060: f109 28be 1237 b93f a630 a03f 5e6d bd3f
00000070: f400 50bf cce1 dc3e 78ba ab3f 4fe9 e63e
0.23749913 -0.6025039 -0.2784968 -0.7457157 1.5889617 0.10436094 -0.6305363 0.8720365
0.60828817 -0.843907 1.2261456 0.9237414 -0.043775834 0.99992996 -1.1993951 1.1502354
-0.50497866 0.49664927 1.5804675 1.645034 -0.47408882 0.57099694 0.8861992 -0.17348859
-0.16410042 1.4469931 1.2514846 1.4799001 -0.81251454 0.4314102 1.3416281 0.45099875

neighbor_encoder_2.weight f4 [16, 32]
00000000: a64e 5fbc bda9 f83e fbbf 363f ba22 0ebe
00000010: a7a1 94be 3cd0 ca3e 8a45 8f3e ea50 873c
00000020: 4b92 a53e 0973 e83c d678 8fbe fe2a 91bc
00000030: 4cb1 c03e 0359 66be f9e9 16bc 45fb dfbd
00000040: 4a48 a43e 5b76 3c3d 65f2 20be 7a0c 2ebe
00000050: 7c56 843e ff25 063d 10d0 51be 21a0 573d
00000060: f2cd 6d3e 3cb0 a2be 7702 b7be cfc2 2a3d
00000070: ea51 ab3d 68b9 1f3e 9b10 8fbe b2b6 ac3e
00000080: 8c53 00be fada f73e 3758 4a3f 7416 cdbe
00000090: 28ae 4d3d 1c41 bf3e 8509 713e eb05 913c
000000a0: 3fe7 883e ef6e fdbe beb6 19bd 17cd 0d3e
000000b0: 466d 2abd dcf8 383d b7d7 053d 1d1b c2bd
000000c0: c5e5 ac3e 0027 dcbc 7d76 17bd bb07 2e3e
000000d0: 40d4 9d3d aeb4 533e 9050 47be 2fa5 5dbe
000000e0: dc87 313f 347e 35be 84a8 72be 29c5 513e
000000f0: 8c3e ac3d 95d1 d53d e6be 753e 1cf6 063f
00000100: cd95 803e db0a 413e 6b2e 4e3c fecc 463e
00000110: 9120 12bf e222 19be c6a9 5ebd 4fb6 61bf
00000120: cacd 16be 5bf9 0c3e 6eff 71bf d081 0cbf
00000130: 0065 353e 1b74 29bf 6cb2 6fbd e436 efbe
00000140: 2b58 3c3f 3650 bbbe 97fe 49bf 0874 28bf
00000150: 8528 d23e f7aa 5bbe bd46 13bf de6f 613e
00000160: 90cb 0abe 5431 27bf bb21 40bf c543 14bf
00000170: 9ac1 e13d d80a 42bc 0055 6cbf 6a23 b1be
00000180: 8d88 1ebd e9a1 df3e 7bbd a4bc 2192 473d
00000190: 3585 23bf c6e0 173e 6f4b 043e 3479 16bf
000001a0: a906 8d3d 47b1 0ebd c95d 42bf 60c5 02bf
000001b0: b329 b73e d606 f4be 0fdf c7bd a6f1 f2be
000001c0: 693d 083f a0c6 0bbf 67a9 14bf a48f 07bf
000001d0: 441b 3a3e 8500 fdbe 50b4 0dbf bc9e 8fbd
000001e0: 4e47 c13c dbb7 49bf 13ba 4dbf 028f 32bf
000001f0: f39e f83d 357d 40be f299 06bf 4853 d1be
00000200: ae9a f43e d34e 28bf e9e6 f2be 2738 48be
00000210: 1d68 77be c081 f4be 65b1 f1be e311 9e3e
00000220: 9fda ecbe aa17 2fbf a4c0 7ebe 1388 c23e
00000230: 5521 89bf c5f6 22be f8fe fbbe cb7b afbe
00000240: 6c05 7bbe 8438 2e3e d64d 2fbe 4d87 8cbe
00000250: 4669 37bf 0c08 d43e e199 13be 683a aa3e
00000260: 0656 36bf f224 f3bc 6a6a 37bd 98f3 77be
00000270: 1911 f2be cbfd 81be 281f d2bd 0ecd 6abd
00000280: de12 a0bd 5387 37bf aa7f 3dbf 25cd af3e
00000290: ea6d 983d 2f38 0cbf 1782 88be b596 963d
000002a0: e93d c3be aa9c c63e 16e9 e63e 70c0 3a3e
000002b0: 8bec f6bd 7d67 d73d e2ab 25bd baa5 ddbd
000002c0: 24a8 06be 1fff 203c 3343 403e a66a 35bd
000002d0: 6083 9e3d 7e45 1d3d f421 df3e 351a 523e
000002e0: d0d1 23bf aee4 f23e 3e15 ce3e a4cd 693c
000002f0: 2205 1abd 7335 9abe a0ef 213e 13ea 00bf
00000300: 6e79 99bd 1cb9 10bf 1fe4 fdbe 3cf6 3fbe
00000310: c527 2fbd 9d58 a0be 3aef 16bf 8909 dc3e
00000320: cf6c eabe fc5b 5abe 5320 a1bd b558 f43e
00000330: 2340 7ebf 10a6 6abe d172 99be 302f 7ebe
00000340: aee8 51bf ff01 8a3e 393e c2bd 6802 7cbe
00000350: cfa4 58bf 90e5 cb3c 1f5e 77be d08a 70be
00000360: 9724 32bf 26a8 82be a8ea b43b c3ee 83be
00000370: db1e d9be 7042 28be c47e 003c 2f99 06bd
00000380: fdca c13d 76af c2be d5a3 48be ad27 bc3d
00000390: f94c 243f e324 423e 2622 b83d 7a99 3b3f
000003a0: 1587 063e 2519 d2bd 0a44 443f 8591 0e3f
000003b0: 461b 07bf 9e3b 083f 97b9 f3bd 121e e73e
000003c0: 175a 54bf 7f0f 163f 6ce7 333f 654f 303f
000003d0: b6f5 8abe 74d5 d43e 45c1 343f 68c6 c5bd
000003e0: 5eea 63bd 84c2 3f3f 7f3e 313f b870 073f
000003f0: 29ed 01be 96e3 b53e 4999 153f 1ba7 cf3e
-0.013629591 0.48567 0.7138669 -0.13880435 -0.2902958 0.39611995 0.27982742 0.016518075
0.32338175 0.028375166 -0.28021878 -0.017720696 0.37635267 -0.22494893 -0.009211057 -0.10936598
0.32086402 0.04601131 -0.15717466 -0.16996947 0.25847232 0.03275108 -0.20489526 0.052642945
0.23223093 -0.3177508 -0.35744068 0.04168969 0.08365233 0.1559807 -0.27942356 0.33733135
-0.1253187 0.48409253 0.79040855 -0.40056193 0.050214916 0.37354362 0.23538788 0.017703017
0.26738927 -0.49498698 -0.037527792 0.13847767 -0.041608118 0.045159206 0.032676425 -0.09477828
0.3376905 -0.026874065 -0.036978234 0.16995136 0.07706499 0.20674393 -0.19464326 -0.21645044
0.6934793 -0.17723924 -0.23697096 0.20485367 0.08410367 0.10440365 0.23998603 0.52719283
0.2511429 0.18851797 0.012584309 0.19414136 -0.5708094 -0.14954713 -0.054361127 -0.88168806
-0.1472694 0.13766997 -0.9453038 -0.5488558 0.1771431 -0.6619279 -0.058519766 -0.46721566
0.73572034 -0.36584634 -0.789041 -0.6580205 0.4104654 -0.21451937 -0.57529813 0.2201533
-0.13554215 -0.65309644 -0.7505147 -0.5791591 0.11023255 -0.011843406 -0.923172 -0.3459733
-0.038704444 0.43678215 -0.020109883 0.048723344 -0.6387513 0.14831838 0.129194 -0.5877869
0.06886036 -0.034837034 -0.75924355 -0.5108242 0.35774 -0.47661465 -0.09759342 -0.47449988
0.53218704 -0.5459995 -0.5807099 -0.52953553 0.18174464 -0.4941446 -0.5535326 -0.07012698
0.023593571 -0.78796166 -0.8036205 -0.6974946 0.12139692 -0.18797763 -0.5257865 -0.4088385
0.4777426 -0.65745276 -0.47441795 -0.1955267 -0.2416081 -0.4775524 -0.47205654 0.3087302
-0.46260545 -0.68395483 -0.24878174 0.3799444 -1.0713297 -0.15914448 -0.49217963 -0.34274134
-0.24513787 0.17013747 -0.17119536 -0.27446976 -0.7164501 0.4141239 -0.14414169 0.33247685
-0.7122501 -0.029680703 -0.04477922 -0.24214017 -0.4727867 -0.2538894 -0.10259849 -0.05732446
-0.07816099 -0.71690863 -0.74022925 0.343362 0.074428394 -0.5477323 -0.2666175 0.07352964
-0.3813317 0.387914 0.45099705 0.18237472 -0.12056836 0.10517786 -0.040447123 -0.108226255
-0.13150078 0.009826451 0.18775634 -0.04429116 0.077399015 0.03839635 0.43580592 0.2051781
-0.63992023 0.47440094 0.40250582 0.01427022 -0.03760255 -0.30118904 0.15814066 -0.5035717
-0.07493864 -0.56532454 -0.49588105 -0.18746275 -0.042762537 -0.31317607 -0.5895878 0.42976025
-0.4578614 -0.21324152 -0.078674935 0.47723928 -0.99316615 -0.2291491 -0.2997041 -0.24822688
-0.81995666 0.26954648 -0.09484524 -0.24610293 -0.8462648 0.024889737 -0.24156998 -0.23490453
-0.6958708 -0.25518912 0.0055211373 -0.25768098 -0.42406353 -0.16431594 0.007842723 -0.03286093
0.09462545 -0.3802449 -0.19593747 0.09187255 0.6417995 0.18959384 0.08990888 0.7328106
0.13137467 -0.10258702 0.7666632 0.55690795 -0.5277599 0.5321597 -0.11900633 0.4514013
-0.82949966 0.58617395 0.70274997 0.68871146 -0.27140588 0.41569102 0.70607406 -0.096569836
-0.05564343 0.7490618 0.69235986 0.5290637 -0.12688126 0.35525197 0.5843702 0.4055718

neighbor_encoder_2.bias f4 [16]
00000000: 3aae 7cbe 7122 4abe 1304 7ebf 0328 8cbf
00000010: 3302 d8be a4ac e23d b6c0 acbc dd20 773f
00000020: 3159 1f3f e16e 30bf c5d7 343f d305 a1bf
00000030: 4f5e 9d3f 9de7 19bf 454c 57bf 9d35 9c3e
-0.24675837 -0.19739701 -0.99224967 -1.0949711 -0.42189178 0.11068085 -0.021087985 0.9653452
0.6224547 -0.6891919 0.7064174 -1.2579902 1.2294406 -0.6011904 -0.84100753 0.30509654

linear1.weight f4 [64, 34]
00000000: fd13 ea3c 1b3c e03e 97f1 79be 7c83 d4bd
00000010: 58e1 08be 723b ef3e 8ac4 9b3e cc16 b73d
00000020: 3148 8c3d 4d2a 653e 30da a23e c016 353e
00000030: ea8f 9fbe dd9a 323e a442 473e 6fec 1a3f
00000040: 9069 413f 33b6 083e c91f 79bd 143d 1e3e
00000050: 8554 69be 3bf8 2ebf d39a 24be ea5f 4dbe
00000060: 03c0 fdbd f1b8 913d 384e 91bd 09e0 933d
00000070: ef33 63be 1f85 433e 7d8a 883d 6c80 e6be
00000080: 6592 3d3e 9827 8ebd e915 00be 4d0d 203f
00000090: 7b61 28be 84b3 293e 3c4f 09bf 1791 363f
000000a0: 06c8 8b3e 9397 423e 2082 fcbc 5791 3e3e
000000b0: 9381 8b3e 562d 013f 9744 c2be e38c d53e
000000c0: bbd5 8f3e a9bd 063f 5406 a03e 71f8 fabc
000000d0: 3777 8b3e a8c2 2e3c d863 623e 9bfc e1be
000000e0: 7e13 d7bc d2ab 9ebe 6e6c 95be dd13 8f3e
000000f0: a381 27be 1284 bd3e 79ce f2be 9ad1 b73e
00000100: f7ce 413e 400a c4bc 1ab1 aa3e a7d0 29bd
00000110: e74d 053e a4af 103f de4f b33d 8c62 69be
00000120: 6e03 54bd d7f8 013f ce1f 323e 1ee0 dabd
00000130: c5a4 e03d 0cd5 4a3e cfea 09be 938b 593e
00000140: f60b f03d 6482 843d 73ed 173d ebba 523e
00000150: e8a4 e43d 803e 863d d5c2 053f 2b0c bb3e
00000160: 1cea b73e 3aa6 90be 076c ce3d 4b4b f5be
00000170: 4ec6 c3be 9920 7e3e 4ce4 f1be 9ea4 2e3f
00000180: f79b 54bf 8606 d73e 0039 1a3f 5993 dd3c
00000190: 6861 d7be 4d74 a0be c48f febd 5d42 7e3e
000001a0: 3022 0dbe 0ec1 e53d fb66 16be 0a18 c63e
000001b0: 6f88 1b3e 051b b53c 63be 14be a4fd 153e
000001c0: 9d2a a43e 8efe fe3d b32e 1abe 79dc 383d
000001d0: f1d6 8f3d aae6 9b3e 2ead fc3d c6a0 58bd
000001e0: 0cf8 2d3d bfcf 1b3e 3fd3 2c3e 15ad fdbc
000001f0: 8030 943e c91c 43bd 6b0a a7bd fb6e 54be
00000200: 6e83 52bd ce3b 813e 3e4c 6dbe 44a8 af3d
00000210: 48d5 5e3e 463b e9bc 794a 8f3d c97a 853e
00000220: 5e76 a9be ba88 c1be d0fd 573f 85fc 3cbf
00000230: 2e3b 19be 5984 d8be 3b24 ba3d 1b44 f2be
00000240: b390 b73e cec2 84be de26 edbe 5e72 8c3e
00000250: 2300 673e 6898 74be f654 0ebf dfb9 473b
00000260: d9c4 3b3e bb58 3abe 0552 80be aa10 1bbf
00000270: 1e2f 733e da3a 7b3e 0f19 b43e 4c05 303e
00000280: 79d9 8b3e dd38 71be 9eee d43e fbd9 b7be
00000290: 917a b93e ce70 7d3e 27c4 34be 2aaa 7e3e
000002a0: 6e53 643e 627d a7be 8785 0cbe ad50 b03e
000002b0: f17e 793e 8dcc 98be 9a7e b4bd cfd1 3e3e
000002c0: b424 b8be ad8d 5abe 2dce e13e a21a a5be
000002d0: d438 bc3c 5644 86bd cbf7 563d b165 24be
000002e0: b9df 45be 6ecd d0bd 1dbb 61be a9c7 1ebf
000002f0: 52a5 273e 1a71 3fbb d4af 1f3f c371 a13e
00000300: cd4e 073f 13ee e5bc c7ed ac3e 81ff c93e
00000310: f2d4 df3d 0c9f 79bd 6780 393d c2dc 303f
00000320: c32a d8bd 3c5d 983e d598 8fbc 900c 223e
00000330: 9b8b 253e 053c 9abe ce23 2e3e 3469 0cbe
00000340: 02e4 183e c66a b3bd 57d2 5dbe 7088 e53d
00000350: 0b36 283e f182 83be cdda 29be 061a 01be
00000360: cff6 f4bc 054c 423d 0aa9 3ab9 9659 80bc
00000370: e7cf 893e 66d1 cb3e 81b4 af3e 8f79 8d3e
00000380: d1a1 d53c 0d01 7abe 14b1 c0be 48b1 80be
00000390: 73cf 9bbd 5bd3 bcbd 5bc9 c5be 6553 0c3d
000003a0: fd72 4ebe c207 533d 90d7 a73e aa9b 79be
000003b0: f33b b2be 6c94 49be 1f67 21bf c734 c53d
000003c0: 4f1b 53be 84bc d03e eaa2 fbbc 44af 3e3e
000003d0: cb0c 20bb 6c55 b33e b108 70be 7e07 083e
000003e0: 6214 d43d 1990 1dbd 60ca 353d 8bf7 9a3e
000003f0: dd6a 993d ac87 21be 826b 73be 008d 433e
0.028573984 0.43795857 -0.24408565 -0.10376641 -0.13367212 0.4672504 0.30423385 0.08939895
0.06849707 0.22379418 0.3180709 0.1768446 -0.31164485 0.17441888 0.19459015 0.6051702
0.755517 0.13350753 -0.06082133 0.15452987 -0.22786148 -0.6834752 -0.16074686 -0.2005612
-0.12390139 0.07115353 -0.07094997 0.07220466 -0.2218778 0.1909375 0.066670395 -0.45019853
0.18512876 -0.06941146 -0.12508358 0.62520295 -0.16443436 0.16572386 -0.5363653 0.7131514
0.27301043 0.19003133 -0.030823767 0.1861013 0.27247295 0.504598 -0.37942955 0.4170905
0.2809275 0.5263315 0.31254828 -0.030636044 0.2723939 0.010666527 0.221084 -0.44138035
-0.026254412 -0.30990463 -0.29184288 0.27944842 -0.16358046 0.37014824 -0.4742315 0.359021
0.18926607 -0.023930669 0.33338243 -0.041458752 0.13017999 0.56518006 0.08755468 -0.22791499
-0.051761083 0.50770324 0.17394945 -0.10687278 0.10968927 0.19807833 -0.13468479 0.2124465
0.11721031 0.064701825 0.037091684 0.20579116 0.11164266 0.0655489 0.52250415 0.3653272
0.359208 -0.2825182 0.10079198 -0.47909006 -0.38237232 0.24817123 -0.4724449 0.68219936
-0.83050483 0.41997164 0.60243225 0.0270478 -0.42066503 -0.3133873 -0.12429765 0.24830003
-0.13782573 0.11218463 -0.14687721 0.38690215 0.15188764 0.02210761 -0.14525752 0.14647537
0.3206376 0.12450896 -0.15056877 0.045132134 0.07023419 0.3044942 0.12337719 -0.0528877
0.042472884 0.15215968 0.16877459 -0.030966321 0.28943253 -0.047634874 -0.08156284 -0.2074546
-0.051394872 0.2524094 -0.23173615 0.08577016 0.21761048 -0.028470647 0.069966264 0.2607024
-0.3309812 -0.37799627 0.8437166 -0.73822814 -0.14963982 -0.42288473 0.09088942 -0.47317585
0.35852584 -0.25929874 -0.46318716 0.27431005 0.22558646 -0.23886263 -0.5559839 0.0030475778
0.1833681 -0.1819791 -0.25062576 -0.605723 0.23748443 0.24534169 0.35175368 0.1718952
0.27314356 -0.23556848 0.415883 -0.35908493 0.36226323 0.24750063 -0.17652951 0.248696
0.22297451 -0.32712847 -0.13722812 0.3443655 0.2436483 -0.2984356 -0.0881321 0.18634723
-0.35965502 -0.21343108 0.44102612 -0.32246882 0.022976317 -0.06556003 0.052482408 -0.16054417
-0.19323625 -0.101954326 -0.22044034 -0.6202341 0.16371658 -0.00292117 0.6237767 0.31532106
0.52854615 -0.028067624 0.3377516 0.39452747 0.10929288 -0.060942695 0.04528847 0.6908685
-0.10555031 0.29758632 -0.01752893 0.15825105 0.16166537 -0.30123916 0.17005846 -0.13712007
0.14930728 -0.087606 -0.2166227 0.11207664 0.16426866 -0.25685838 -0.16587372 -0.12607583
-0.029902844 0.04743578 -0.00017801314 -0.015667718 0.2691643 0.39808196 0.343174 0.27631804
0.026078137 -0.24414463 -0.376351 -0.25135255 -0.07607927 -0.0922 -0.38630185 0.03425922
-0.20161052 0.05152107 0.3278165 -0.24375787 -0.34811363 -0.19685525 -0.63047975 0.09629207
-0.20615886 0.40768826 -0.030717332 0.18621546 -0.0024421688 0.3502611 -0.23440816 0.13284108
0.1035545 -0.0384675 0.044382453 0.30266985 0.07491086 -0.15774411 -0.2377148 0.19096756

linear1.bias f4 [64]
00000000: 431f 48be 8748 11bf c459 4fbf 7a8a 53be
00000010: 2822 253f c407 1abd a010 98be 46da 883f
00000020: f270 bbbd d916 3abf 70e2 193f b514 2a3f
00000030: 7fc3 3abf 2186 3fbf a6d6 403f 4ece e1bd
00000040: 8422 0dbf ac20 7f3e 4727 26bf 03b9 4dbe
00000050: 623a 0cbf 3d58 38bd 35ea 85be f857 98be
00000060: af8e 0cbf 41b3 e1bd 8e93 00bf 8d21 05bf
00000070: 89d5 94bd 9ab8 4f3f 9fd9 86be 1f1d 5c3f
00000080: 2335 6c3f 8936 0d3f fd43 65be a093 353f
00000090: 5490 41bd d680 ddbb 869c 6abf a055 4ebe
000000a0: ac04 14be 4129 e03e 18a4 1f3f 095a c0be
000000b0: dc53 16bf 7748 013f f7e8 d9be e46f aa3d
000000c0: 20d9 bb3e dd3f 9d3e 306b 98be 9afe e4be
000000d0: 0857 21bf 14ec 14bf 1bff 4f3e 591f 06bc
000000e0: 8281 ebbe a183 d9bc 5175 433f fa72 a6be
000000f0: e563 703e 6a2f e53e 6f0e 02bf f87d a6bd
-0.19543175 -0.5675129 -0.80996346 -0.20658293 0.64505243 -0.037605062 -0.29700184 1.0691612
-0.09152402 -0.7269111 0.6011114 0.66437846 -0.72954553 -0.7481404 0.7532753 -0.110256776
-0.5513079 0.24914807 -0.6490368 -0.20090108 -0.54776585 -0.045006026 -0.26155248 -0.29754615
-0.5490522 -0.11020518 -0.5022515 -0.5200432 -0.07267291 0.81141055 -0.26337907 0.85981935
0.9226858 0.5516134 -0.22389217 0.7092838 -0.047256783 -0.006759743 -0.91645086 -0.20149851
-0.14454907 0.43781474 0.6235976 -0.3756869 -0.5872171 0.505012 -0.4256055 0.08322123
0.3668909 0.30712786 -0.29769278 -0.44725496 -0.63023424 -0.58172727 0.20312159 -0.008186185
-0.45997244 -0.026552023 0.76350886 -0.32509595 0.23475607 0.44762737 -0.50803274 -0.081294954

linear2.weight f4 [16, 64]
00000000: a0d4 90be 28fb 8dbe e7d1 95bd 9876 febd
00000010: 0bff 4a3e 595f 353e 1ce2 aebe 9197 2a3e
00000020: 51e4 963b e48b d8be dd8b 00be 4bf6 b13d
00000030: 871b d2be 331e aabd 0e9e f3bb bf22 393e
00000040: 6dd1 34bf aa1f c8be dc49 32bf 5baa fa3d
00000050: d20a 8bbe 8333 133e f0ab 8dbe 9be3 abbd
00000060: 221c 3fbe ea2a f0be ddb9 4c3d b964 41be
00000070: eba9 fd3d 8ab3 04be bc63 97be 7fed fd3c
00000080: 2ce3 013d bf41 1ebd 5d2d 6dbd 6cde b83d
00000090: a9d7 cb3e 7acf 523e 9fc4 96bf 7a6e a3be
000000a0: de4c 40bf b763 073e 501d d33d 1986 d2be
000000b0: 02e8 f9bd ff78 943d a15c 80be 1d1b d3be
000000c0: e011 c33d 4768 5ebe ebf1 22bf f84b 8dbe
000000d0: eed7 a3be 0d4a 0fbf 9223 db3d 00fa 603e
000000e0: 2fea c7bd b1eb 083e 008e 5dbe 4bc8 0abf
000000f0: f608 98be 2774 533d 4a22 a6be 5a10 bd3e
00000100: 18e8 e0be 91bb b7be fcb9 08be 73b6 24be
00000110: 7219 c13e a39f 353e 50af 62be 38ce 133f
00000120: 8be4 b43d 03be 9dbe edbd 4b3e 8279 af3e
00000130: 0443 28bf 87ed 31be f123 c23e 4c4a a13d
00000140: ebd7 08bf 9247 2d3e 120a 4cbf dde9 513e
00000150: c4db 7bbe 418f b43e 447a a5be fe99 ee3d
00000160: 8123 c3be 4575 01bf b9b8 f63d 8d07 f8be
00000170: 2e4f 133e 69fb d03b 2791 d9bd f80d 543e
00000180: 1dae 483e 88bf b53e eb01 1cbe 3524 9c3e
00000190: bf71 9e3e f893 883d d5bd 88bf 8592 76be
000001a0: 22b1 ebbe 947e da3e 0523 a53e 4b63 1ebf
000001b0: da12 2cbe 074d 9b3e add0 40be 1797 363e
000001c0: f333 a93e 64a1 903e 2848 8bbe e3c9 dbbe
000001d0: 3139 f3bd 0e7d 0dbf e3dc 3b3e c870 8e3e
000001e0: bc27 15be 61e3 7f3e 379e 3d3e bc68 f8be
000001f0: a76f e6bb eda3 483e 28d1 25bf 8bdd a33e
00000200: 1768 61bd 559c 16be 0630 fe3b 3a33 53be
00000210: 0b03 acbd 2007 71be 3d85 783e 0870 643e
00000220: 3ef3 b03d c2ef 73be 2259 b4bd beed 5cbe
00000230: 0aff 9f3e cc2a eebd 81e0 abba ecaf 8bbd
00000240: b7e7 04be 2306 da3d a812 76be ff90 0ebe
00000250: 56c3 403c 8fb4 32be a657 a4bd 2178 d63e
00000260: 5465 793d 1cab 87bd 2f22 813e 7e55 00be
00000270: dc85 073e 3950 49be 1d69 063e 8b17 3ebe
00000280: c9ba 3ebe 05da 833b 0038 0dbe 0812 2bbc
00000290: a6fd fbbd 80d5 14be 7670 abbd aba0 99be
000002a0: 29d5 8ebd 58b9 a2bd 5c71 7cbe 7b88 1fbd
000002b0: c4e8 edbd 25ad 3cbe 5dae ab3d 91b3 063d
000002c0: bc94 383c dffc b8be feb0 6ebc e32e 3dbe
000002d0: 5d94 e83b 3226 d73d 5a3d 2abe bb93 35bd
000002e0: a696 42bd 294a 89bd dfd6 3bbe bec8 4d3d
000002f0: 9570 f8bd a1d5 bb3b 7c8b 99bd 50fe 2e3d
00000300: ae6c 05be 367f dd3b 6ece 9a3e be1c be3d
00000310: 0b5e da3c 60cd 63bd b9c4 8f3e 7b67 c2be
00000320: c195 473d ea4c b83d 1afd ec3d 6873 53bb
00000330: 001f 35be 3a6f 773d acce 0fbe 1aa3 e7bd
00000340: a9fa 4ebd 2d93 35be c677 15bd f25c 8cbe
00000350: 554d e73b 6c07 58bd 18c7 c5bd 7dee 953d
00000360: 8b20 0cbe 4b33 5b3d 106c 3b3e 0ca5 0f3d
00000370: e1a4 9b3e 0444 c43d b562 a63c 5b29 8f3d
00000380: 5509 acbd 72d6 053d d773 db3d 94aa e5bc
00000390: 7538 b3bd db89 a0bd d73b 11be 9766 cc3e
000003a0: 8c62 b3bc bf39 b6bd 0140 49bc 6ee8 323e
000003b0: a911 95bc 093b 803d 7053 3abc ba23 ac3c
000003c0: 1b2d 58bd 8b86 d13d bacb 90be aacd 86bc
000003d0: b9b7 c73c 8d6c d4be ca60 283e dba7 10be
000003e0: 748e 873e 85a8 a6be ad5f a7bd 0112 a1bc
000003f0: 4493 e8bd 37f9 e6bd 21da 0b3c 19e9 42be
-0.2828722 -0.2773068 -0.07315426 -0.12424964 0.19823854 0.17712153 -0.34156883 0.1665938
0.004604854 -0.42294228 -0.12553354 0.08689555 -0.41036627 -0.08306541 -0.007434613 0.18079661
-0.7063206 -0.39086658 -0.6964395 0.12239524 -0.27156693 0.14375119 -0.2767024 -0.08393022
-0.18663076 -0.4690774 0.04998194 -0.18886079 0.12385925 -0.12959114 -0.2956828 0.030997036
0.03171079 -0.03863692 -0.05790459 0.090267986 0.39812973 0.20586959 -1.1778754 -0.31920224
-0.7511729 0.13221632 0.10308325 -0.41117933 -0.12202455 0.07249641 -0.2507067 -0.41231623
0.09524894 -0.21719466 -0.6365039 -0.27597022 -0.3200068 -0.5597237 0.10700144 0.21970367
-0.09761464 0.13371159 -0.216362 -0.5421187 -0.29694337 0.051624443 -0.32448035 0.36926538
-0.43927073 -0.3588529 -0.13352197 -0.16085224 0.37714726 0.17736678 -0.22137189 0.5773654
0.088326536 -0.3080903 0.1989667 0.3427239 -0.6572726 -0.17375766 0.37918046 0.07875499
-0.53454465 0.16921833 -0.79702866 0.20499368 -0.24595553 0.35265544 -0.32319844 0.116504654
-0.38113025 -0.50569564 0.12046952 -0.4844326 0.14385673 0.0063776267 -0.10623389 0.20708454
0.19597669 0.3549769 -0.15235107 0.30496374 0.30946156 0.06668848 -1.0682932 -0.2407933
-0.4603358 0.42674696 0.3225328 -0.6187026 -0.16804066 0.30332205 -0.18829603 0.17831074
0.33047447 0.2824813 -0.27203488 -0.42927465 -0.11876143 -0.55268943 0.1834598 0.2782042
-0.14565939 0.24989082 0.18517385 -0.48517406 -0.007032353 0.19593783 -0.6477227 0.3200496
-0.05503091 -0.14708073 0.0077571897 -0.2062501 -0.08399018 -0.23537874 0.24269576 0.22308362
0.08640145 -0.23821929 -0.08806063 -0.21575066 0.31249267 -0.116292566 -0.0013113172 -0.06820664
-0.12979017 0.10645702 -0.24030554 -0.13922499 0.011765322 -0.1745169 -0.0802453 0.41888526
0.06088765 -0.066244334 0.25221393 -0.12532613 0.13234657 -0.19659509 0.13126035 -0.18563668
-0.1862594 0.0040237927 -0.13790894 -0.010441311 -0.12304239 -0.14534569 -0.083710596 -0.30005392
-0.06974251 -0.07945508 -0.24652618 -0.038948517 -0.11616662 -0.18425424 0.083828665 0.03288609
0.01126593 -0.36130425 -0.014568565 -0.18474917 0.0070977644 0.10505332 -0.16624966 -0.04433034
-0.04750695 -0.06703598 -0.18343686 0.05024027 -0.12130848 0.0057322537 -0.07497308 0.042723
-0.1302974 0.0067595495 0.30235618 0.09282826 0.026656171 -0.055615783 0.28079775 -0.37969574
0.0487268 0.08999045 0.11571713 -0.0032264832 -0.17687607 0.06040881 -0.14043683 -0.11310406
-0.050532017 -0.17731924 -0.036491178 -0.27414662 0.0070587792 -0.052741453 -0.09657115 0.07320879
-0.13684289 0.053515714 0.18302941 0.03506951 0.3039923 0.095832855 0.020310739 0.0699031
-0.084002174 0.032675214 0.10715454 -0.02803544 -0.08751003 -0.07838794 -0.14182983 0.3992202
-0.021897577 -0.08897733 -0.012283326 0.17471477 -0.018196898 0.0626126 -0.011372432 0.02101313
-0.05277739 0.1023074 -0.2828043 -0.01645549 0.024379598 -0.41489068 0.16443172 -0.14126532
0.2647587 -0.32550445 -0.081725456 -0.019661905 -0.11356214 -0.11278003 0.008535893 -0.19034232

linear2.bias f4 [16]
00000000: c379 c33e a550 3a3f 79cf a23d a2c3 44be
00000010: acc4 b43d a90f a63f 1967 9fbe e07c bb3b
00000020: e243 213f a651 1e3f 7381 35bf 66da 06be
00000030: 6df9 823f 2785 38be 24fb 1cbf 95b1 cbbe
0.38178834 0.72779304 0.079497285 -0.19215253 0.08826575 1.2973529 -0.31133345 0.0057216734
0.62994206 0.61843336 -0.7090065 -0.1316925 1.0232369 -0.18019544 -0.6132071 -0.39783922

linear3.weight f4 [1, 16]
00000000: 5d2d 7c3b 2e88 b33e e575 c2bd 74f5 56be
00000010: 1118 22bf f95d 263e 7627 b7be 7c53 78be
00000020: aa78 3d3f 766a 6d3e 0734 83be d55e ba3d
00000030: 4fd3 083f e8d9 cc3d 994f 3fbf 4f34 403e
0.0038479187 0.35064834 -0.09495143 -0.2099207 -0.6331797 0.16246785 -0.35772294 -0.24250597
0.74012244 0.23185143 -0.2562563 0.09100119 0.5344743 0.100025 -0.7473083 0.18769954
