gym_pybullet_drones/examples/models/critic_gnn_4drones_1.pkl (torch, 24470 bytes, 13 tensors)

self_encoder_1.weight f4 [32, 8]
00000000: de94 b3be 08b4 683f c77e fd3d 7407 c63e
00000010: fa15 5cbf 50a4 5f3d 39f4 d33d 9183 8d3f
00000020: 1559 e8be 92b0 913f 9ddd 853d 8e60 cb3e
00000030: 744b dabe 10c7 353e c5c3 fcbd a518 06be
00000040: c0cd abbe a3ed 663f 71cb 9bbe b7a8 8cbf
00000050: 6770 f5be c881 9e3f 337c 82bd cfbe 0abd
00000060: b97b 34bf ca0d d73e 8d7c 25bf acd9 953e
00000070: a781 23bf 9c4d 943e c06b 89bd 5caf 31be
00000080: ca47 353f 9051 443d d740 35be e5d2 8e3e
00000090: 7981 053f cc57 9ebe f419 02bf c3f3 febd
000000a0: 4038 5cbf 19e9 3abf 87a3 bcbe c68f c93e
000000b0: e1ec 643f cdd0 ffbd 321e 17bf d6c9 1abe
000000c0: e019 d23f 6878 04bf 9797 5e3f ca2d f43e
000000d0: 1b30 ec3d 90e3 18bf 5753 b03e ce39 2fbf
000000e0: 59d8 1d3f fda3 fbbe 886a 2d3d 5dbb debe
000000f0: d9a9 683f 7cc8 fcbe dd18 b73d bb64 a4be
00000100: 9c12 13bf dfcf 453e a9e5 aabf c1ca 843e
00000110: be18 fbbe fd0d c1be d191 a03e 1fc2 853e
00000120: 563a d83e b5c5 823f b1cc 583f f2d9 a33f
00000130: 03c8 98bf 24f8 1d3f 470e 16be d511 d63e
00000140: d37c 563e bec2 c5be 42f3 dabe 5cfd b7be
00000150: 5fed fe3e 033e 37bf 2240 7f3f 4cfc 0d3f
00000160: af34 e93d f15e 073e 2631 5fbf 66fa 333e
00000170: 59df 9e3e 7bfe 113f 8c4b b43f 9cab 26bf
00000180: 0ea7 86bf 61d9 023f 2a54 a0be 7140 24bf
00000190: dbea 453f 8c71 ba3e 1cad 02bf 0612 d4be
000001a0: c87e 413f a96c f0bd cd14 bbbe f8b5 123f
000001b0: a20d 353f 6e30 1ebe 1dc0 7ebe eb99 0cbf
000001c0: d2f6 5ebf 5599 ab3f 80f0 e33e 164d c0be
000001d0: 2a9c a1bd c0ed 94bb 7635 91bf 2ba4 3bbf
000001e0: 2f04 5cbf 7580 b4be dd6f 0e3f ffcc cabe
000001f0: dab5 173f cedb 00bf 9037 c13d 9b73 08bf
00000200: c988 13bf b238 ad3e 7c56 b43e 58ba 253e
00000210: 4a09 053e a6ad f6bf 2d59 ab3e ea8c 8abf
00000220: 307a a93e a079 553f 5ce9 debe 1eae 21bf
00000230: 49d6 5dbf 1114 9fbe 77fd 233e 85b0 213f
00000240: 19f4 e3be 9f17 833e 8e58 cfbc d7a0 563f
00000250: 66b1 523e 5930 e3be 4175 afbf ce26 fe3e
00000260: 256c b9be 9d44 9b3e d4ea c6be 4819 cabe
00000270: e364 33be 0f2e c8be 99ae 97be d2c7 44bb
00000280: ce35 a5bf 9be6 a4be b953 23be 8010 9bbe
00000290: c8e7 f3be a8e5 7cbe 74f4 73bd 8052 babe
000002a0: 3bda 2bbf 813d a93f d691 e53e 5d3f 183d
000002b0: 9588 213f 83b0 633f 935c 9abf 4177 7b3e
000002c0: 4c1a 6e3f a99a d03e aa63 09bf c223 dcbd
000002d0: bc96 213f 5993 0b3f 909e 5ebf 4ea5 773f
000002e0: 1eb8 203f 4481 dabe a4c2 ca3c ce21 43be
000002f0: b080 383e c350 6a3f 6a9b d9bc 8aac 9f3f
00000300: 908c 13bf 758d 9ebf 53b0 323e af20 4bbe
00000310: a9d5 bdbe 26c3 f23e 381c 243f ee56 db3e
00000320: bc96 49bf d313 903f 6179 cc3d 36f1 db3c
00000330: f338 5fbe 793a 21bf 81f9 1ebd 7208 513e
00000340: 1a5b afbf b151 d73e 0571 ed3d eac7 42bd
00000350: 73ef debe e139 09be b8c3 3abf 947c aebe
00000360: f5f3 87bf 9867 643f a2b2 7e3e 66c9 bcbe
00000370: d988 803d bb68 9ebe 1f22 6d3c f8ce 0cbf
00000380: 337b cdbf eff3 30be 95ca fabe 51a5 953e
00000390: cb54 fdbd b459 193e bf85 903e d932 2c3f
000003a0: d709 22bf ab3f bc3f db9a f6be 3bdd 0dbe
000003b0: f6f1 e5be e90b 8dbe a925 e13e f006 fcbd
000003c0: 63c4 01be 5a8b 38bc a502 08bf eb5f 0cbe
000003d0: 1ac3 3d3e 668e fcbc 2188 b63e afc0 6f3f
000003e0: 4cfb 423d 89e0 dabd 8022 0f3d 412f 3b3f
000003f0: 4a66 c6bd 81be 153e 9ad3 113e b08e 1b3f
-0.35074514 0.90899706 0.123776965 0.3867756 -0.85971034 0.05460006 0.10349316 1.1055776
-0.45380464 1.138201 0.0653641 0.39722103 -0.4263569 0.17751718 -0.123420276 -0.13095339
-0.33555412 0.90206355 -0.3042865 -1.0988988 -0.4793732 1.2383356 -0.06371345 -0.033873376
-0.70501286 0.42002708 -0.64643174 0.29267633 -0.6386971 0.2896546 -0.06710005 -0.1735205
0.70812666 0.047929347 -0.17700516 0.27895275 0.52150685 -0.3092636 -0.5082085 -0.124488376
-0.8602333 -0.7301193 -0.3684351 0.39367503 0.8942395 -0.124909975 -0.5903045 -0.15116057
1.6414146 -0.51746225 0.8695006 0.47691184 0.11532613 -0.5972223 0.34438583 -0.6844758
0.61658245 -0.4914855 0.042337924 -0.43502322 0.90884167 -0.49371707 0.08940289 -0.321081
-0.5745027 0.19317578 -1.3351337 0.2593594 -0.49042314 -0.37705985 0.3136125 0.26124665
0.42232007 1.0216585 0.84687334 1.2800887 -1.1936039 0.6170676 -0.14653884 0.4181048
0.20946054 -0.3862514 -0.42763716 -0.35935485 0.49790475 -0.71579 0.99707234 0.554631
0.11387002 0.13219811 -0.8718437 0.17575988 0.31029776 0.5702893 1.4085555 -0.65105605
-1.0519731 0.51112944 -0.31314212 -0.6416083 0.77311486 0.36414754 -0.51045394 -0.4142
0.7558408 -0.11739475 -0.36539307 0.5730891 0.7072393 -0.15448162 -0.24877973 -0.5492236
-0.8709537 1.3406168 0.44519424 -0.37558812 -0.07891114 -0.0045449436 -1.134444 -0.73297375
-0.85943884 -0.35254255 0.5563944 -0.39609525 0.5926186 -0.50335395 0.09434426 -0.533014
-0.5763059 0.33832318 0.35222232 0.16184366 0.12991825 -1.9271743 0.33466473 -1.0824254
0.33101034 0.8338871 -0.43537414 -0.63156307 -0.866551 -0.31069997 0.16014658 0.6315997
-0.4452217 0.2560396 -0.02531078 0.8383917 0.20575485 -0.44372824 -1.3707658 0.4963898
-0.3621532 0.30325785 -0.38851035 -0.39472413 -0.17518954 -0.3909764 -0.29625395 -0.0030026329
-1.2907045 -0.32207188 -0.15949906 -0.30286026 -0.47637773 -0.24696982 -0.0595593 -0.36391068
-0.6712987 1.3221895 0.44837826 0.037169803 0.6309903 0.8894121 -1.2059501 0.2455721
0.93008876 0.40742996 -0.536677 -0.10749008 0.6312063 0.5452171 -0.869607 0.9673661
0.6278094 -0.42676747 0.024751015 -0.19055864 0.1801784 0.9152948 -0.026563365 1.247453
-0.57636356 -1.2386919 0.17450075 -0.19836687 -0.37077072 0.4741451 0.6410556 0.4283976
-0.7874563 1.125605 0.09984089 0.026848417 -0.21799068 -0.6297985 -0.038812164 0.20413378
-1.3699677 0.42054513 0.115938224 -0.047553934 -0.4354206 -0.13400985 -0.72954893 -0.3407942
-1.0621325 0.8922057 0.2487283 -0.36872405 0.062761016 -0.30939278 0.014473467 -0.5500331
-1.6053222 -0.17280553 -0.48982683 0.2922769 -0.123696886 0.14975625 0.2822704 0.6726509
-0.63296264 1.470693 -0.4816502 -0.13853924 -0.44911164 -0.2754815 0.43974045 -0.12306011
-0.12672572 -0.011263693 -0.53129035 -0.13708465 0.18531457 -0.03082962 0.35650733 0.93653387
0.047602937 -0.10687358 0.03494501 0.7311898 -0.09687479 0.14623453 0.14240876 0.607646

self_encoder_1.bias f4 [32]
00000000: 6e54 203f 6d7d 8e3e 77d8 4ebe 3f48 8d3f
00000010: e951 5f3e 224b c4be d478 663e 41ae 253e
00000020: b9e3 3dbf ae10 c3bf b753 1e3f ab69 c83e
00000030: 0869 2fbf d6a6 a43e c1bc 3e3f 0ff0 0ebf
00000040: 544f 393f 4aed 12bd c233 aebe a60c 0dbf
00000050: 7eb0 043f b5ea 663d 8375 42bf 1150 10be
00000060: 894b bc3d 8244 04bf c7e2 6b3f 5ee3 9c3e
00000070: 5e39 37bd 4900 a63e 54a5 803e 4ed5 bcbf
0.6262883 0.27830067 -0.20199762 1.1037673 0.2180859 -0.38338572 0.2250703 0.16179754
-0.741756 -1.5239465 0.6184649 0.39143118 -0.6851964 0.32158536 0.74506766 -0.5583505
0.7238667 -0.035870828 -0.34023863 -0.55097425 0.51831806 0.056376178 -0.7596056 -0.14093043
0.09194095 -0.51667035 0.9214291 0.30642217 -0.044732444 0.32422093 0.25126135 -1.4752595

self_encoder_2.weight f4 [16, 32]
00000000: 5c56 dc3c 7dcf 923f b714 4dbf 5b53 d43e
00000010: bbf2 5a3c 83e2 5ebf c5d0 9e3f 0d13 1a3f
00000020: 35f9 24be c425 4fbf ef59 6d3f dd25 973f
00000030: cd7c a3bd b7fd cd3c cf8b 7ebd 7892 403f
00000040: 64bb b23f 14be 1d3f 4959 8bbd 8e4d 9ebe
00000050: 92ae 3a3f 57d4 953f 0231 c93e ccd7 f83f
00000060: ec18 153f 1107 05bf c98e 073e 572d 4cbe
00000070: 9d28 b03f a6b0 1ebf 986f 413e 02fc 083c
00000080: d1c5 8ebe aa48 e63e b475 fbbe f983 eebe
00000090: 53e9 1bbe a9ea b5be 5847 b63e 76d9 cf3f
000000a0: af4e 2e3f 7170 663d 6dde 993d 434b 0e3f
000000b0: e695 2e3e 6c25 87be a5fe 69bc 9d79 d83e
000000c0: fc97 a33f 49cf 193e 68ff 43bf dbd7 13bf
000000d0: 3145 e83e 9152 433f 9127 163f e850 843f
000000e0: 105a df3e 38d6 85bf d1b3 0ebf 1956 22bf
000000f0: 10b9 183e b5bf 94be 9433 45be 9d46 8fbd
00000100: 78aa 64be f83b ee3e 7b1c e7bd ec7d c63e
00000110: 4748 29be ba10 cbbe e8ae 39bd a410 46bf
00000120: 3cba b23e 7f70 613e 8e21 023f b228 f43c
00000130: 1831 f8be 8706 b63e 0260 a83e 2d75 4abf
00000140: d949 f5bc 9ba8 1fbf 63f5 fcbe 948f ea3d
00000150: 8d95 383f 0b59 97bf d50a 2a3f afee 65bf
00000160: 6538 e4be c6d2 b9be 5d17 c5be e076 2c3f
00000170: 150c 30bf 9aa8 b5be c1b2 2b3e 9304 1ebd
00000180: cac8 19bf 98f8 723f 2698 05be 88d4 843f
00000190: 76e9 48bf c894 bfbe ec66 053f a485 09be
000001a0: 2853 40bf 4dac 47be 9dc8 673e 11ee 1e3e
000001b0: 2103 d9bd 2460 51be b539 6b3f 12ca 9ebe
000001c0: 679f 05be 39e2 62bf 079e d3be cd4d 9cbd
000001d0: 61cc a13f 4f7d 613f 9c64 3fbf 4028 863e
000001e0: b5c1 103e 2e03 2ebf 7b83 bf3f bfce f53e
000001f0: e476 5f3f 75da d6bd 6efb 6d3f 4afe b83e
00000200: 89a3 03bd ef59 5c3f 0ba6 afbf cb8d 563f
00000210: b2d3 1bbf 5808 42bf 26e7 603f 9b55 5bbe
00000220: d0ff b9bf b21d 40bf b0b6 1e3f acd3 ee3f
00000230: 4b36 2dbf 89b3 f0be 3be3 1ebe f6f2 023c
00000240: 79d3 2a3f f5d0 303f f76f 34bf 2dc0 3dbf
00000250: 3b8a 623f a937 063f 14b9 ebbe d663 933f
00000260: 0cc1 6f3f 6872 4ebf 6e27 503e 29cf ba3d
00000270: cb5d 7c3e 56b3 32bf ef17 73be 6e24 14bf
00000280: adb6 9dbf cabd 773f bc0d 04bf 5489 98bd
00000290: 8a6c 49bf 5b30 59be b0b5 263f fbb6 653f
000002a0: 75ea a2be d9f0 d53d 0302 633e a9ab 9ebe
000002b0: a6f9 18bb cb26 d0be a539 9b3f 88de 61bc
000002c0: b26c 583f d61e 60bf 1551 4fbf 37ef e5be
000002d0: 75e2 123f 2aac e03e 936d 9ebf 056c 95be
000002e0: 6e44 35bf 3fab 91bf feb2 b83e c9aa db3d
000002f0: e8ca b13e 9912 90bf 03eb f53e f4c4 8f3e
00000300: 9f6e 283f 701e 02bf b2d4 773f 4a6d 42bf
00000310: a8bb 5c3f ee3f 9c3e 98fe b63d 7db6 0b3f
00000320: da5a 963f 600e 8e3f 4e58 39bf 6fd5 94bf
00000330: 27dc a23e d123 f83e 8e57 723e 6f56 5b3e
00000340: d36c 95bb 242c ac3f fcbd e83e 95a7 d4bd
00000350: 102d 86bf b1fd 173f 5922 693f cacc 0d3f
00000360: b177 e8be 1a0b 5d3f d710 4e3e bedb 2ebf
00000370: afb4 503f 50c3 5b3f 43fc 3abf b47c 99be
00000380: b945 84bf 0aa0 da3e 59ed 32be 2e42 753f
00000390: 09d3 e1bd 3134 30bf 9e45 e43e 338c 18bf
000003a0: bfe9 63bf fb17 bdbe 1f77 073f 46ec 933e
000003b0: 1524 23be e5b4 4f3d 72f2 9e3f e48c 393e
000003c0: 9e8f f43e 0681 fabd 382e a6be 1a5e ffbc
000003d0: 5823 c53e 7b35 4e3f 6ad7 cebe 5034 713f
000003e0: 1870 f5bd 579a 9dbf 2de4 be3f 6cd9 0d3f
000003f0: 4d3a 733f ea92 64bf 163c 0e3f 5573 f93d
0.026896648 1.146957 -0.80109733 0.41469845 0.0133635355 -0.8706438 1.2407461 0.6018532
-0.1611069 -0.80917 0.9271535 1.180843 -0.07982788 0.025145395 -0.06214505 0.75223494
1.3963437 0.6161816 -0.06804139 -0.30918545 0.72922623 1.1705426 0.39295202 1.9440856
0.5824115 -0.5196391 0.13238062 -0.19939171 1.3762394 -0.61988294 0.18890226 0.008360865
-0.27885297 0.44977313 -0.49113238 -0.46585062 -0.15225725 -0.35530594 0.35601306 1.6238239
0.6808881 0.056259576 0.075131275 0.5558359 0.17049369 -0.26395738 -0.014281903 0.42280284
1.2780757 0.1502048 -0.76561594 -0.57751244 0.4536529 0.7629786 0.58654124 1.0337191
0.436234 -1.0455999 -0.5574313 -0.63412625 0.14914346 -0.2905251 -0.19257957 -0.0699589
-0.22330654 0.46530128 -0.11284729 0.38767946 -0.16531478 -0.396612 -0.04533282 -0.7736914
0.3490771 0.2201557 0.5083245 0.029804561 -0.48474956 0.35551855 0.32885748 -0.79085046
-0.02994244 -0.62366647 -0.49405965 0.114531666 0.72103196 -1.1824049 0.6642278 -0.8981733
-0.44574276 -0.3629362 -0.38494387 0.6736889 -0.68768436 -0.35480195 0.16767408 -0.03857858
-0.60072005 0.94910574 -0.13046321 1.0377359 -0.78481233 -0.374182 0.5211017 -0.13429886
-0.75126886 -0.19499321 0.22635122 0.15520503 -0.105963 -0.20446831 0.9188493 -0.31013542
-0.13049088 -0.8862644 -0.41331503 -0.07632027 1.2640496 0.8808183 -0.7476289 0.26202583
0.14136393 -0.679736 1.4962 0.48009297 0.8729079 -0.10490886 0.92961776 0.36131507
-0.03213838 0.8607473 -1.3722547 0.8381011 -0.60869896 -0.7579398 0.87852705 -0.21419375
-1.4531193 -0.7504531 0.6199751 1.8658347 -0.6766097 -0.47011974 -0.15516369 0.007992497
0.6672893 0.69068843 -0.70483345 -0.7412136 0.8849217 0.5242868 -0.4603964 1.1514843
0.9365394 -0.8064332 0.20327541 0.09121544 0.24645154 -0.69804895 -0.23739599 -0.5786809
-1.2321373 0.9677397 -0.51583457 -0.07448068 -0.7868124 -0.21209852 0.65120983 0.8973233
-0.31819502 0.10446329 0.22168736 -0.3099034 -0.0023342161 -0.40654597 1.2126967 -0.013785966
0.84540856 -0.8754705 -0.80983096 -0.4490907 0.57376796 0.4388135 -1.2377189 -0.29183975
-0.7080754 -1.1380385 0.3607406 0.10725934 0.34725118 -1.1255676 0.48030862 0.2807995
0.65793794 -0.50827694 0.9680892 -0.7594801 0.8622384 0.30517524 0.08935279 0.5457533
1.1746476 1.1098137 -0.7240037 -1.1627635 0.31808588 0.48464826 0.23666212 0.2141969
-0.004560092 1.3450971 0.45457447 -0.10383526 -1.0482502 0.5937148 0.91068035 0.5539061
-0.45403817 0.86345065 0.20123611 -0.6830405 0.815257 0.858449 -0.7304117 -0.29977953
-1.0333778 0.42700225 -0.17473353 0.9580411 -0.1102658 -0.6882964 0.44584364 -0.5958893
-0.89028543 -0.36932358 0.5291614 0.288912 -0.15931733 0.050709624 1.2417738 0.18120152
0.4776582 -0.122316405 -0.32457137 -0.0311728 0.38503528 0.80550355 -0.40398723 0.9422045
-0.11984271 -1.2312726 1.4913384 0.55409884 0.95010835 -0.89286673 0.55560434 0.12180201

self_encoder_2.bias f4 [16]
00000000: 7209 04bf adb7 8bbf 15d2 b33f a62f 363e
00000010: 9368 dc3e 36c8 eabe 2369 77bf f4a3 193c
00000020: 8919 d33e b0e4 27bf 8126 d3be 14fe 17bf
00000030: 003c 133f c4ca 07bf 9951 38bf fc25 2dbf
-0.5157691 -1.0915428 1.4048487 0.17791614 0.43048534 -0.45855874 -0.966448 0.009377468
0.4123042 -0.65583324 -0.41240314 -0.5937207 0.5751343 -0.5304377 -0.7199951 -0.67636085

neighbor_encoder_1.weight f4 [32, 4]
00000000: 2046 593f c1d6 753e 989c 52bf b51e f8be
00000010: cff0 74bf ca1b e9bd 9f0e 43be c2ee 36be
00000020: 87a6 df3f 7ac2 0e3c e247 e43e 9cc4 97bd
00000030: 37b1 10bf 15fb e0be eb39 c6bd dc46 ba3e
00000040: f574 f1bc f845 793c 4597 bdbe ca95 923d
00000050: 9666 a73d a284 513f 0597 d93e 6ab6 9e3e
00000060: e004 0dbf df47 04bf adb4 473f 093f 1dbe
00000070: 2f4c 213e 3bfe fdbe 6301 8ebe 982d 90bd
00000080: f6a8 cc3e 497a f1be f56a 123e 0a4f 0abe
00000090: d86e 85bd 81c1 0f3d f5d0 c3bd 26a7 a6be
000000a0: 0c6f 793d 6864 c73d 1ba0 a93e fd8b 18bd
000000b0: c451 aa3e af03 f73d 6eec 29be c640 75bd
000000c0: a2f7 603f f6a4 23bf 950d e9bd 49fe c1be
000000d0: 730c 723e a076 003e 0a9c 743e 855a f0be
000000e0: e653 b6be 189d 17bf 41c6 873e 880f 47be
000000f0: 9880 1ebe 43ff 8ebd 11e3 cc3e ad91 47bf
00000100: 2875 a13f 9532 31bf 3aab dc3e a526 ea3c
00000110: 74e3 d23e 44d2 03ba 8ae7 bc3e a3fc 8bbe
00000120: b70b 393e edbe 763e 4cef 7bbe 3f60 acbe
00000130: 4c4d 47bd 1a5c a2bc 13e6 4bbe f85b 5fbd
00000140: 2884 08bf b063 2fbf b8b2 0ebe 3142 30bf
00000150: c8d7 5f3e c710 b53e c397 9ebe cc0f 71bd
00000160: 49a9 c4bd b1c1 a7be 637a 873d 1afc 91be
00000170: f44b 743e 98f6 1cbf f070 3f3f 0ebf b63e
00000180: 3114 44bf d99d 763f f710 163d 3d5a dc3c
00000190: b665 553e b3e4 f83e 0e9d 7d3e 3181 213d
000001a0: e4dc af3d 2ab6 843e 7c2e 213e ee1a c73e
000001b0: 13b2 103d 13ca 043d d89d 9ebd f8bc e43e
000001c0: aa84 67be 9d48 9ebf f810 533e fee2 34bf
000001d0: f1c6 b13e 9585 313f 5b8d cfbb b31b 203e
000001e0: f1cf 183d ccbc 3f3e c03f 05be 8961 023e
000001f0: d63e a73e 9baa 89bc 3a4e efbd e799 493f
0.8487263 0.24007703 -0.82270193 -0.48460928 -0.95679945 -0.113822535 -0.19048546 -0.17864516
1.7472695 0.008713359 0.44586092 -0.07410547 -0.5652041 -0.4394156 -0.09679016 0.36382186
-0.029474715 0.015214436 -0.37029472 0.07157476 0.081738636 0.81843007 0.4249803 0.30998546
-0.55085564 -0.51672167 0.78010064 -0.15356077 0.15751718 -0.49608025 -0.27735433 -0.07039946
0.39972657 -0.4716361 0.14298613 -0.13506714 -0.065152824 0.03509665 -0.0956134 -0.325494
0.06089692 0.09735948 0.33129963 -0.03724288 0.33265507 0.120612495 -0.16594097 -0.059876226
0.8787786 -0.63923585 -0.11379544 -0.37889317 0.23637562 0.12545252 0.23887649 -0.4694406
-0.35610884 -0.5922408 0.26518443 -0.19439518 -0.15478742 -0.06982281 0.40016988 -0.7795666
1.2613878 -0.6921781 0.43099385 0.02858288 0.41189158 -0.00050285854 0.368954 -0.27341184
0.18070875 0.2409627 -0.24603003 -0.3366718 -0.0486577 -0.019819308 -0.19911985 -0.054531068
-0.53326654 -0.68511486 -0.13935363 -0.68851 0.21859658 0.35364363 -0.3097516 -0.058852956
-0.09602601 -0.32764962 0.0661514 -0.2851265 0.23857099 -0.6131377 0.74781704 0.35692638
-0.7659331 0.96334606 0.036637273 0.026898498 0.20839581 0.48611984 0.24766943 0.039429847
0.085870534 0.2592023 0.15740389 0.38887733 0.035326075 0.032419275 -0.0774495 0.44675422
-0.22609201 -1.236591 0.20611942 -0.7065886 0.34722093 0.69344455 -0.0063339896 0.15635566
0.037307683 0.18724364 -0.130126 0.12732519 0.32665128 -0.016804984 -0.116848424 0.7875046

neighbor_encoder_1.bias f4 [32]
00000000: fb4b 3fbe 8333 1f3d 324b b93d ea36 fdbe
00000010: 0cf2 df3f 5090 253f ef29 9abf b410 353f
00000020: 35a4 b43e 047a a8bf 4414 ad3f 964c 853f
00000030: d3e0 2dbf 4206 ce3f fb08 a8bf 3edf ba3f
00000040: 25f4 04be a3ee a13e d9c9 e93f 2a0e f23f
00000050: 6edb 9bbe e3c9 c13f 368d 5d3f 0b36 333e
00000060: 861c 893d bb5b cd3f 7523 bd3f b907 eb3f
00000070: 9456 bebe 8377 253f 7719 c93f 482d 0f3f
-0.18681328 0.038867485 0.090475455 -0.4945596 1.7495742 0.6467333 -1.2044047 0.7072861
0.3528153 -1.3162236 1.352181 1.0413997 -0.6792118 1.609566 -1.3127741 1.4599378
-0.12983759 0.31627378 1.8264724 1.8910573 -0.3044085 1.5139736 0.86543596 0.17501085
0.066948935 1.6043619 1.4776446 1.8361732 -0.3717543 0.64635485 1.5710896 0.5592847

neighbor_encoder_2.weight f4 [16, 32]
00000000: f773 dd3e 1c3b 0e3f a07d c93f c279 84bf
00000010: 95d0 1cbe c768 4f3f e03a 29be 5e03 05be
00000020: c603 033f e8c5 fb3d 4af2 7abe 9158 153e
00000030: 785c 9dbd 42a0 c53e 2e90 463e d993 ca3e
00000040: 897e ca3f c219 72be c8c5 b6bc cd87 4a3e
00000050: 5d35 2f3e ac8e 043f 2128 e8bd ca63 263f
00000060: 84ab 393f 8390 a2be c367 5fbe d555 ac3e
00000070: 529c 5b3f 390e b63e 36fe 8dbe 6805 283f
00000080: 0b20 6bbe 24da 283f d748 ba3f 78fc 70bf
00000090: 2192 09bf 15f3 e53e 944b 01be 6979 35bf
000000a0: f02e 4cbe 0882 42bf a995 1dbf 5808 f0be
000000b0: 8342 97bf 60e5 ddbd c30a bd3d 0fa3 b2be
000000c0: d02f b63f d444 28bf 1a4f 2abf a699 1ebe
000000d0: ac36 6c3e c37e d73d e405 55bf 5f29 3f3d
000000e0: f46b 0e3f dcb6 31bf 3a4a 0fbf d186 543d
000000f0: fbbd fc3e 8084 61be dbcb bbbe 56a9 f93e
00000100: 71e6 9f3f bb2a 24be 1614 bb3e 21be b7be
00000110: 6be1 29bf 2ed9 80bb edd7 343f ec9d 40bf
00000120: 0232 92bd 2096 4cbe 8a71 81bf 0928 06bf
00000130: 7d59 4d3f ea5f 57bf 1d6a 373f 97f8 46bf
00000140: 7cae 783f 21bf 4f3d f095 61bf 6550 4cbf
00000150: bc79 d53e 7f69 70be f186 9fbe 0dce 753e
00000160: b5fa bf3e 66cf 27bf 3ad0 4fbf 99c2 78bf
00000170: b9a5 093d d65b f13e 489a 6bbf f0b5 843d
00000180: b839 933f 8cbe 0f3f d8db b93e 80a0 40be
00000190: 2046 bcbe 5a65 433f 270b 283f 2f7b d9be
000001a0: 28ee 9e3e 5af4 983d 068a 06bf a2ba a4be
000001b0: 5e00 863f 93ab 8dbe 6e33 5b3f 32ef b9be
000001c0: 1572 693f 63f8 de3d c793 02bf 1c1e c4be
000001d0: 942e 173f 0fab 18bf 80ee 083c 3909 703d
000001e0: 60c1 6c3f 217b 08bf 8b75 03bf 1a16 3ebf
000001f0: 73ab 6c3f 9c82 fd3e 0cea 8bbe ac66 62be
00000200: f63f 923e 85c3 e0bf da1d 81bf b8de 76bf
00000210: 90cf ccbe 9460 77bf 8933 58bf a994 053f
00000220: 8fa1 3abf ed35 a1bf e468 e1be c51c c63e
00000230: 015b 8dbf f2c9 fbbe dbbc 9cbf 85c7 43bf
00000240: f83c 6abf 99f9 1a3d 9ce6 94be 83bd 1cbf
00000250: cb47 c4bf 2d16 b63e 59f7 8ebd 642f 8abe
00000260: c123 97bf 810f 8bbe 6cdb ecbe 1774 3cbf
00000270: 3024 c3bf c4b7 5bbe 8a64 abbe 56dc 40bc
00000280: 35cb 04bf 319b 4ebf c334 cbbf a1f1 973f
00000290: 094e e83d 5bf5 93bf 6e00 7d3e fccf e63e
000002a0: 36e6 c9be c952 e93e f007 ff3e 751a 303e
000002b0: feb0 ce3e fde1 f2be fc49 c5bd 4f69 05bf
000002c0: 6d45 90bf 35f5 a03e 6c1f 253e d4f2 acbe
000002d0: c618 eb3d 10d8 b8be c9e2 e83e f714 4dbe
000002e0: 67df 9bbf 304b 033f 207f a13e e8df 64be
000002f0: 0255 55bf 5e5f 26bf 7657 613e 1757 5cbf
00000300: 5acd 60be 37e9 82bf bf27 6cbf 5b3b 5abe
00000310: 2848 e83b 691c 1bbf 2741 c6be 99f3 563f
00000320: 078c 86be eedd 1dbf cd33 81bb b773 123f
00000330: 34a8 f3be 09d5 e7be 7a2c 40bf 6a4e fcbe
00000340: 2c32 ccbf a294 e23e abd2 5dbd 7fcf b3be
00000350: c96b 9dbf 0525 72bd 391c 55bc a287 e4be
00000360: 6e63 82bf 4c6b 69be bd7f 8abd 2ef2 dfbe
00000370: 924d 96bf 4811 a43c 9299 843d a041 033e
00000380: 419f 19bf 80f4 2dbe 630f b6be 1b4e 0f3f
00000390: 0591 4b3f cbf4 47be c3e7 90be f724 813f
000003a0: 8603 fb3d e2fa 833d 5f11 803f a4a9 413f
000003b0: efd3 79bf 2a83 403f 151a 18bf 258a 6c3f
000003c0: e6f5 aabf 9eb5 eb3e 3aaa 843f db4b 7b3f
000003d0: 066f e9be abe8 2b3f 4366 443f 5168 093d
000003e0: 5940 4cbf 571b 613f 1390 393f 11ce 693f
000003f0: cfe7 4fbf e319 c7bd 01a4 293f e15b 8b3e
0.43252537 0.55558944 1.5741463 -1.0349658 -0.15313943 0.8101925 -0.16526365 -0.12989566
0.5117763 0.12293607 -0.24506488 0.14584567 -0.07683653 0.3859883 0.19390938 0.39565924
1.5819865 -0.23642638 -0.022311106 0.19778366 0.171102 0.517802 -0.11335779 0.64996016
0.7252734 -0.3175088 -0.21816926 0.33659235 0.857854 0.35557726 -0.2773301 0.6563325
-0.22961442 0.65957856 1.4553479 -0.94135237 -0.537386 0.4491202 -0.12626487 -0.7088838
-0.1993978 -0.7597966 -0.6155649 -0.46881366 -1.1817173 -0.108347654 0.09230568 -0.3489003
1.4233341 -0.65730023 -0.6652695 -0.154883 0.2306773 0.10522225 -0.83212113 0.046670314
0.55633473 -0.69419646 -0.55972636 0.051886383 0.49363694 -0.22023201 -0.36678967 0.48762006
1.24922 -0.16031925 0.36538762 -0.35887244 -0.66359586 -0.00393214 0.70641977 -0.7524097
-0.071384445 -0.19979143 -1.0112774 -0.5240484 0.80214673 -0.8413073 0.7164629 -0.7772307
0.9714124 0.050719384 -0.8811941 -0.7981017 0.41694438 -0.23477744 -0.3115764 0.24004383
0.37495962 -0.6555084 -0.81177104 -0.9717193 0.03360531 0.47140378 -0.9203229 0.06480014
1.1501989 0.56150126 0.3630054 -0.18811226 -0.3677225 0.76326525 0.6564202 -0.42476794
0.31041074 0.07468481 -0.5255436 -0.3217364 1.0468862 -0.27669963 0.8562535 -0.36315304
0.911897 0.1088722 -0.5100674 -0.38304222 0.5905545 -0.59636015 0.008357644 0.058602545
0.92482567 -0.5331288 -0.5135123 -0.74252474 0.9244911 0.4951371 -0.27327 -0.22109479
0.28564423 -1.7559668 -1.0087235 -0.9643359 -0.40002108 -0.9663174 -0.84453636 0.5217996
-0.7290277 -1.2594582 -0.44025338 0.38693824 -1.1043397 -0.4917751 -1.2245134 -0.7647632
-0.9149928 0.03783569 -0.2908219 -0.6122667 -1.533441 0.35563794 -0.069807716 -0.2698928
-1.1807786 -0.27160266 -0.46261156 -0.7361464 -1.5245419 -0.2145682 -0.33475143 -0.011771282
-0.5187257 -0.80705553 -1.5875477 1.1870614 0.11343009 -1.1559252 0.24707195 0.45080554
-0.3943345 0.45570973 0.49810743 0.17197593 0.4036941 -0.4743804 -0.09633252 -0.52113813
-1.1271187 0.31437078 0.16125268 -0.33779013 0.114793345 -0.36102343 0.45485523 -0.20027529
-1.2177552 0.512866 0.315423 -0.22351038 -0.83332837 -0.6498927 0.2200602 -0.8607039
-0.21953335 -1.0227422 -0.9224815 -0.21311705 0.00708868 -0.60590225 -0.38721582 0.8396545
-0.26278707 -0.6166676 -0.0039429427 0.57207817 -0.47589266 -0.4527972 -0.75067866 -0.49278575
-1.5952811 0.44254023 -0.054155987 -0.35119244 -1.2298518 -0.059117336 -0.013007217 -0.4463473
-1.0186594 -0.22794837 -0.067626454 -0.43739456 -1.1742423 0.020027772 0.06474604 0.12818003
-0.6000863 -0.169878 -0.35558614 0.55978554 0.7951816 -0.19526975 -0.2830182 1.0089406
0.122565314 0.064443365 1.0005301 0.75649476 -0.9758901 0.7520014 -0.594148 0.9239829
-1.3356292 0.46037 1.0364449 0.9816262 -0.45592517 0.671519 0.7671854 0.03354675
-0.79785687 0.8793234 0.72485465 0.9133006 -0.81213087 -0.097217344 0.66265875 0.27218536

neighbor_encoder_2.bias f4 [16]
00000000: 8a4e 3b3e 1ac6 edbe 9318 a8bf 7c4d 8cbf
00000010: 9615 6ebf e6f4 9abe f5d8 97be 5469 ba3f
00000020: 25d1 b73e 410c 60bf 56e0 2b3f 6dcc c4bf
00000030: 2657 b63f 910c 493d 3931 84bf db89 c3bd
0.18291679 -0.46440202 -1.31325 -1.0961146 -0.9300169 -0.30264968 -0.29657713 1.4563394
0.35901752 -0.875187 0.67139184 -1.5374886 1.4245346 0.04908425 -1.0327522 -0.09547778

linear1.weight f4 [64, 34]
00000000: 9635 493f b6c3 9e3f 1bbd 07bf d78e 823e
00000010: 2cc9 393f 1bb4 4f3f cc74 f53d 1a9c 103f
00000020: e696 d3be 3748 653e 11e6 4f3f 68ef 923e
00000030: 6ad2 39bf d4fb 8ebe abb3 373f 7bc4 653f
00000040: d039 8b3f 1e8e 3b3f b511 cfbe b04b 02bd
00000050: dfdd 3abf c420 94bf ccb2 f0be 82bf da3c
00000060: 6e37 e8be 5dee 19bf 8e5a 02be e4a5 c8be
00000070: 043c f33c 6b79 7c3e 3424 dc3b 0dd6 0fbf
00000080: 0602 423e beeb 933c c455 8a3e 28f4 813f
00000090: aa93 97be 78f8 973e 950d 0dbf be88 963f
000000a0: 6f51 d53d d5ee 463e d2bc 84be 5449 823e
000000b0: 91eb b63e 3fc3 1bbf db5f 07bf 801e 4cbe
000000c0: da4d bf3e 4329 6a3f f964 2b3f 5315 e33d
000000d0: f062 823e 80de 103c 0691 293e 95d4 49bf
000000e0: f202 9cbd 565a eebe 83ca 80be 423f 153f
000000f0: e82a 5a3e 5553 f13e 60b4 09bf 5329 133f
00000100: dab1 563e 5e12 b2be 532e 133e b5ae 0d3e
00000110: 5429 fdbc e092 fe3e bfe0 573f 1fd0 a73c
00000120: 27fe 0bbd c3d2 413f 6db3 fcbe f440 35be
00000130: 05f1 c0be bef9 49bf 3198 d6be 30e7 643e
00000140: 3208 ac3d 8c47 e43d 9e48 6cbe 7499 cc3d
00000150: d6fc 283f 72a1 08bf e542 5b3b 0ff9 3ebe
00000160: c098 6abe 9119 35bf 21f5 f8be cdd3 b63e
00000170: b5a3 1cbf 77c3 043e 1164 5b3e 55fa f63d
00000180: f519 39be 93dc a83f 4782 363c d0ff fbbe
00000190: ffe3 92be 863d 88be a295 113f 07b3 863f
000001a0: 92cd 2a3e 213c 8b3f de69 803f d9fe 973f
000001b0: 9476 00bf 2b8c 593f 8497 8ebf f0b3 dabe
000001c0: 6be0 993f 7899 a83e 1dc2 76bf 8684 0ebf
000001d0: 368f 593f 1406 963f 1181 103f 7a9c 633f
000001e0: c9c3 a53d 99b2 2a3d e6fd 0b3c 68d5 32bf
000001f0: fd27 1b3e 5585 f43d 1549 0cbe f8d9 09bf
00000200: 8e19 05bb dd81 023e a028 16be 657b efbe
00000210: c6fa 803e f201 a1be f395 bebe ade8 1e3f
00000220: b36b 29bf fec4 b7be 59d8 843f 056e 1bbf
00000230: 97ca 23be 4752 7ebe ffb1 09ba b856 0ebf
00000240: 4a56 be3e 3f66 a9be 3477 03bf a5fb 643e
00000250: 7544 963e d26e dcbd 4f05 e8be 0d2f acbd
00000260: d2f9 2c3d 1b3f 8cbe 59f5 7d3d aaad 98be
00000270: 895a 3a3f 9d55 e03e 5f23 513f 2971 04bd
00000280: 430b 343e d8bc ea3d 9c42 8b3e ecca 40bd
00000290: c1b0 1b3e 8e27 513e 5c8f 033d 6677 fe3e
000002a0: c8ba d8bc bb20 6cbe 00aa 58be a425 c23e
000002b0: 3e90 d83e ea0f 79be 9d65 d0bd 1281 4a3e
000002c0: acc9 a0be 6eaf cbbd 3daf 613e 55b1 d6be
000002d0: bd7f ec3d b987 e03d 4262 8e3d 9e62 adbd
000002e0: 60d1 eabd 4e49 d7bd 5792 96be fbda 0abf
000002f0: 3e1f 6f3e 7923 6dba 2052 3e3f 57ba bd3e
00000300: 3a4b 233f 3524 95bd 5de8 c03e 8290 053f
00000310: e5ad 843d e4d6 fa3c 9659 35bd ae87 433f
00000320: 97a6 68bb 9e12 0d3e 0abb a5bd cae4 9d3d
00000330: 07df 5d3e ed60 983d 34d6 963e 088d a5bc
00000340: d6a4 c23e 21d1 14be d98e bfbe e1f8 373e
00000350: ee22 47be bb61 2fbf 549c f8be 22ed 8cbe
00000360: ac78 c13c 4936 633e 7f98 88bd e83c 85be
00000370: d32d 2e3f f39d da3e 6669 75be 3d25 46bd
00000380: e27f adbe 3fc1 43bf 266f 33bf 8c12 933e
00000390: 3aab cfbe 4759 12bf 15e6 cdbb bca3 29bf
000003a0: edeb 883e b314 3b3f fa5c 053d 48e7 fabe
000003b0: 3282 f2be aa81 b1bb c3d4 97bf 5b80 bebd
000003c0: a868 88be 24dd ab3e e256 d4be db39 50bd
000003d0: 5541 cc3d 05f6 8f3d 704f 9a3e 8acc 9c3e
000003e0: a00e b5be e0d5 7abe 5b38 253f 66d3 2b3f
000003f0: 88ab 23be c4ca 41bf 4d4c 11be 07e6 ce3e
0.7859739 1.2403476 -0.5302293 0.25499603 0.7257259 0.81134194 0.11985168 0.5648819
-0.41326064 0.22390829 0.8121043 0.28698277 -0.7258669 -0.27926505 0.71758527 0.8975293
1.0877018 0.7326373 -0.40443197 -0.031810462 -0.729948 -1.1572499 -0.4701141 0.026702646
-0.4535479 -0.6012934 -0.12729856 -0.39189065 0.029691704 0.24655692 0.006718183 -0.5618599
0.18946084 0.018056747 0.2701856 1.0152636 -0.29604846 0.29681754 -0.5509885 1.176048
0.10415923 0.19427045 -0.25925308 0.2544657 0.35726598 -0.60844797 -0.5288064 -0.1993351
0.37364084 0.9146921 0.6695095 0.11088052 0.25466108 0.008842111 0.16559228 -0.7884
-0.07617749 -0.46553296 -0.25154504 0.5829965 0.2130543 0.4713389 -0.53790855 0.5748493
0.20966282 -0.34779638 0.1437314 0.13836177 -0.030903496 0.49721432 0.8432731 0.020484982
-0.034177925 0.7571222 -0.4935564 -0.17700559 -0.37683883 -0.788967 -0.41912988 0.22353816
0.08400001 0.11146459 -0.23074576 0.09990206 0.660108 -0.53371346 0.003345662 -0.18649696
-0.22909832 -0.70742136 -0.4862452 0.35708466 -0.611873 0.12965189 0.21424891 0.12059466
-0.18076308 1.3192314 0.011139459 -0.49218607 -0.28689572 -0.2660944 0.56868947 1.0523385
0.16679981 1.0877725 1.0032308 1.1874648 -0.50180936 0.84979504 -1.1139989 -0.42715406
1.2021612 0.32929587 -0.96389943 -0.55670965 0.8498415 1.1720605 0.5644694 0.8891064
0.08093984 0.04167423 0.008544421 -0.6985688 0.15151973 0.119394936 -0.13699754 -0.5384822
-0.0020309421 0.12744851 -0.14663935 -0.4677383 0.25191325 -0.31446797 -0.37223777 0.62073785
-0.6617996 -0.3589248 1.0378524 -0.6071475 -0.1599525 -0.24836074 -0.0005252659 -0.5560107
0.37175208 -0.3308582 -0.51353765 0.2236162 0.29349104 -0.10763325 -0.4531655 -0.08407412
0.042230435 -0.27391896 0.06200156 -0.29819995 0.72794396 0.43815318 0.81694597 -0.03233448
0.17582421 0.114618 0.27199256 -0.04706852 0.15204145 0.20425245 0.03211914 0.4970047
-0.026456252 -0.2305936 -0.211586 0.37919343 0.42297548 -0.24322477 -0.10175631 0.19775799
-0.31403863 -0.0994557 0.22039504 -0.4193217 0.11547802 0.10963387 0.06952335 -0.08466075
-0.11465716 -0.10512029 -0.29408523 -0.5424039 0.23351762 -0.00090461184 0.7434406 0.3705623
0.6378666 -0.072822966 0.3767728 0.52173626 0.0647848 0.030620046 -0.04427489 0.76378906
-0.0035499686 0.13776633 -0.080923155 0.07709654 0.2166711 0.07440362 0.294603 -0.02020885
0.38016385 -0.14532901 -0.37413672 0.17966034 -0.19446918 -0.685085 -0.4855677 -0.27524668
0.023617111 0.22188677 -0.06669711 -0.2602303 0.6803867 0.4269863 -0.23965988 -0.048375357
-0.3388663 -0.76466745 -0.70091474 0.28725088 -0.40560323 -0.57167476 -0.0062835314 -0.66265464
0.26742497 0.7307846 0.032559372 -0.4900458 -0.47364956 -0.0054170685 -1.1861805 -0.093018256
-0.26642346 0.33567154 -0.41472536 -0.050836425 0.099733986 0.070293464 0.3013873 0.306248
-0.3536272 -0.2449565 0.64539117 0.67119443 -0.15983403 -0.7570002 -0.14189263 0.40409872

linear1.bias f4 [64]
00000000: 5941 b93e 9f7f 27bf 5c84 9c3e afd4 10bd
00000010: e8e1 d23e 3ad2 6dbe bde6 433f 8586 6c3f
00000020: 794f 35be 6346 08bf 7677 823e d416 613e
00000030: d34b 12bf 1341 6dbf bce8 ae3e 2ac7 ba3d
00000040: fa4c 1ebf 0642 fe3d fa74 61bf 9685 273e
00000050: fdea ab3e e622 0a3e ab20 85be ded1 ecbe
00000060: 0298 18bf 5c8d 073f 9a48 703e 7aa3 87bf
00000070: 0b12 0cbf 42f4 053f 5dcc 373b 2fd4 d93e
00000080: c92b 0140 fc2a c13e 863e 8dbe 4e1c b43e
00000090: 9b9d 2cbe d3ff 1c3e c82c 3ebf 08e0 09be
000000a0: 7fed c8be 9a0c 9f3e 44c0 3a3f c086 e6be
000000b0: d8f2 043e 39db 1d3e b0c2 8fbf 9a98 c63d
000000c0: b4e2 aa3e 4b48 833e ff0d b7be 9aac 19be
000000d0: 2331 65bf f695 7cbf 7a0a 5d3e a71e 42be
000000e0: 4ecc 503e ed0f 243e 3323 793f 3567 15bf
000000f0: c448 cc3d 85a0 f13e 7847 13c0 7792 ff3d
0.3618267 -0.6542911 0.30569732 -0.03535908 0.41187978 -0.23224726 0.76523954 0.9239276
-0.17706098 -0.532324 0.25481766 0.21981364 -0.5714695 -0.9267742 0.34161937 0.09120019
-0.61836207 0.12414937 -0.8806912 0.16359553 0.3357772 0.13489875 -0.26001486 -0.46253866
-0.59606946 0.5295007 0.23465195 -1.0596764 -0.5471503 0.5232583 0.0028045394 0.42544696
2.0182974 0.37728107 -0.27586764 0.35177845 -0.16856997 0.15331964 -0.7428708 -0.13464367
-0.39243695 0.31064302 0.72949624 -0.4502468 0.12983263 0.15415658 -1.1231289 0.09697075
0.33376086 0.25641093 -0.35752866 -0.15007249 -0.895281 -0.9866632 0.21586028 -0.18957005
0.20390436 0.160217 0.97319335 -0.58360606 0.099748164 0.4719278 -2.301237 0.12479108

linear2.weight f4 [16, 64]
00000000: 0991 80be 28fb 8dbe e7d1 95bd 86c2 1fbe
00000010: d277 2a3e 595f 353e 1ce2 aebe 6a37 d33d
00000020: 51e4 963b e48b d8be bc85 41be a2ee c13c
00000030: 871b d2be 331e aabd 3a07 91bd b15c f03d
00000040: 6dd1 34bf 4163 d8be dc49 32bf 5baa fa3d
00000050: d20a 8bbe ad58 e53d f0ab 8dbe 9be3 abbd
00000060: 221c 3fbe ea2a f0be ddb9 4c3d b964 41be
00000070: eba9 fd3d c33a 25be bc63 97be 0687 49ba
00000080: 624f 02bd 4a2f 90bd 5d2d 6dbd ef4d de3c
00000090: a9d7 cb3e 7acf 523e 7ed5 9abf 7a6e a3be
000000a0: a76e 48bf 03b9 cd3d 501d d33d b0c9 e2be
000000b0: 02e8 f9bd 24d5 263d a15c 80be 1d1b d3be
000000c0: e011 c33d 80ef 7ebe ebf1 22bf f84b 8dbe
000000d0: eed7 a3be 0d4a 0fbf 9223 db3d 00fa 603e
000000e0: 2fea c7bd f5c8 d03d 7c3b 8fbe 4bc8 0abf
000000f0: 8d4c a8be 8fae a23c e265 b6be c3cc ac3e
00000100: a140 cdbe 7741 bcbe 3641 29be 8c85 59be
00000110: 2c6d c93e 1de0 853e 5422 b7be 3a11 af3e
00000120: 692e d23d 8b5c 8abe 3862 e93d f937 9e3e
00000130: 3ecc 41bf ccc8 0dbe 4c86 9e3e 94db a13e
00000140: e416 01bf ac6b b7bc 6d07 56bf 8210 113e
00000150: c4db 7bbe 6536 523e 2bf8 95be 9ff3 173e
00000160: 1823 c3be 7808 0dbf 4faa b53d dd95 fdbe
00000170: 891d 3bbf 9577 46bd ec35 b6be 5f9b 8b3e
00000180: ecb7 a83d cabf 963e eb01 1cbe 9922 5f3e
00000190: 6b90 0a3f e4f6 74be 96de 98bf 197f 30bf
000001a0: 2d06 9bbe 67fb ab3e 8e60 ee3e 1d7a abbe
000001b0: da12 2cbe 611b 4f3e add0 40be 81c8 5b3e
000001c0: 7cef b03e 6237 913d 2848 8bbe b012 cabe
000001d0: 3139 f3bd ca9e e9be 610e c43e 905e 9a3e
000001e0: f6ae 35be 2a07 4cbf 5cd3 8e3d 0c95 dabe
000001f0: 9bd8 96be 913c 6c3e 8aad afbe 1f86 1f3f
00000200: c93b 0fbe d281 82be e0dd 81bd 2aab a1be
00000210: 6047 e0bc 2007 71be 99da 1f3e 34dd 623e
00000220: 3ef3 b03d 38a0 aabe 2259 b4bd 56c1 1ebe
00000230: 2e9d 853e cc2a eebd 5128 853d ecaf 8bbd
00000240: 15dc 5fbe 2d28 5bbd a812 76be ff90 0ebe
00000250: 56c3 403c 8fb4 32be a657 a4bd 2178 d63e
00000260: ece3 483d 9e12 16be 868a c63e b939 91be
00000270: bd4e b83d 3950 49be 6916 743d 8b17 3ebe
00000280: 1e0a cebe e7ef 183a 0038 0dbe 9f6f 343e
00000290: a6fd fbbd 0e6b 88bd 7670 abbd 3b6e 02bf
000002a0: 29d5 8ebd 2ffb f23b 5c71 7cbe 7b88 1fbd
000002b0: 5caa 1abe 6ce9 4bbe 0029 3ebd 91b3 063d
000002c0: bc94 383c f31e a1be feb0 6ebc 9e71 b5be
000002d0: 5d94 e83b c717 963d 5a3d 2abe bb93 35bd
000002e0: 91ec 2ebe 61d0 8abd dfd6 3bbe bec8 4d3d
000002f0: 614c 5ebe 136a a13d cadb 3abe cacb 72bd
00000300: fb70 8abe 8f6e fabb 3384 cf3e 9fcb 9cbd
00000310: 9fa6 88bd 60cd 63bd fa2a 383e fe53 b4be
00000320: c195 473d e0aa 543d f68f 953d 99f7 c7bc
00000330: 1676 9abe f89f 75be cc7f 25be 83a3 0dbe
00000340: 4156 9cbd 0f41 d8be 30aa 95bd 6c6c 89be
00000350: 7468 0ebd 6c07 58bd 3298 05be e87a 90bb
00000360: 160b 07be 31f4 ccbd cb4c 223e c7ef f0bd
00000370: 5155 c93e c1e1 983d 41dc 07bf 8e03 ce3c
00000380: e160 3cbe 1976 19be d773 db3d b0e5 83be
00000390: 7538 b3bd db89 a0bd d73b 11be 4242 953e
000003a0: 02db 8bbd 7e98 d7be e604 82bd 456c 033e
000003b0: 03da 76be 6164 e1bc ae49 22be 829c 47bd
000003c0: 1b2d 58bd fe80 13be c0ea 6bbe 86ac 8cbc
000003d0: 7d1c 553d 3d52 ecbe ca60 283e dba7 10be
000003e0: 3b05 813e fb96 03bf 8ec9 00be d959 3fbd
000003f0: 73bb 85be 3644 93be 6979 21be 863e cdbe
-0.25110653 -0.2773068 -0.07315426 -0.15601549 0.1664727 0.17712153 -0.34156883 0.10313304
0.004604854 -0.42294228 -0.18898672 0.02367336 -0.41036627 -0.08306541 -0.070814565 0.117364295
-0.7063206 -0.42263225 -0.6964395 0.12239524 -0.27156693 0.11198554 -0.2767024 -0.08393022
-0.18663076 -0.4690774 0.04998194 -0.18886079 0.12385925 -0.16135697 -0.2956828 -0.00076876616
-0.031813987 -0.0704027 -0.05790459 0.027136771 0.39812973 0.20586959 -1.2096403 -0.31920224
-0.7829384 0.10045054 0.10308325 -0.442945 -0.12202455 0.04073061 -0.2507067 -0.41231623
0.09524894 -0.2489605 -0.6365039 -0.27597022 -0.3200068 -0.5597237 0.10700144 0.21970367
-0.09761464 0.101945795 -0.2797507 -0.5421187 -0.32870904 0.019858627 -0.35624605 0.3374997
-0.4008837 -0.36768696 -0.16528782 -0.2124235 0.39341104 0.26147547 -0.35768378 0.3419283
0.10262758 -0.2702373 0.11395687 0.3090208 -0.75702274 -0.13846129 0.30961835 0.31612837
-0.50425553 -0.02239021 -0.8360508 0.14166453 -0.24595553 0.20528562 -0.292909 0.14839028
-0.38112712 -0.5509105 0.088703744 -0.495284 -0.7309194 -0.048453886 -0.35588014 0.27266976
0.08238205 0.29443198 -0.15235107 0.21790542 0.54126614 -0.23922306 -1.1942928 -0.68943936
-0.3027815 0.33590242 0.4655804 -0.33491603 -0.16804066 0.20225288 -0.18829603 0.21463205
0.34557712 0.070906416 -0.27203488 -0.39467382 -0.11876143 -0.4562896 0.3829222 0.3015027
-0.17742524 -0.7969843 0.06973907 -0.4269184 -0.29462132 0.23069979 -0.34312087 0.6231403
-0.1398765 -0.2548967 -0.063411474 -0.315759 -0.027377784 -0.23537874 0.15610732 0.22154695
0.08640145 -0.33325362 -0.08806063 -0.1550344 0.2609648 -0.116292566 0.0650183 -0.06820664
-0.21861298 -0.05350511 -0.24030554 -0.13922499 0.011765322 -0.1745169 -0.0802453 0.41888526
0.04904549 -0.1465554 0.3877756 -0.2836435 0.08999393 -0.19659509 0.059591684 -0.18563668
-0.40242094 0.0005834088 -0.13790894 0.17620705 -0.12304239 -0.06661044 -0.083710596 -0.5094945
-0.06974251 0.0074151973 -0.24652618 -0.038948517 -0.1510405 -0.19913262 -0.04642582 0.03288609
0.01126593 -0.31468925 -0.014568565 -0.35438246 0.0070977644 0.07328754 -0.16624966 -0.04433034
-0.1708243 -0.06778026 -0.18343686 0.05024027 -0.21708824 0.0788156 -0.18247905 -0.05927638
-0.27039322 -0.007642574 0.40530547 -0.07656025 -0.066724055 -0.055615783 0.17985144 -0.3522033
0.0487268 0.05192077 0.07302849 -0.024410056 -0.30168217 -0.23986804 -0.16162032 -0.13831906
-0.07633639 -0.42237136 -0.07307851 -0.26840532 -0.034767583 -0.052741453 -0.13046339 -0.004409183
-0.13187823 -0.10007513 0.15849607 -0.11764484 0.39322904 0.07464934 -0.53070456 0.02514818
-0.18396331 -0.14986457 0.10715454 -0.25761175 -0.08751003 -0.07838794 -0.14182983 0.29152113
-0.06828882 -0.4210853 -0.063485906 0.1283427 -0.24106602 -0.027513685 -0.15848419 -0.04873324
-0.05277739 -0.14404675 -0.23038769 -0.01717211 0.05202912 -0.46156493 0.16443172 -0.14126532
0.25199303 -0.5140225 -0.12576887 -0.046716545 -0.26119575 -0.28762978 -0.1576897 -0.40086764

linear2.bias f4 [16]
00000000: 7df7 a23e 7798 303f 7aa2 28bd e1d6 abbe
00000010: f780 a2bd c67e bb3f 7d86 abbd e07c bb3b
00000020: 981f 023f 7d6f 0a3f 2f6c 58bf 15ee 933f
00000030: 5c75 713f ac44 743f 2589 d0be 3780 e9be
0.31829444 0.6898264 -0.041170575 -0.33562377 -0.07934754 1.4648063 -0.08375261 0.0057216734
0.5082946 0.5407637 -0.84540075 1.1557032 0.943197 0.95417285 -0.40729633 -0.45605633

linear3.weight f4 [1, 16]
00000000: 43d6 7a3b e83e aa3e 1d56 a7be e5d0 49be
00000010: b2d6 0abf f0c5 083e 8738 40bf 7c53 78be
00000020: f5dc 433f b865 8a3e 76d0 cbbd f2a8 723e
00000030: 6603 cb3e e55e 1e3f 590b bfbf 5d9c bc3d
0.0038274683 0.3325112 -0.32682887 -0.19708593 -0.5423385 0.13356757 -0.75086254 -0.24250597
0.7650903 0.2703073 -0.0995187 0.2369726 0.3965103 0.6186355 -1.4925338 0.092095114
